Teaching Content/L4T4 - Gymnasium/cartpole demo/checkpoints/policy_ep0500.pth (torch, 5824 bytes, 4 tensors)

net.0.weight f4 [128, 4]
0.17506193 0.029968359 -0.6543536 -0.36173362 0.08144186 -0.26197147 -1.2696501 -0.6453834
0.20835799 -0.17389058 -0.2720848 0.051403366 0.107652254 -0.24543856 0.28432873 -0.18619551
0.1829388 -0.32155022 -0.9280976 -0.6736465 -0.20502242 -0.024667008 1.1947397 0.5933521
0.024339722 -0.39855805 0.4730284 0.51822376 0.31028834 -0.01579451 0.80441463 0.23674965
0.41601133 -0.56252867 -0.5194781 -0.33384082 -0.2834412 -0.25797346 -0.56695175 0.16913942
0.14770387 -0.52296543 -0.46915823 -0.81100744 -0.04346591 -0.3022042 -0.03264762 0.31916648
0.066265985 -0.16880202 -0.42690706 -0.61626655 -0.024233488 -0.17560369 0.6951949 0.3586286
-0.36860964 -0.3501694 -0.9542938 -0.38263017 0.3514575 0.44370967 0.05008018 0.80468804
0.080689326 -0.104743265 -0.0053444467 -0.37518924 0.09192428 -0.4776108 -0.06478128 0.20952237
0.017468473 -0.13549341 -0.13627763 -0.3481213 0.1528547 0.13349506 1.5380043 0.51411325
-0.18166584 -0.110793464 -1.0676491 -0.5943852 -0.089455664 0.06291669 -0.101452105 -0.018928882
-0.50818664 0.015879555 -0.7034608 -0.13812973 -0.5779425 -0.0027402798 -0.56775796 -0.5600804
-0.2611589 -0.2052639 -1.0123899 -0.4568038 0.10660866 0.055429317 -0.7589329 -0.5335708
0.20712084 0.32923475 1.7009277 0.37725326 0.09969186 0.12838575 -0.22885635 0.2372017
0.16278458 -0.01474156 0.11536052 0.35332197 -0.4344905 0.08138567 -0.45288932 0.3713024
-0.02944927 0.26434487 -0.24687277 -0.5913625 -0.44747704 -0.32861912 -0.015789907 0.4394006
0.15304033 -0.35601717 0.63357973 0.20995013 0.27067038 0.389726 1.7379401 0.6089666
-0.74103683 0.06088246 -1.3188051 -0.4191823 0.032767802 0.6211915 0.8443668 0.5484007
0.15225188 -0.16144645 -0.79520285 -0.8125377 0.23256396 0.28318945 1.1374625 0.6009306
0.1355215 0.29917243 -0.6263539 -0.012744101 0.0198127 -0.14644676 -0.022712618 0.30053154
0.118033975 -0.1890217 -0.715545 -0.61886543 0.10135726 -0.100856304 -0.03622493 0.020035643
-0.1111023 -0.38688272 -1.2949032 -0.44614792 0.097913705 -0.26538885 -1.389213 -0.6868365
0.101523064 0.07545244 -0.3736094 -0.13480796 0.24851507 0.61550236 1.6761802 0.74850917
0.43153778 -0.54044086 -0.14929302 -0.51535475 0.025136555 0.030129094 0.005377444 -0.15033461
0.07086183 -0.3890354 -1.2712854 -0.6596357 -0.3928788 -0.13796088 -0.121084616 0.34655166
-0.06659442 -0.45035297 -1.0195266 -0.33229694 0.19514337 0.34174442 0.8770321 0.38191867
-0.12375619 0.22038385 -0.14068145 -0.23284236 0.10524984 0.6076248 1.1196156 0.8303538
0.071712166 -0.29817507 0.2016058 0.26358834 -0.0663179 -0.11251329 -0.99856794 -0.5569125
0.11916548 -0.012409181 -0.3969119 -0.27723718 -0.4296343 0.05316283 -0.5404205 0.33477768
-0.35409918 0.084261574 -0.58035356 -0.21723753 -0.3153251 -0.22692432 0.13208824 0.4546545
0.08928428 -0.22133844 -0.34421834 0.080498934 -0.5384466 -0.0932775 -1.1503872 -0.4998726
0.25823584 0.12805396 1.0542322 0.79232967 0.091535665 0.09646476 0.0059321458 -0.028834358
00000000: 6f43 333e 3480 f53c b883 27bf 2635 b9be
00000010: fdca a63d 2021 86be e583 a2bf d937 25bf
00000020: cc5b 553e 5f10 32be b34e 8bbe 568c 523d
00000030: c978 dc3d 3f54 7bbe 8993 913e 09aa 3ebe
00000040: 4f54 3b3e 3ba2 a4be ce97 6dbf 1974 2cbf
00000050: 66f1 51be 7712 cabc 3bed 983f ece5 173f
00000060: 1964 c73c cd0f ccbe c730 f23e 50aa 043f
00000070: 1dde 9e3e 7d63 81bc 1eee 4d3f 806e 723e
00000080: 70ff d43e e101 10bf 84fc 04bf 2fed aabe
00000090: 341f 91be 1915 84be c023 11bf e232 2d3e
000000a0: af3f 173e 10e1 05bf 8235 f0be 2f9e 4fbf
000000b0: 4f09 32bd 82ba 9abe 83b9 05bd ca69 a33e
000000c0: 76b6 873d 70da 2cbe 9093 dabe a5c3 1dbf
000000d0: 4f85 c6bc 74d1 33be 4bf8 313f 2b9e b73e
000000e0: 67ba bcbe 6749 b3be 994c 74bf 1ae8 c3be
000000f0: 3df2 b33e ea2d e33e e020 4d3d 0900 4e3f
00000100: 7240 a53d a383 d6bd 7820 afbb ce18 c0be
00000110: cc42 bc3d 6789 f4be 0cac 84bd 088d 563e
00000120: 0b1a 8f3c c9be 0abe 5d8c 0bbe f43c b2be
00000130: f185 1c3e eeb2 083e 53dd c43f ed9c 033f
00000140: 9c06 3abe afe7 e2bd baa8 88bf a129 18bf
00000150: 8834 b7bd 77da 803d 1fc6 cfbd be10 9bbc
00000160: 8518 02bf d715 823c 0216 34bf e171 0dbe
00000170: 0af4 13bf 4496 33bb 9658 11bf 6e61 0fbf
00000180: 9fb6 85be b330 52be fe95 81bf 30e2 e9be
00000190: a455 da3d da09 633d 6d49 42bf 1998 08bf
000001a0: 7c17 543e 7591 a83e 00b8 d93f 5727 c13e
000001b0: 3f2b cc3d 8e77 033e 5259 6abe 01e5 723e
000001c0: 00b1 263e 9686 71bc 2342 ec3d 9ee6 b43e
000001d0: 8a75 debe 88ad a63d 1ce1 e7be 591b be3e
000001e0: 983f f1bc 3658 873e 37cc 7cbe 8863 17bf
000001f0: b61b e5be c440 a8be d659 81bc 1ef9 e03e
00000200: 9bb6 1c3e e247 b6be 4832 223f 2bfd 563e
00000210: 4f95 8a3e 2b8a c73e d274 de3f 3ce5 1b3f
00000220: 97b4 3dbf e35f 793d 9bce a8bf 109f d6be
00000230: 8837 063d 6806 1f3f 6c28 583f fd63 0c3f
00000240: ebe7 1b3e 3852 25be 6a92 4bbf 7902 50bf
00000250: 3f25 6e3e 35fe 903e 5f98 913f 96d6 193f
00000260: 26c6 0a3e 212d 993e bb58 20bf a2cc 50bc
00000270: 3e4e a23c 24f6 15be d00f babc 45df 993e
00000280: ccbb f13d e88e 41be f52d 37bf f76d 1ebf
00000290: 6594 cf3d c08d cebd 9860 14bd ca21 a43c
000002a0: 9a89 e3bd 7e15 c6be 63bf a5bf 806d e4be
000002b0: fb86 c83d 0ce1 87be bbd1 b1bf 84d4 2fbf
000002c0: 53eb cf3d cf86 9a3d bb49 bfbe 190b 0abe
000002d0: bc7a 7e3e 9091 1d3f 138d d63f 4c9e 3f3f
000002e0: 85f2 dc3e 555a 0abf 45e0 18be 4aee 03bf
000002f0: 2deb cd3c 4ad1 f63c 4535 b03b 51f1 19be
00000300: 0220 913d a62f c7be 7bb9 a2bf e3dd 28bf
00000310: 6927 c9be 9e45 0dbe 36fb f7bd 386f b13e
00000320: a862 88bd aa94 e6be d97f 82bf d322 aabe
00000330: aad3 473e 20f9 ae3e 2d85 603f d88a c33e
00000340: e373 fdbd 4eac 613e cc0e 10be 3a6e 6ebe
00000350: 3a8d d73d 4d8d 1b3f 904f 8f3f 1192 543f
00000360: d4dd 923d 67aa 98be c071 4e3e 0df5 863e
00000370: aed1 87bd 5e6d e6bd 26a2 7fbf d191 0ebf
00000380: 080d f43d e14f 4bbc 0938 cbbe 08f2 8dbe
00000390: 07f9 dbbe 45c1 593d ff58 0abf fb67 ab3e
000003a0: 7d4c b5be 5591 ac3d 0d92 14bf 8473 5ebe
000003b0: 4b72 a1be d95e 68be 2442 073e 7ac8 e83e
000003c0: adda b63d 8ba6 62be 633d b0be a0dc a43d
000003d0: a3d7 09bf 4608 bfbd e33f 93bf 4def ffbe
000003e0: 7d37 843e 9420 033e 15f1 863f 1ed6 4a3f
000003f0: 0d77 bb3d 518f c53d 7262 c23b 0836 ecbc

net.0.bias f4 [128]
0.14785561 0.08238865 -0.5663401 -0.5423929 0.048250128 0.18307194 -0.42685923 0.16352679
-0.2924499 -0.289799 0.031571805 -0.30670387 0.07419793 -0.3518078 0.08274671 -0.079322815
-0.5248083 -0.43097404 -0.48410606 0.51437336 -0.004071582 -0.3078641 -0.22018833 -0.19970545
0.012774454 -0.3396554 0.43869177 -0.5808203 -0.42323726 -0.2774783 -0.27792454 -0.38294712
-0.46338746 0.5600351 -0.2235418 0.34023386 0.33204037 0.40327388 -0.43683526 -0.32648548
-0.02806094 -0.44096863 0.04161072 0.110916674 -0.58989775 0.5777784 -0.52174914 -0.43758368
0.15887949 -0.37791872 0.064654484 0.32485747 -0.5012801 0.5461477 -0.34406662 0.09497452
-0.52320254 -0.25198236 -0.1169118 -0.28839287 -0.30062303 -0.1224688 0.22638051 0.23040399
-0.52380466 0.033316106 -0.3308535 0.39604926 -0.46296975 -0.41019318 -0.052733187 0.05657024
-0.013641527 -0.69440645 -0.080585696 -0.42770168 -0.32739848 0.034886308 0.472339 -0.530432
-0.011175418 0.03547199 0.39016163 -0.37240362 0.36775336 -0.63529223 -0.3475552 -0.38488913
-0.3960793 0.4284586 -0.34612498 -0.4452563 0.27672887 -0.31966418 -0.20261475 0.17025806
-0.21645074 0.22319512 -0.44663084 0.09367732 -0.23210207 -0.36650902 0.363411 -0.15337333
-0.073530026 -0.3949434 0.4858832 -0.1970174 0.0433037 -0.14707482 0.15647416 -0.37986183
0.15622701 -0.41518986 -0.018963093 -0.7696148 0.30802268 -0.25665516 -0.20783325 -0.61832666
-0.39912477 -0.6658232 -0.5773424 -0.63850105 0.50328195 -0.56789416 0.33705306 -0.28924033
00000000: 7667 173e 61bb a83d aafb 10bf 43da 0abf
00000010: eda1 453d 3677 3b3e 4b8d dabe 9173 273e
00000020: febb 95be 8960 94be 7051 013d 4a08 9dbe
00000030: 16f5 973d 2720 b4be 1b77 a93d 0074 a2bd
00000040: d659 06bf a1a8 dcbe c0dc f7be f9ad 033f
00000050: e86a 85bb 5da0 9dbe 0d79 61be 967f 4cbe
00000060: f24b 513c 50e7 adbe 359c e03e a4b0 14bf
00000070: 8eb2 d8be a311 8ebe 204c 8ebe a511 c4be
00000080: 1f41 edbe 765e 0f3f 24e8 64be 2233 ae3e
00000090: 3201 aa3e ea79 ce3e dfa8 dfbe 1b29 a7be
000000a0: 0ee0 e5bc a4c6 e1be 0170 2a3d 4828 e33d
000000b0: 8a03 17bf 49e9 133f 5a91 05bf f80a e0be
000000c0: 4eb1 223e 907e c1be 9269 843d b853 a63e
000000d0: e553 00bf 56d0 0b3f 8029 b0be 0082 c23d
000000e0: 9af0 05bf d503 81be 746f efbd 3ba8 93be
000000f0: 43eb 99be ecd0 fabd 4bd0 673e 06ef 6b3e
00000100: 1018 06bf 7876 083d a165 a9be f8c6 ca3e
00000110: 5f0a edbe d704 d2be c1fe 57bd 32b6 673d
00000120: b680 5fbc 9fc4 31bf 1d0a a5bd b7fb dabe
00000130: c6a0 a7be f2e4 0e3d 6bd6 f13e 64ca 07bf
00000140: 1a19 37bc 144b 113d 44c3 c73e b0ab bebe
00000150: 2b4a bc3e 83a2 22bf c1f2 b1be 3010 c5be
00000160: e8ca cabe ed5e db3e 4b37 b1be a2f8 e3be
00000170: 68af 8d3e 06ab a3be 3e7a 4fbe 2158 2e3e
00000180: 43a5 5dbe 438d 643e ccac e4be e5d9 bf3d
00000190: 2aac 6dbe 12a7 bbbe 0211 ba3e e60d 1dbe
000001a0: e996 96bd 0536 cabe afc5 f83e eebe 49be
000001b0: 385f 313d c89a 16be c33a 203e 407d c2be
000001c0: f9f9 1f3e c493 d4be 7d58 9bbc 7a05 45bf
000001d0: 26b5 9d3e 4e68 83be 3dd2 54be a84a 1ebf
000001e0: 155a ccbe 6473 2abf b6cc 13bf ce74 23bf
000001f0: 16d7 003f 8361 11bf 3892 ac3e 4f17 94be

net.2.weight f4 [2, 128]
0.026713904 0.21206214 0.05479461 0.044252325 0.17064874 -0.06665867 -0.03195574 -0.10125017
-0.022354744 0.06435406 0.2472544 -0.12370381 0.026717357 -0.05644087 0.10599046 -0.25868353
0.042999376 -0.12464883 0.019198041 -0.21954392 0.13753292 -0.034523394 0.25744253 0.3155227
0.14192498 0.08656464 -0.68028694 -0.08922771 -0.011814274 0.1619931 0.11071994 0.14906614
0.078093536 -0.579015 0.3292265 -0.1899993 -0.015923852 -0.43954107 -0.23154439 -0.070394784
0.062290166 -0.023166133 0.24150674 0.25202236 -0.08987651 -0.49421874 0.060992714 0.0012110814
0.1897071 0.064337954 0.03987894 -0.11601671 0.0069619967 -0.4862732 0.0024982768 0.065561526
0.06298705 0.20853648 0.09322243 0.083373316 -0.043051094 0.28772166 -0.40215072 0.007125633
-0.10732487 0.14401846 -0.112140276 -0.27450296 -0.03924434 -0.07097884 0.07070016 0.25696513
0.32161805 -0.013005515 0.2186562 0.018078305 0.09163469 0.19564621 -0.24090548 0.008908722
0.36439085 0.35693145 -0.59368354 0.22590859 -0.47358826 0.043005068 -0.14676747 0.055530336
0.043183416 -0.34791842 -0.16215995 0.19350159 0.029030107 0.011896857 0.040820025 0.3102827
-0.42660722 0.1663667 -0.0136903 0.024728991 0.04473903 -0.26139784 -0.24164882 0.11856152
0.20964031 0.32697424 -0.15311824 -0.3180603 0.45263278 -0.31798223 0.10868464 -0.008081841
-0.0321622 -0.062369097 0.21382548 0.079713404 -0.32084787 -0.050408505 0.09527472 0.4177184
0.12607165 0.03930908 -0.07804602 0.12014351 -0.7834135 0.0010686344 -0.42028394 0.05459533
-0.0577016 -0.10645752 -0.09607035 -0.030132884 -0.09818842 0.13047472 0.13423413 0.07442856
-0.11554731 -0.17108886 -0.22122125 -0.002575183 -0.058612116 -0.024521394 -0.12050471 0.3102177
-0.04281953 0.0038602434 -0.012439078 0.3078237 -0.23278625 -0.06674615 -0.23698014 -0.3669427
-0.23880512 -0.036102872 0.5728492 -0.00036095767 0.0631261 -0.22169349 -0.1453792 -0.1191298
0.05716197 0.5421504 -0.22123232 0.13341434 -0.10754649 0.40494776 0.27391955 -0.02529851
-0.10992178 0.11660463 -0.2902999 -0.17275506 -0.06597005 0.65120137 -0.117118604 0.08228296
-0.13624434 -0.17199624 -0.114808425 0.24734409 0.05073918 0.40273207 0.059938658 -0.033059884
-0.0068382225 -0.19727594 -0.078593336 -0.14195323 -0.051207505 -0.35733333 0.26010814 0.014928873
0.10575137 -0.22254738 0.079065315 0.26233447 -0.09715843 -0.060690515 0.00658714 -0.18754813
-0.33837062 0.06567732 -0.06951878 0.00897781 -0.09838119 -0.26120383 0.2167218 -0.019228091
-0.37858367 -0.46256313 0.6077741 -0.112201214 0.43248713 -0.077504866 0.24911246 -0.06240631
-0.029720113 0.33674136 0.23104589 -0.2628577 0.0089810565 -0.07930859 -0.04669538 -0.307005
0.36827943 -0.1809731 -0.040951382 -0.056360457 -0.05681696 0.26081687 0.1798886 -0.06401259
-0.11488511 -0.35483536 0.16260323 0.17305225 -0.3279752 0.34197098 -0.15445493 -0.04065765
0.17487352 -0.017785298 -0.20331624 -0.094374165 0.30151287 0.12477432 -0.123784274 -0.42678785
-0.15407306 -0.074395224 -0.03944452 0.009413906 0.70801073 0.078754574 0.35382816 -0.105831675
00000000: 1ed7 da3c d126 593e 5070 603d ed41 353d
00000010: 8bbe 2e3e 5784 88bd 06e4 02bd 405c cfbd
00000020: 4c21 b7bc 10cc 833d 4230 7d3e 6c58 fdbd
00000030: 5cde da3c 8b2e 67bd 8711 d93d 2b72 84be
00000040: 1d20 303d e347 ffbd 3645 9d3c 1fd0 60be
00000050: 6ed5 0c3e 6768 0dbd 82cf 833e 318c a13e
00000060: c854 113e cd48 b13d 4927 2ebf 05bd b6bd
00000070: a890 41bc 85e1 253e 23c1 e23d cba4 183e
00000080: 81ef 9f3d 543a 14bf 6090 a83e 2d8f 42be
00000090: bd72 82bc 870b e1be f919 6dbe 242b 90bd
000000a0: f923 7f3d e7c6 bdbc 8b4d 773e 1309 813e
000000b0: 2d11 b8bd 3d0a fdbe 7fd3 793d 26bd 9e3a
000000c0: 9442 423e 9ec3 833d 1958 233d 2b9a edbd
000000d0: 7621 e43b cdf8 f8be 21ba 233b 1f45 863d
000000e0: 5bff 803d 968a 553e 67eb be3d a1bf aa3d
000000f0: 5856 30bd 4150 933e b3e6 cdbe 247e e93b
00000100: 24cd dbbd 9379 133e cda9 e5bd a78b 8cbe
00000110: acbe 20bd 5b5d 91bd 3fcb 903d ef90 833e
00000120: 1fab a43e 1515 55bc 69e7 5f3e f418 943c
00000130: f8aa bb3d 7b57 483e edaf 76be e3f5 113c
00000140: 7091 ba3e b8bf b63e a5fb 17bf 9554 673e
00000150: 297a f2be 1526 303d 364a 16be c773 633d
00000160: 18e1 303d 5d22 b2be 420d 26be 4825 463e
00000170: 8cd0 ed3c 09eb 423c e632 273d 60dd 9e3e
00000180: 436c dabe 085c 2a3e 484d 60bc 7494 ca3c
00000190: 4640 373d f0d5 85be ca72 77be 62d0 f23d
000001a0: f3ab 563e 2b69 a73e 07cb 1cbe cdd8 a2be
000001b0: 7cbf e73e 91ce a2be 0d96 de3d b369 04bc
000001c0: 83bc 03bd bd76 7fbd 11f5 5a3e c840 a33d
000001d0: 2c46 a4be 2679 4ebd 641f c33d 30df d53e
000001e0: ed18 013e 8f02 213d 97d6 9fbd cd0d f63d
000001f0: ca8d 48bf 6c11 8c3a 752f d7be 5a9f 5f3d
00000200: 8358 6cbd 6606 dabd 88c0 c4bd 3dd9 f6bc
00000210: 0317 c9bd 2a9b 053e ac74 093e 006e 983d
00000220: 11a4 ecbd eb31 2fbe d387 62be 67c4 28bb
00000230: 4213 70bd 17e1 c8bc 2ccb f6bd dbd4 9e3e
00000240: 8863 2fbd 23fc 7c3b 46cd 4bbc 119b 9d3e
00000250: 855f 6ebe 35b2 88bd ecaa 72be eadf bbbe
00000260: 5489 74be 9be0 13bd 3fa6 123f eb3e bdb9
00000270: 4248 813d 9e03 63be 49de 14be 53fa f3bd
00000280: ab22 6a3d 5eca 0a3f ba8a 62be c59d 083e
00000290: 5641 dcbd 5055 cf3e 2f3f 8c3e d23e cfbc
000002a0: ac1e e1bd 69ce ee3d 30a2 94be b4e6 30be
000002b0: 4e1b 87bd 22b5 263f e1db efbd f883 a83d
000002c0: a383 0bbe c81f 30be ae20 ebbd c547 7d3e
000002d0: e3d3 4f3d e632 ce3e 3d82 753d cd69 07bd
000002e0: 2b13 e0bb b402 4abe 8bf5 a0bd 305c 11be
000002f0: f6be 51bd 65f4 b6be e52c 853e 3b98 743c
00000300: 2d94 d83d 76e3 63be ffec a13d b450 863e
00000310: 00fb c6bd 9e96 78bd efd8 d73b 9e0c 40be
00000320: ea3e adbe d581 863d dd5f 8ebd aa17 133c
00000330: 147c c9bd 82bc 85be 52ec 5d3e 3b84 9dbc
00000340: b8d5 c1be 13d5 ecbe 1597 1b3f c0c9 e5bd
00000350: f46e dd3e dfba 9ebd 5617 7f3e c29d 7fbd
00000360: 9877 f3bc 5d69 ac3e 4b97 6c3e 4995 86be
00000370: 4825 133c 8b6c a2bd a843 3fbd c22f 9dbe
00000380: 1f8f bc3e 0351 39be a3bc 27bd 39da 66bd
00000390: e7b8 68bd ca89 853e b834 383e 0819 83bd
000003a0: e248 ebbd fbac b5be 7681 263e 9c34 313e
000003b0: 5eec a7be d216 af3e 6f29 1ebe a388 26bd
000003c0: 0b12 333e 79b2 91bc 2232 50be 3e47 c1bd
000003d0: e55f 9a3e ae89 ff3d 9c82 fdbd f083 dabe
000003e0: 54c5 1dbe 865c 98bd 9490 21bd c93c 1a3c
000003f0: 3140 353f 144a a13d f728 b53e 47be d8bd

net.2.bias f4 [2]
-0.07908558 0.13344817
00000000: 9ff7 a1bd a3a6 083e
