Teaching Content/L4T4 - Gymnasium/cartpole demo/checkpoints/policy_ep0350.pth (torch, 5824 bytes, 4 tensors)

net.0.weight f4 [128, 4]
0.18347922 0.027492058 -0.6809829 -0.3398189 -0.020060675 -0.24604972 -1.1749941 -0.57337236
0.20835799 -0.17389058 -0.2720848 0.051403366 0.107652254 -0.24543856 0.28432873 -0.18619551
0.14524607 -0.3280453 -0.7288978 -0.59281665 -0.27544606 -0.12549935 1.1655427 0.656608
0.037721317 -0.3668002 0.41192213 0.49993503 0.16800417 -0.044676386 0.7096534 0.19676772
0.41699705 -0.57149 -0.50912815 -0.29646093 -0.34219885 -0.29445422 -0.48314968 0.26592925
0.06326126 -0.48763418 -0.32199147 -0.7763651 -0.052241538 -0.26809555 0.027719596 0.22977026
0.06829864 -0.15436174 -0.41991475 -0.61995316 -0.026082184 -0.19099705 0.69023174 0.37522548
-0.4407065 -0.30708656 -0.8135402 -0.36925203 0.34611437 0.4411567 0.028838802 0.8181107
0.087129705 -0.09498646 -0.00852169 -0.38211048 0.09973326 -0.4517214 -0.087435335 0.18190242
0.017470708 -0.13547316 -0.13629101 -0.34819925 0.1230471 0.031259872 1.3665345 0.5010384
-0.10660838 0.0017919536 -0.96706676 -0.666048 -0.089455664 0.06291669 -0.101452105 -0.018928882
-0.5270813 0.18691698 -0.63072354 -0.2891721 -0.6066926 0.122382924 -0.44519114 -0.58879995
-0.29720116 -0.14356764 -0.87062776 -0.45223033 0.103112355 0.043586556 -0.7040458 -0.46540663
0.2399206 0.2668318 1.5202347 0.33367547 0.076747365 0.107527085 -0.21750717 0.2551546
0.16305052 -0.010977634 0.1160822 0.3472456 -0.46714288 0.23181969 -0.39100537 0.23407783
-0.05370477 0.23880807 -0.11479563 -0.50017637 -0.398364 -0.35489243 0.033968974 0.5025473
0.1500382 -0.39642984 0.61271924 0.2716809 0.33389732 0.32671478 1.5636189 0.5890051
-0.7647117 0.22767214 -1.1575482 -0.51305294 0.020052072 0.56158566 0.5792961 0.48700142
0.120129555 -0.13914117 -0.7560507 -0.82168037 0.18934877 0.22940904 1.0901423 0.5907625
0.13690902 0.31298196 -0.63714504 -0.06795095 0.006762414 -0.1788344 -0.030912088 0.33709082
0.12364569 -0.20107149 -0.5243095 -0.38164592 0.10135726 -0.100856304 -0.03622493 0.020035643
-0.113379575 -0.3323253 -1.1477863 -0.42483827 0.034085117 -0.22357541 -1.3240178 -0.6479754
0.101523064 0.07545244 -0.3736094 -0.13480796 0.29026034 0.5812413 1.4844475 0.7065269
0.43153778 -0.54044086 -0.14929302 -0.51535475 0.025136555 0.030129094 0.005377444 -0.15033461
0.019087072 -0.37080047 -1.1395127 -0.6060387 -0.45453218 -0.1612029 -0.006832906 0.43447503
-0.0774604 -0.43975854 -0.88265675 -0.29250732 0.20324719 0.3019384 0.65776896 0.30128276
-0.11817154 0.23238176 -0.15400042 -0.27500784 0.09153895 0.5129571 0.9498258 0.82261574
0.072985 -0.3069494 0.16286558 0.2884566 -0.080036595 -0.061032727 -0.94194585 -0.5965131
0.11916734 -0.012381848 -0.39694855 -0.27739704 -0.46024877 0.223463 -0.49153358 0.16821264
-0.40543887 0.2020428 -0.48135605 -0.31615272 -0.28200212 -0.24876346 0.17990072 0.49153787
0.046750408 -0.25876537 -0.33189353 0.12976962 -0.55362177 0.06350095 -0.9875627 -0.56868845
0.31154773 0.21622762 0.8283279 0.7479758 0.09762179 0.06522384 -0.12644744 -0.107462816
00000000: fae1 3b3e 0637 e13c e554 2ebf befc adbe
00000010: 4956 a4bc 75f4 7bbe 3566 96bf 88c8 12bf
00000020: cc5b 553e 5f10 32be b34e 8bbe 568c 523d
00000030: c978 dc3d 3f54 7bbe 8993 913e 09aa 3ebe
00000040: 63bb 143e 8ef5 a7be 0c99 3abf d5c2 17bf
00000050: 4407 8dbe e782 00be 8130 953f 7617 283f
00000060: ab81 1a3d 3ccd bbbe 75e7 d23e 7cf7 ff3e
00000070: 4909 2c3e 96fe 36bd d8ab 353f 7a7d 493e
00000080: a380 d53e 2b4d 12bf 3956 02bf bac9 97be
00000090: b034 afbe b4c2 96be 655f f7be e127 883e
000000a0: 1f8f 813d 30ab f9be 11dc a4be ddbf 46bf
000000b0: 39fb 55bd d243 89be 3514 e33c e548 6b3e
000000c0: 28e0 8b3d 0111 1ebe 11ff d6be 40b5 1ebf
000000d0: 4eaa d5bc bb94 43be 07b3 303f 8e1d c03e
000000e0: 48a4 e1be 733a 9dbe 2c44 50bf 9a0e bdbe
000000f0: e735 b13e 4adf e13e 5a3f ec3c b46f 513f
00000100: 0f71 b23d 4388 c2bd 8f9e 0bbc fca3 c3be
00000110: f440 cc3d 0748 e7be 4c11 b3bd a144 3a3e
00000120: bb1e 8f3c 7ab9 0abe df8f 0bbe 2c47 b2be
00000130: 1e00 fc3d 5a0a 003d 9aea ae3f 0d44 003f
00000140: 7f55 dabd fcdf ea3a b091 77bf 1f82 2abf
00000150: 8834 b7bd 77da 803d 1fc6 cfbd be10 9bbc
00000160: cdee 06bf 2a67 3f3e 1977 21bf 5e0e 94be
00000170: 3550 1bbf e6a3 fa3d 18f0 e3be 98bb 16bf
00000180: c02a 98be 6503 13be 76e1 5ebf bc8a e7be
00000190: 922c d33d d187 323d 583c 34bf c749 eebe
000001a0: bfad 753e 2d9e 883e 0d97 c23f 83d7 aa3e
000001b0: b92d 9d3d 2937 dc3d 33ba 5ebe a0a3 823e
000001c0: b7f6 263e 89db 33bc 81bc ed3d 2dca b13e
000001d0: 5a2d efbe 2462 6d3e db31 c8be 19b2 6f3e
000001e0: 88f9 5bbd 1a8a 743e f919 ebbd 8f0b 00bf
000001f0: 5ef6 cbbe 76b4 b5be 0d23 0b3d f1a6 003f
00000200: 9da3 193e daf8 cabe 2bdb 1c3f c219 8b3e
00000210: 97f4 aa3e 2947 a73e aa24 c83f 0ac9 163f
00000220: 25c4 43bf e322 693e 8a2a 94bf 7057 03bf
00000230: 3e44 a43c 14c4 0f3f c04c 143f 4058 f93e
00000240: 7c06 f63d 067b 0ebe 8a8c 41bf a559 52bf
00000250: a5e4 413e 34ea 6a3e c889 8b3f 363c 173f
00000260: e131 0c3e 2c3f a03e f01b 23bf de29 8bbd
00000270: 3d97 dd3b 5d20 37be 593b fdbc 2b97 ac3e
00000280: f439 fd3d afe5 4dbe 2639 06bf 1867 c3be
00000290: 6594 cf3d c08d cebd 9860 14bd ca21 a43c
000002a0: 8d33 e8bd 8b26 aabe a9ea 92bf 6784 d9be
000002b0: d69c 0b3d f4f0 64be 6a79 a9bf b7e1 25bf
000002c0: 53eb cf3d cf86 9a3d bb49 bfbe 190b 0abe
000002d0: 019d 943e 3bcc 143f 6002 be3f f2de 343f
000002e0: 85f2 dc3e 555a 0abf 45e0 18be 4aee 03bf
000002f0: 2deb cd3c 4ad1 f63c 4535 b03b 51f1 19be
00000300: 7e5c 9c3c 8fd9 bdbe 8ddb 91bf 5a25 1bbf
00000310: 71b8 e8be 5f12 25be 92e6 dfbb 8373 de3e
00000320: 8fa3 9ebd 0828 e1be cbf5 61bf 85c3 95be
00000330: 0820 503e ac97 9a3e 8c63 283f bc41 9a3e
00000340: ec03 f2bd 7cf5 6d3e 49b2 1dbe d4cd 8cbe
00000350: c678 bb3d 2851 033f c927 733f f296 523f
00000360: 2979 953d 7928 9dbe 3cc6 263e 95b0 933e
00000370: 3aea a3bd 74fd 79bd 5d23 71bf 15b5 18bf
00000380: 020e f43d 3cdd 4abc d73c cbbe fc06 8ebe
00000390: baa5 ebbe 7cd3 643e 4aaa fbbe ef3f 2c3e
000003a0: af95 cfbe 4fe4 4e3e 4d74 f6be c5de a1be
000003b0: 9562 90be d9bb 7ebe e537 383e daaa fb3e
000003c0: 5b7d 3f3d e57c 84be f3ed a9be 54e2 043e
000003d0: 28ba 0dbf c90c 823d e9d0 7cbf 9195 11bf
000003e0: 2f83 9f3e c66a 5d3e 4c0d 543f 587b 3f3f
000003f0: efed c73d 1494 853d 707b 01be 7715 dcbd

net.0.bias f4 [128]
0.13969505 0.17306268 -0.5663401 -0.5423929 0.043522254 0.17115854 -0.4617516 0.25227422
-0.29316664 -0.15318598 0.08726105 -0.3535013 0.080941565 -0.34623218 0.17572553 -0.06874247
-0.52036035 -0.461424 -0.48408902 0.49479073 -0.052814577 -0.3078641 -0.163144 -0.15395425
0.07458832 -0.37267447 0.38113636 -0.56042886 -0.4249864 -0.19561951 -0.28389812 -0.3527899
-0.43214723 0.48415145 -0.18549925 0.32221904 0.37242395 0.36035597 -0.4203288 -0.30559763
-0.15074469 -0.44096863 0.08535789 0.156796 -0.58989775 0.51158875 -0.52174914 -0.43758368
0.22598916 -0.26553854 0.12768038 0.27943596 -0.48492104 0.5133457 -0.34228477 0.13447016
-0.5231652 -0.17228661 -0.07247966 -0.2792991 -0.28369468 -0.098171264 0.13432482 0.22044241
-0.524039 0.081713445 -0.32946336 0.37233534 -0.46296975 -0.3680842 -0.044346645 0.1165264
0.023986846 -0.69440645 -0.041996956 -0.42121166 -0.21469052 0.04462654 0.4838901 -0.530432
-0.05862862 0.016184041 0.31787646 -0.4706529 0.29688212 -0.5496108 -0.31362686 -0.38488913
-0.3960793 0.3943618 -0.34394723 -0.36155576 0.29652378 -0.31966418 -0.17977051 0.21654542
-0.21645074 0.2835661 -0.42709163 0.19393022 -0.20222098 -0.36711216 0.34636712 -0.17830107
-0.12691578 -0.24954094 0.4907123 -0.1970174 0.015928894 -0.09964802 0.16324125 -0.3798495
0.14225341 -0.41518986 -0.1205505 -0.7696148 0.27522546 -0.25665516 -0.14361227 -0.5875114
-0.39912477 -0.6658232 -0.57749814 -0.63850105 0.45601735 -0.5507787 0.30156028 -0.1809696
00000000: 380c 0f3e 5837 313e aafb 10bf 43da 0abf
00000010: 6444 323d 2f44 2f3e b56a ecbe 162a 813e
00000020: f019 96be c9dc 1cbe ecb5 b23d 1ffe b4be
00000030: b1c4 a53d 5845 b1be 65f1 333e dac8 8cbd
00000040: 5636 05bf c43f ecbe 84da f7be 3655 fd3e
00000050: 1954 58bd 5da0 9dbe 390f 27be 2fa6 1dbe
00000060: c3c1 983d 30cf bebe 4e24 c33e 4478 0fbf
00000070: d197 d9be 7b50 48be 185b 91be e1a0 b4be
00000080: 6742 ddbe b3e2 f73e 84f3 3dbe e5f9 a43e
00000090: 5aae be3e 9480 b83e 5635 d7be 4b77 9cbe
000000a0: d15c 1abe a4c6 e1be 1ed0 ae3d 218f 203e
000000b0: 8a03 17bf 7bf7 023f 5a91 05bf f80a e0be
000000c0: b469 673e abf4 87be a5be 023e 3b12 8f3e
000000d0: 9247 f8be a06a 033f f33f afbe 8cb2 093e
000000e0: 28ee 05bf e76b 30be 3770 94bd 4b00 8fbe
000000f0: 6e40 91be 040e c9bd 728c 093e a8bb 613e
00000100: 6b27 06bf 6159 a73d 6caf a8be bda2 be3e
00000110: 5f0a edbe 8875 bcbe d4a4 35bd 65a5 ee3d
00000120: 1080 c43c 9fc4 31bf 0005 2cbd 0ea9 d7be
00000130: d5d7 5bbe 52ca 363d 71c0 f73e 64ca 07bf
00000140: 9024 70bd 6594 843c b4c0 a23e 6bf9 f0be
00000150: ef00 983e 4bb3 0cbf b393 a0be 3010 c5be
00000160: e8ca cabe cae9 c93e da19 b0be d61d b9be
00000170: f7d1 973e 06ab a3be c315 38be 15be 5d3e
00000180: 43a5 5dbe 932f 913e c1ab dabe a595 463e
00000190: 0413 4fbe 20f6 bbbe 0857 b13e 8e94 36be
000001a0: 36f6 01be a987 7fbe a53e fb3e eebe 49be
000001b0: 507d 823c 4314 ccbd b728 273e a27b c2be
000001c0: e1aa 113e c493 d4be 2ee3 f6bd 7a05 45bf
000001d0: 5aea 8c3e 4e68 83be 180f 13be 2667 16bf
000001e0: 155a ccbe 6473 2abf ebd6 13bf ce74 23bf
000001f0: 1b7b e93e d5ff 0cbf 1c66 9a3e 1850 39be

net.2.weight f4 [2, 128]
-0.02600049 0.19792052 0.05479461 0.044252325 0.092207566 -0.09371022 -0.012586686 -0.0983484
-0.0046818154 0.04242651 0.189567 -0.16418044 -0.012659996 -0.047775008 0.1169916 -0.26189178
0.04414621 -0.1406588 0.019209923 -0.18398397 0.13252276 -0.034523394 0.30287537 0.3543292
0.15494592 0.045675464 -0.5981393 -0.09087584 -0.011719981 0.16964567 0.061877742 0.055354353
0.09320057 -0.5076415 0.3573907 -0.1471639 -0.020376135 -0.38872567 -0.23631349 -0.056853097
-0.0068294914 -0.023166133 0.22049813 0.2263362 -0.08987651 -0.414466 0.060992714 0.0012110814
0.1749233 0.045374915 0.016427005 -0.093874 -0.0017576753 -0.4251322 0.012200493 0.06049143
0.0630072 0.22412398 0.14546178 -0.0103438515 -0.0915235 0.3090455 -0.37601385 -0.023566974
-0.107317574 0.13375826 -0.12212735 -0.22232597 -0.03924434 -0.052497853 0.06833029 0.26106748
0.25581646 -0.013005515 0.12716274 -0.0020609845 0.07268165 0.10347268 -0.21179166 0.008908722
0.21284544 0.2463601 -0.5251783 0.09119908 -0.40414372 -0.017169718 -0.15458637 0.055530336
0.043183416 -0.27727073 -0.1621983 0.19327787 0.024380492 0.011896857 0.040795706 0.3096569
-0.42660722 0.16880544 -0.009278937 0.037822038 -0.013322743 -0.26145223 -0.19932234 0.11691571
0.12764525 0.26197994 -0.12202149 -0.3180603 0.3483634 -0.32130793 0.05091377 -0.0080792345
-0.06017811 -0.062369097 0.10348112 0.079713404 -0.2663352 -0.050408505 0.13795869 0.38303754
0.12607165 0.03930908 -0.07800543 0.12014351 -0.69839805 -0.0013881433 -0.34746665 0.06346372
-0.004987217 -0.09231593 -0.09607035 -0.030132884 -0.019747252 0.15752625 0.11486506 0.07152675
-0.13322031 -0.1491613 -0.16353378 0.03790149 -0.019234758 -0.03318726 -0.13150583 0.31342596
-0.043966364 0.01987015 -0.012450954 0.27226374 -0.22777614 -0.06674615 -0.282413 -0.4057493
-0.25182617 0.004786323 0.49070144 0.0012872098 0.06303182 -0.22934613 -0.096536964 -0.025417978
0.042054895 0.47077668 -0.24939644 0.090578966 -0.103094235 0.35413226 0.2786887 -0.03884021
-0.040802144 0.11660463 -0.26929107 -0.14706896 -0.06597005 0.5714492 -0.117118604 0.08228296
-0.12146056 -0.15303327 -0.09135652 0.2252014 0.05945885 0.34159136 0.050236408 -0.02798981
-0.006858365 -0.21286345 -0.13083273 -0.048236035 -0.002735115 -0.37865704 0.23397131 0.04562147
0.10574408 -0.2122872 0.08905237 0.21015751 -0.09715843 -0.07917154 0.008957016 -0.19165035
-0.272569 0.06567732 0.021974593 0.029117102 -0.079428226 -0.16903035 0.18760793 -0.019228091
-0.22703817 -0.35199195 0.53926885 0.022508292 0.36304253 -0.017330103 0.25693142 -0.06240631
-0.029720113 0.26609367 0.23108424 -0.2626342 0.013630663 -0.07930859 -0.046671063 -0.30637923
0.36827943 -0.18341185 -0.04536277 -0.06945345 0.0012448145 0.26087126 0.1375621 -0.0623668
-0.032890078 -0.28984094 0.13150643 0.17305225 -0.22370574 0.34529668 -0.096684024 -0.040660262
0.20288944 -0.017785298 -0.09297187 -0.094374165 0.24700013 0.12477432 -0.16646823 -0.39210698
-0.15407306 -0.074395224 -0.039485104 0.009413906 0.62299514 0.08121135 0.28101084 -0.11470009
00000000: fbfe d4bc adab 4a3e 5070 603d ed41 353d
00000010: 52d7 bc3d 25eb bfbd 6338 4ebc e36a c9bd
00000020: ea69 99bb 6cc7 2d3d da1d 423e eb1e 28be
00000030: df6b 4fbc baaf 43bd 4b99 ef3d ae16 86be
00000040: a8d2 343d dc08 10be 215e 9d3c 4b66 3cbe
00000050: 0cb4 073e 6768 0dbd 7b12 9b3e a36a b53e
00000060: 25aa 1e3e 3216 3b3d a81f 19bf 1d1d babd
00000070: 2a05 40bc 98b7 2d3e 8473 7d3d 3fbb 623d
00000080: f1df be3d cbf4 01bf eafb b63e 22b2 16be
00000090: daeb a6bc 0d07 c7be 2afc 71be cbde 68bd
000000a0: edc9 dfbb e7c6 bdbc 43ca 613e adc4 673e
000000b0: 2d11 b8bd e334 d4be 7fd3 793d 26bd 9e3a
000000c0: 181f 333e 0cdb 393d ed91 863c 0341 c0bd
000000d0: cc61 e6ba edaa d9be 94e4 473c ddc5 773d
000000e0: eb09 813d c280 653e eff3 143e 4279 29bc
000000f0: ac70 bbbd 363b 9e3e e384 c0be 870f c1bc
00000100: 51c9 dbbd edf7 083e e71d fabd 6ba9 63be
00000110: acbe 20bd fd07 57bd c0f0 8b3d a3aa 853e
00000120: 60fa 823e 1515 55bc f336 023e 9511 07bb
00000130: 1eda 943d 7ce9 d33d eadf 58be e3f5 113c
00000140: 28f4 593e d245 7c3e 1672 06bf 95c6 ba3d
00000150: edeb cebe 82a7 8cbc e44b 1ebe c773 633d
00000160: 18e1 303d 6ef6 8dbe 5017 26be a2ea 453e
00000170: 99b9 c73c 09eb 423c 6619 273d 598b 9e3e
00000180: 436c dabe 55db 2c3e af06 18bc 48eb 1a3d
00000190: a247 5abc 11dd 85be 281b 4cbe 8171 ef3d
000001a0: 70b5 023e 3c22 863e 67e6 f9bd cdd8 a2be
000001b0: b05c b23e 7982 a4be f58a 503d c45e 04bc
000001c0: 527d 76bd bd76 7fbd e9ed d33d c840 a33d
000001d0: 165d 88be 2679 4ebd 0b45 0d3e 7f1d c43e
000001e0: ed18 013e 8f02 213d 50c1 9fbd cd0d f63d
000001f0: 37ca 32bf 5cf2 b5ba 26e7 b1be 44f9 813d
00000200: cf6b a3bb 2210 bdbd 88c0 c4bd 3dd9 f6bc
00000210: fdc4 a1bc 904e 213e 5f3e eb3d 9e7c 923d
00000220: e86a 08be bdbd 18be 6675 27be 983e 1b3d
00000230: 3692 9dbc 5def 07bd 77a9 06be 5e79 a03e
00000240: 1316 34bd bac6 a23c 16ff 4bbc 2766 8b3e
00000250: 263e 69be 35b2 88bd 7098 90be 5fbe cfbe
00000260: 5cef 80be 96d6 9c3b 383d fb3e 98b7 a83a
00000270: d416 813d b6d9 6abe 2cb5 c5bd 5d39 d0bc
00000280: c141 2c3d a409 f13e c861 7fbe 7781 b93d
00000290: 1223 d3bd d350 b53e 49b0 8e3e e916 1fbd
000002a0: 2620 27bd 69ce ee3d 85e0 89be 3f99 16be
000002b0: 4e1b 87bd 7f4a 123f e1db efbd f883 a83d
000002c0: 50c0 f8bd c1b4 1cbe 2119 bbbd 329b 663e
000002d0: 208b 733d 10e5 ae3e b1c4 4d3d e34a e5bc
000002e0: 23bc e0bb e0f8 59be 04f9 05be 2693 45bd
000002f0: 9d3f 33bb 56df c1be 2d96 6f3e 94dd 3a3d
00000300: 5a90 d83d d161 59be 1761 b63d 8833 573e
00000310: 00fb c6bd b024 a2bd 73c0 123c fd3f 44be
00000320: 2a8e 8bbe d581 863d 1004 b43c fd86 ee3c
00000330: 44ab a2bd 4b16 2dbe 4b1c 403e 3b84 9dbc
00000340: b27c 68be 4a38 b4be 860d 0a3f 4f63 b83c
00000350: b6e0 b93e dcf7 8dbc 848c 833e c29d 7fbd
00000360: 9877 f3bc 6e3d 883e 59a1 6c3e fd77 86be
00000370: 2553 5f3c 8b6c a2bd 282a 3fbd bddd 9cbe
00000380: 1f8f bc3e 51d0 3bbe 50ce 39bd 9c3d 8ebd
00000390: 0b29 a33a eb90 853e 14dd 0c3e 5474 7fbd
000003a0: bfb7 06bd 0866 94be 9fa9 063e 9c34 313e
000003b0: 1e13 65be baca b03e 4602 c6bd 608b 26bd
000003c0: 40c2 4f3e 79b2 91bc 0968 bebd 3e47 c1bd
000003d0: 9aed 7c3e ae89 ff3d a676 2abe 3fc2 c8be
000003e0: 54c5 1dbe 865c 98bd 22bb 21bd c93c 1a3c
000003f0: 9c7c 1f3f 2352 a63d a7e0 8f3e e1e7 eabd

net.2.bias f4 [2]
-0.04389841 0.09826109
00000000: d2ce 33bd 1c3d c93d
