Teaching Content/L4T4 - Gymnasium/cartpole demo/checkpoints/policy_ep0400.pth (torch, 5824 bytes, 4 tensors)

net.0.weight f4 [128, 4]
00000000: dc65 413e 1df6 e83c de87 26bf 84c9 afbe
00000010: 34ad 173c f903 76be 5a55 9fbf 4cf1 16bf
00000020: cc5b 553e 5f10 32be b34e 8bbe 568c 523d
00000030: c978 dc3d 3f54 7bbe 8993 913e 09aa 3ebe
00000040: a25b 193e f12f a2be 6036 4fbf f2f6 17bf
00000050: fff9 92be efae 0cbe 47a0 993f a703 2d3f
00000060: 2afa 9e3c 54ff d9be e7ba d33e 8def 123f
00000070: a9e2 1c3e 9bd2 80bd a3c5 493f bc35 743e
00000080: 6171 d53e 39e1 0ebf b990 00bf bd32 abbe
00000090: d5c8 a4be 155c 5dbe 1ea3 13bf 43fb 1c3e
000000a0: 0d56 813d 7037 04bf e309 c7be 28e8 3dbf
000000b0: 7075 c2bd da72 aebe 4297 9c3b 6219 b73e
000000c0: c1d8 9b3d 9e62 26be e28e d5be b9d7 18bf
000000d0: aa61 dbbc 9d7f 43be fd74 303f eb68 c03e
000000e0: 236d cabe 05e0 98be df79 69bf 7f43 c3be
000000f0: b90c b23e 1c7a e73e 0fa1 5a3d 3c50 4c3f
00000100: 0f71 b23d 4388 c2bd 8f9e 0bbc fca3 c3be
00000110: 5217 d03d 86ff f3be 40d8 d0bd d50f 5f3e
00000120: bb1e 8f3c 7ab9 0abe df8f 0bbe 2c47 b2be
00000130: 739a c73d 97d2 553c 4b18 ba3f 84ae 093f
00000140: 8ceb dcbd 9605 83bc 7fc4 86bf c981 22bf
00000150: 8834 b7bd 77da 803d 1fc6 cfbd be10 9bbc
00000160: 0695 01bf dc56 f73d 2fcd 3cbf f87b 4dbe
00000170: 34ef 12bf 5a4b a43d 5e65 0cbf c2c1 0dbf
00000180: 2729 85be ea4f 11be 526a 75bf 8839 eabe
00000190: db6c d43d 472c 2e3d 6a82 35bf 11f7 ecbe
000001a0: 2ace 543e 9955 793e e2d3 ce3f c903 bd3e
000001b0: 34e8 cb3d 1659 033e c048 6abe 37ff 723e
000001c0: 0cc2 263e 8728 64bc 1f95 ec3d 3245 b43e
000001d0: dc27 e1be 6219 3a3e c29d f5be 228c 913e
000001e0: 9d65 42bc 6b1e 763e fb50 30be 1b14 04bf
000001f0: 9328 bcbe 7b95 a9be 32ad 1c3d 4521 e43e
00000200: 521a 1e3e e430 b7be 4623 223f 513d 5f3e
00000210: 7e01 943e 8d44 a03e e927 d33f c95e 1a3f
00000220: bf2d 3dbf fd26 273e 8ace a4bf 772d dbbe
00000230: 3c55 17bc 5b17 0a3f 35d4 303f 2d61 023f
00000240: 0ec7 083e 641f 17be f401 4abf 246b 4fbf
00000250: 631e 293e b391 433e 7239 953f a5b2 263f
00000260: 8a0e 0c3e b295 9f3e 3efc 22bf 5608 81bd
00000270: b4cc db3b a051 3bbe ed73 08bd 754f b03e
00000280: 303b 003e 134a 4ebe e2b0 0cbf 2e9b c9be
00000290: 6594 cf3d c08d cebd 9860 14bd ca21 a43c
000002a0: e816 a4bd 73eb a3be 6d40 9ebf 88c5 e4be
000002b0: a10c 483d d769 6abe 9b40 b0bf c38a 25bf
000002c0: 53eb cf3d cf86 9a3d bb49 bfbe 190b 0abe
000002d0: b676 823e 6018 0d3f ddd2 c93f ac1e 3c3f
000002e0: 85f2 dc3e 555a 0abf 45e0 18be 4aee 03bf
000002f0: 2deb cd3c 4ad1 f63c 4535 b03b 51f1 19be
00000300: 2f53 493d b26d b8be 6f55 9bbf a036 21bf
00000310: cefa eebe 2c4e 9cbd 203d debd 2402 9c3e
00000320: e408 16bd 81de dabe 55a6 77bf ddb6 9ebe
00000330: 366c 223e aaff 813e fcf0 413f f70f b43e
00000340: 27bf f5bd 3d11 723e 9f72 1fbe 27d5 91be
00000350: 3031 833d fdbe fe3e 6c2a 853f 0c3c 5a3f
00000360: 7807 983d 4ee4 a0be 4088 233e c653 9a3e
00000370: 8a7a 74bd 040c b3bd 75da 7ebf f0e7 0fbf
00000380: 020e f43d 3cdd 4abc d73c cbbe fc06 8ebe
00000390: f9df dcbe 40bd 313e 1cad 12bf d6e9 673e
000003a0: 44b6 c3be f8eb 193e c113 16bf 0600 79be
000003b0: 4d88 8dbe 6ad3 70be 416a 363e a183 ec3e
000003c0: 4a7c 7e3d 953c 8fbe cd20 b7be a9ea 2d3e
000003d0: bf75 07bf c9cf 773c f851 8bbf e1c9 02bf
000003e0: e606 a33e 32e7 1f3e 31d7 593f eded 4c3f
000003f0: dd03 ab3d e673 3c3d 18f2 8dbd d10c 8bbd
0.18886513 0.028437668 -0.65051067 -0.34333432 0.009257603 -0.24024953 -1.2447922 -0.5896194
0.20835799 -0.17389058 -0.2720848 0.051403366 0.107652254 -0.24543856 0.28432873 -0.18619551
0.14976361 -0.316772 -0.80942345 -0.59361184 -0.28706357 -0.13738607 1.2002038 0.675837
0.019406397 -0.42577612 0.41353533 0.57396775 0.15320839 -0.0629017 0.78817195 0.23848623
0.41688064 -0.5581241 -0.5022083 -0.33437148 -0.32184473 -0.21617158 -0.5767077 0.15330224
0.06315241 -0.5164709 -0.3887473 -0.7418237 -0.09495056 -0.34072 0.0047787735 0.35761553
0.07609702 -0.16248557 -0.41710573 -0.59704167 -0.026779968 -0.1909165 0.6892851 0.37580046
-0.3953639 -0.29858413 -0.91201586 -0.38137433 0.34775332 0.4521035 0.053376254 0.7980993
0.087129705 -0.09498646 -0.00852169 -0.38211048 0.10160698 -0.47655886 -0.101974964 0.21783383
0.017470708 -0.13547316 -0.13629101 -0.34819925 0.09746256 0.013050697 1.4538664 0.53781915
-0.107871145 -0.015993875 -1.0528716 -0.63479286 -0.089455664 0.06291669 -0.101452105 -0.018928882
-0.50618017 0.12077114 -0.73750585 -0.20066822 -0.57396245 0.08022185 -0.54842174 -0.55373776
-0.2600796 -0.14190641 -0.95865357 -0.45747018 0.10372325 0.042522695 -0.7090212 -0.46282247
0.2078177 0.24349059 1.6158412 0.3691695 0.099563986 0.12826952 -0.22879314 0.23730169
0.1628496 -0.013925678 0.1155188 0.35209042 -0.43975723 0.18173745 -0.47971922 0.28427225
-0.011865047 0.24035041 -0.17218392 -0.5159318 -0.36749706 -0.33121857 0.03825111 0.44556633
0.15439728 -0.35779488 0.63335073 0.21800734 0.28907388 0.313023 1.6496555 0.6030088
-0.7389793 0.16323467 -1.2875531 -0.42808124 -0.00923663 0.5394189 0.690738 0.5092953
0.13357183 -0.14758068 -0.7890923 -0.8102286 0.16515498 0.19098549 1.1658156 0.6511634
0.13677421 0.31168896 -0.6366614 -0.06300418 0.006707752 -0.18292856 -0.03331368 0.3443562
0.12522578 -0.20145445 -0.549574 -0.39376205 0.10135726 -0.100856304 -0.03622493 0.020035643
-0.080121815 -0.3201557 -1.2363411 -0.44681954 0.04884017 -0.22891937 -1.3769716 -0.6466486
0.101523064 0.07545244 -0.3736094 -0.13480796 0.25481194 0.5511532 1.5767475 0.734843
0.43153778 -0.54044086 -0.14929302 -0.51535475 0.025136555 0.030129094 0.005377444 -0.15033461
0.049151596 -0.3602119 -1.2135447 -0.62973976 -0.46675724 -0.076320976 -0.108515024 0.30470383
-0.036629573 -0.42747882 -0.9673818 -0.3099889 0.15861592 0.2539037 0.7575834 0.3516843
-0.1199935 0.23639388 -0.15571068 -0.28482935 0.06405866 0.49755087 1.0403571 0.85247874
0.074232996 -0.31424183 0.15969944 0.3014204 -0.059687175 -0.08742526 -0.9955209 -0.56213284
0.11916734 -0.012381848 -0.39694855 -0.27739704 -0.43139628 0.1735735 -0.57295394 0.22647795
-0.38224995 0.15031421 -0.5862389 -0.24316415 -0.27643052 -0.23518148 0.1781397 0.46194175
0.06213025 -0.27975908 -0.35767213 0.16984047 -0.5291404 0.015125223 -1.088439 -0.5108929
0.318412 0.15615538 0.8509398 0.80050546 0.08350346 0.046008967 -0.06930941 -0.06789554

net.0.bias f4 [128]
00000000: cd3d 023e 2cb8 073e aafb 10bf 43da 0abf
00000010: c370 d13c be68 4b3e 1f89 d2be 6967 8f3e
00000020: adb3 9abe 1337 4ebe d8f9 973d 5feb 87be
00000030: f4e0 8b3d cea4 b0be 2ffb f93d d74b a5bd
00000040: 5636 05bf 2469 e1be 84da f7be 96db 073f
00000050: c609 47bd 5da0 9dbe 5c71 39be cb39 38be
00000060: 8713 fc3c b3b4 bebe eabd da3e 33a9 14bf
00000070: 0be1 d8be 8d3f 65be 3ed7 a0be 3ff5 ccbe
00000080: 6da2 ecbe 3071 0a3f 2bb0 53be b1aa b63e
00000090: 5e07 b43e 3277 cc3e 6b01 d8be 1e6e 9abe
000000a0: d8b7 0dbe a4c6 e1be 4d02 243d 83ee 093e
000000b0: 8a03 17bf 962d 103f 5a91 05bf f80a e0be
000000c0: 85a9 3b3e 1a81 8bbe 514c 8e3d 53ac ac3e
000000d0: 64d6 f5be 1d1f 0d3f 0cfc abbe 9574 e73d
000000e0: 28ee 05bf f844 50be 1ab1 b2bd ea5d 95be
000000f0: f440 88be 9a60 fabd f12a 1f3e abb5 743e
00000100: 2318 06bf 0ba9 0b3d b9b3 8dbe 22cd d53e
00000110: 5f0a edbe c9b9 c6be 5682 51bd 12d7 963d
00000120: 547f fdbc 9fc4 31bf b669 fbbd 9271 d5be
00000130: c878 7bbe 2d48 483d 93d6 033f 64ca 07bf
00000140: ffbd d1bc 9d95 09bc a882 c13e 61db fbbe
00000150: 3ede b93e 04b4 0cbf eaf4 99be 3010 c5be
00000160: e8ca cabe a82a e63e ef67 b0be b29e d0be
00000170: 51c8 913e 06ab a3be 025e 4abe 6d79 343e
00000180: 43a5 5dbe 1e9d 753e ee67 e4be 1cef 103e
00000190: 51cb 55be 032b bbbe 00ae c63e bf64 45be
000001a0: 23ae 0ebe 5555 a0be 4065 063f eebe 49be
000001b0: c5f0 323d 5510 e4bd 5144 0d3e 377b c2be
000001c0: 9424 2a3e c493 d4be 5228 d2bd 7a05 45bf
000001d0: 69bb 9b3e 4e68 83be b8c9 2bbe 5282 20bf
000001e0: 155a ccbe 6473 2abf ebd6 13bf ce74 23bf
000001f0: c140 fc3e 414e 0dbf 7717 a83e 93a0 59be
0.12718888 0.1325385 -0.5663401 -0.5423929 0.025566464 0.19864175 -0.4112024 0.28008583
-0.30215207 -0.20138197 0.07420701 -0.2654676 0.06830016 -0.34500736 0.122061126 -0.08071106
-0.52036035 -0.44025528 -0.48408902 0.53069437 -0.048593305 -0.3078641 -0.1810965 -0.17990796
0.03077103 -0.37247238 0.42723018 -0.5807068 -0.42359194 -0.22387524 -0.31414217 -0.40030858
-0.4621767 0.5407896 -0.20672671 0.35677102 0.3516187 0.3993469 -0.42188582 -0.30162138
-0.13839662 -0.44096863 0.040041257 0.13469891 -0.58989775 0.5631956 -0.52174914 -0.43758368
0.18326385 -0.27246934 0.0694815 0.33725223 -0.4801513 0.551256 -0.33590734 0.11301533
-0.5231652 -0.2033881 -0.08725186 -0.29173213 -0.26612055 -0.122254565 0.15543725 0.23897426
-0.5238058 0.03409676 -0.2767618 0.41758066 -0.46296975 -0.38813618 -0.05114969 0.0736524
-0.030944504 -0.69440645 -0.12276022 -0.4168821 -0.24557793 0.048896957 0.5149929 -0.530432
-0.025603293 -0.008397487 0.37794995 -0.4919081 0.3630237 -0.5496218 -0.30069667 -0.38488913
-0.3960793 0.4495442 -0.34454295 -0.40746075 0.28473142 -0.31966418 -0.19762424 0.17624445
-0.21645074 0.23985717 -0.44610542 0.14153713 -0.2087834 -0.36556253 0.38804626 -0.19276713
-0.13933615 -0.31315103 0.52498245 -0.1970174 0.043686647 -0.111359276 0.13795592 -0.3798463
0.16615516 -0.41518986 -0.10261597 -0.7696148 0.3041642 -0.25665516 -0.16776168 -0.62698853
-0.39912477 -0.6658232 -0.57749814 -0.63850105 0.49268153 -0.5519753 0.32830402 -0.2125266

net.2.weight f4 [2, 128]
00000000: 007b 93bc 68bb 443e 5070 603d ed41 353d
00000010: d28d bd3d 5bde 06be 2823 b7bd 52ab 00be
00000020: 249e abbc dc79 9ebc efd9 323e 5761 52be
00000030: b08f 5fbc a837 72bd a4aa b23d 3793 84be
00000040: a8d2 343d 4473 24be 215e 9d3c 4e3d 6dbe
00000050: 983b 093e 6768 0dbd 5bfd 843e e7f8 9e3e
00000060: 2d5f 063e a1bc 333d 6127 28bf d3c1 b6bd
00000070: ce3d 41bc 2929 063e 5671 89bb 8c1e 9c3c
00000080: ee14 a73d 90a1 0ebf 5bcf a43e 86b4 36be
00000090: 485a eabc e01b e4be 26b2 71be c55a c1bd
000000a0: 4855 40ba e7c6 bdbc a3b2 533e 9d06 673e
000000b0: 2d11 b8bd cd73 eabe 7fd3 793d 26bd 9e3a
000000c0: 17a1 293e ba94 cdbc 6a68 45ba 4040 efbd
000000d0: d475 87bb c445 f0be 9abb c7bc 4721 563d
000000e0: eb09 813d 8e66 403e b523 d33d ac94 41bd
000000f0: 52e9 c6bd 1e4c 8e3e cc9d c9be e312 c2bc
00000100: 23cd dbbd 47e3 013e 3135 30be 120a 82be
00000110: acbe 20bd 87b0 b1bd 6aa1 913d 3806 6f3e
00000120: 0696 823e 1515 55bc 4545 003e 1879 2a3a
00000130: 9ae5 7dbb 0ea7 cb3d f565 7dbe e3f5 113c
00000140: 7668 713e 6298 7b3e 395f 13bf ab5e 863d
00000150: 19b6 e6be e4fa 90bc d8a8 1fbe c773 633d
00000160: 18e1 303d d88d a3be 9211 26be dff0 383e
00000170: 7e32 923c 09eb 423c 034a 293d 60f5 943e
00000180: 436c dabe 8145 153e afaf 71bc dcd6 2e3c
00000190: f91a 2ebd 73da 85be 4d85 71be 9da7 b63d
000001a0: beb0 043e 8512 643e 7d37 22be cdd8 a2be
000001b0: c937 b83e c763 a4be 8524 283d 8d5e 04bc
000001c0: 091b c5bd bd76 7fbd d9e9 f23d c840 a33d
000001d0: 71dd 92be 2679 4ebd 5705 c53d 7bd7 c23e
000001e0: ed18 013e 8f02 213d 50c1 9fbd cd0d f63d
000001f0: 9d30 3ebf d70a dfba 08f3 bfbe b2e0 2bbb
00000200: dabd 54bc 9b2f b1bd 88c0 c4bd 3dd9 f6bc
00000210: 009f a4bc 5d37 483e 3d4d 443e 6268 ca3d
00000220: e684 efbd 48f9 b2bd 7c31 18be 2524 a23d
00000230: 4d80 95bc ddce b2bc 4864 d0bd e7f5 9e3e
00000240: 1316 34bd fe0c 233d 16ff 4bbc aad1 a33e
00000250: b2c5 6abe 35b2 88bd 9d06 75be a34c b9be
00000260: ba93 69be 16a3 d73b 56a6 0c3f f76d b8b9
00000270: e73d 813d 464b 43be 6491 f9bc 143d 323c
00000280: cdd7 5b3d 9731 053f b008 5bbe 3c86 f93d
00000290: 7547 c2bd a865 d23e 488b 8e3e 5a04 a8ba
000002a0: 0d18 40bd 69ce ee3d b9d4 82be 2ddb 15be
000002b0: 4e1b 87bd f169 1d3f e1db efbd f883 a83d
000002c0: 4dc4 e5bd ca16 a9bd d5e9 97bd cf1a 7e3e
000002d0: cc46 7d3d e57f c53e d2cd b13d b201 a2bc
000002e0: 23bc e0bb abde 34be de2d b5bd 3c73 39bc
000002f0: 31d5 3b3b 3ef0 b1be 01e4 803e 3f5f 3b3d
00000300: 2c94 d83d 284d 52be c756 0e3e 419e 773e
00000310: 00fb c6bd 4ff0 37bd 4776 ca3b f7f0 27be
00000320: d129 8bbe d581 863d 7791 c33c 0051 d83c
00000330: 383e 3cbb 12f5 28be 58a2 643e 3b84 9dbc
00000340: 00f1 7fbe 8fe1 b3be a9fa 163f 7c01 453d
00000350: e2aa d13e 7aa4 89bc fc3a 843e c29d 7fbd
00000360: 9877 f3bc d8d4 9d3e 9b9b 6c3e 33f6 7fbe
00000370: ae30 a53c 8b6c a2bd c55a 41bd c547 93be
00000380: 1f8f bc3e 7d3a 24be 0e64 23bd a945 2dbd
00000390: b044 f93c 4d8e 853e 3847 323e 8be0 0dbd
000003a0: faa4 0ebd 104d 80be eced 2b3e 9c34 313e
000003b0: 55c9 70be 08ac b03e 0fcf b1bd 708b 26bd
000003c0: 70b0 743e 79b2 91bc f963 ddbd 3e47 c1bd
000003d0: 2af7 883e ae89 ff3d 9268 ffbd 3b7c c7be
000003e0: 54c5 1dbe 865c 98bd 22bb 21bd c93c 1a3c
000003f0: 02e3 2a3f 86f6 a63d 8aec 9d3e 2d1f 47bd
-0.018002987 0.19212115 0.05479461 0.044252325 0.09255566 -0.1317076 -0.089422524 -0.12565354
-0.02094943 -0.019345216 0.17465948 -0.20544945 -0.013645098 -0.05913511 0.08723953 -0.25893566
0.04414621 -0.16059595 0.019209923 -0.23167917 0.1340164 -0.034523394 0.25974545 0.31049272
0.13122244 0.043881062 -0.6568509 -0.08923688 -0.011794521 0.13101639 -0.004194419 0.019057535
0.08158289 -0.55715275 0.3218945 -0.17842302 -0.028607503 -0.44552517 -0.23603114 -0.09441141
-0.00073369266 -0.023166133 0.20673613 0.22561117 -0.08987651 -0.45791474 0.060992714 0.0012110814
0.16565357 -0.025095332 -0.00075305125 -0.116821766 -0.0041339193 -0.46928227 -0.024381448 0.05227783
0.0630072 0.18789122 0.10309545 -0.047260925 -0.09712471 0.27792448 -0.39378202 -0.023690647
-0.10732486 0.12684356 -0.17207791 -0.25398308 -0.03924434 -0.08676248 0.071108654 0.23342216
0.25505084 -0.013005515 0.12526424 0.000650303 -0.003874159 0.099439725 -0.24745925 0.008908722
0.23575005 0.24569848 -0.57567173 0.06561025 -0.45060804 -0.017697759 -0.15591753 0.055530336
0.043183416 -0.31944156 -0.1621764 0.18060635 0.017846342 0.011896857 0.04133035 0.29093456
-0.42660722 0.14577295 -0.014751359 0.010671344 -0.042506192 -0.26143226 -0.23586006 0.089186884
0.12958047 0.2227269 -0.1584148 -0.3180603 0.3598006 -0.32107374 0.041050453 -0.008079183
-0.09624297 -0.062369097 0.11861009 0.079713404 -0.2868457 -0.050408505 0.09620159 0.38055024
0.12607165 0.03930908 -0.07800543 0.12014351 -0.7429293 -0.001701678 -0.37490106 -0.0026226458
-0.012984717 -0.08651658 -0.09607035 -0.030132884 -0.020095348 0.1955237 0.19170089 0.09883191
-0.1169527 -0.08738953 -0.14862627 0.0791705 -0.018249655 -0.021827156 -0.10175377 0.31046984
-0.043966364 0.039807312 -0.012450954 0.31995898 -0.22926977 -0.06674615 -0.23928304 -0.36191282
-0.2281026 0.0065807207 0.5494131 -0.00035177145 0.06310635 -0.19071683 -0.030464835 0.01087882
0.0536726 0.52028793 -0.21390033 0.12183806 -0.094862856 0.41093183 0.27840638 -0.001281868
-0.046897937 0.11660463 -0.2555292 -0.1463439 -0.06597005 0.6148978 -0.117118604 0.08228296
-0.11219082 -0.082563 -0.07417647 0.24814914 0.061835095 0.38574138 0.08681835 -0.019776199
-0.006858365 -0.17663066 -0.08846639 -0.011318978 0.0028661008 -0.34753603 0.25173953 0.04574513
0.105751365 -0.20537245 0.1390029 0.24181463 -0.09715843 -0.04490691 0.0061786505 -0.16400515
-0.2718034 0.06567732 0.023873074 0.026405811 -0.0028723609 -0.16499737 0.22327554 -0.019228091
-0.24994278 -0.35133025 0.5897623 0.04809712 0.40950686 -0.016802061 0.25826252 -0.06240631
-0.029720113 0.3082645 0.23106234 -0.24996261 0.020164814 -0.07930859 -0.047205705 -0.28765693
0.36827943 -0.16037937 -0.03989034 -0.04230276 0.03042826 0.2608513 0.1740998 -0.03463797
-0.034825303 -0.25058794 0.16789979 0.17305225 -0.23514302 0.3450625 -0.086820714 -0.04066032
0.2389543 -0.017785298 -0.10810084 -0.094374165 0.2675107 0.12477432 -0.12471117 -0.38961968
-0.15407306 -0.074395224 -0.039485104 0.009413906 0.66752636 0.08152489 0.30844527 -0.048613716

net.2.bias f4 [2]
00000000: 6dd6 a5bd 1096 0a3e
-0.08097539 0.13533807
