Teaching Content/L4T4 - Gymnasium/cartpole demo/checkpoints/policy_ep0050.pth (torch, 5824 bytes, 4 tensors)

net.0.weight f4 [128, 4]
0.34573045 0.33352947 -0.2360387 -0.14046516 0.23927586 0.10359571 -0.42756864 -0.40669084
0.30775514 -0.108657345 -0.18804866 0.06397644 0.20612025 -0.14644241 0.377263 -0.2843024
0.33892843 0.0490389 -0.16296245 -0.4346228 -0.50961316 -0.37884662 0.57505864 0.53168106
0.0052859 -0.54257846 0.15946859 0.5883857 0.32064435 -0.2776876 0.16139203 0.21060713
0.4870901 -0.28616565 -0.1214624 -0.18557073 -0.4327014 -0.30489507 -0.47396633 0.02771422
0.23595269 -0.2748503 0.36832032 -0.4992342 -0.10391536 -0.39811707 -0.1065974 0.31392962
0.23654737 0.20217384 0.17897284 -0.4732092 0.07502607 -0.3304582 0.40838504 0.45320016
-0.47950044 -0.25888523 -0.1769557 -0.225611 0.071080975 0.4706314 -0.37868565 0.54375756
0.087939166 -0.0941238 -0.009376447 -0.38302988 0.11179255 -0.60906637 -0.30042228 0.3364887
-0.11606244 -0.21593049 -0.18950625 -0.43119356 -0.3237508 -0.17813303 0.6746939 0.33625135
0.006915034 0.18724981 -0.42709947 -0.55291915 -0.19983162 -0.0056809443 -0.14592107 0.00597652
-0.3590249 0.1625161 0.006173373 -0.15174909 -0.41410905 0.06548856 0.2032921 -0.4975974
-0.13918395 0.033525985 -0.20821011 -0.42390066 0.22835127 0.31407598 -0.43355075 -0.3951346
0.2306733 0.08141579 0.7442697 0.23843458 -0.017372325 0.01948021 -0.1306251 0.3537244
0.4523068 0.22223563 -0.09683103 0.40731043 -0.3154442 0.2838915 0.034949947 0.14851137
-0.23085526 0.10098689 -0.05320523 -0.32979658 -0.50755006 -0.6089356 -0.23661454 0.52009284
0.24813883 -0.4782789 0.37159014 0.37658483 0.27308363 0.1260112 0.7203343 0.4202832
-0.48806086 0.30506116 -0.51208 -0.44008526 -0.36317644 0.37246564 -0.18836421 0.22491884
0.31825954 0.1751519 -0.05511664 -0.62781286 0.104629286 -0.14726025 0.28509462 0.5141145
-0.18944973 0.09377676 -0.37633383 0.15448236 0.009859439 -0.29921138 -0.22522001 0.39820158
0.35005513 0.14809313 -0.13267219 -0.21414821 0.013361156 -0.18885285 -0.1242193 -0.06796062
-0.06718693 -0.16155404 -0.37696746 -0.24960122 0.2558281 0.1144854 -0.7187774 -0.54381096
0.2248453 0.16961735 -0.3226003 -0.14416844 0.27499723 0.50441664 0.66247153 0.4489719
0.52534264 -0.31425807 0.22143814 -0.11721823 0.025691327 0.03068391 0.0048226514 -0.15088934
0.2708178 -0.06652482 -0.35564426 -0.39056775 -0.47981673 -0.2960194 -0.116756424 0.41562507
0.07133993 -0.20178375 -0.09248044 -0.036981296 0.32826075 0.26229662 -0.100155436 0.2101665
0.11036474 0.26870918 -0.0776612 -0.13354376 -0.27856553 0.20478076 0.13348049 0.6535633
0.09169883 -0.42882663 -0.039390482 0.39313278 0.029984195 0.22686233 -0.20490585 -0.40854
0.21220157 0.090161584 -0.36094868 -0.32604787 -0.19577941 0.23055804 -0.1568331 0.10703643
-0.26960033 0.2840487 0.08811549 -0.26394066 -0.38068044 -0.4516467 -0.08964281 0.47553852
0.078047246 -0.3438636 -0.43068728 0.09603434 -0.30554333 0.120744705 -0.44354784 -0.50756913
0.24081409 0.20622718 0.25172684 0.5022157 -0.19962098 0.26245102 0.01350128 -0.06538806
00000000: 9503 b13e 60c4 aa3e 21b4 71be 19d6 0fbe
00000010: bb04 753e fd29 d43d 47ea dabe c839 d0be
00000020: 1592 9d3e be87 debd d48f 40be 1406 833d
00000030: 3011 533e 00f5 15be 9e28 c13e 1690 91be
00000040: 0788 ad3e 03dd 483d a1df 26be e186 debe
00000050: 0276 02bf 2ff8 c1be 0b37 133f 401c 083f
00000060: 5835 ad3b 6ce6 0abf bc4b 233e 72a0 163f
00000070: 7f2b a43e 122d 8ebe f443 253e 65a9 573e
00000080: e063 f93e 4e84 92be 47c1 f8bd 4106 3ebe
00000090: 0a8b ddbe 351b 9cbe b7ab f2be ef08 e33c
000000a0: 959d 713e 2eb9 8cbe 7b94 bc3e a09b ffbe
000000b0: 94d1 d4bd 00d6 cbbe bd4f dabd 62bb a03e
000000c0: 7939 723e a906 4f3e a844 373e 7a48 f2be
000000d0: 45a7 993d d131 a9be d817 d13e da09 e83e
000000e0: 1581 f5be 9b8c 84be e033 35be 9206 67be
000000f0: e792 913d 99f6 f03e 16e3 c1be b233 0b3f
00000100: 7319 b43d fbc3 c0bd ab9f 19bc 7e1c c4be
00000110: 7ef3 e43d c6eb 1bbf f3d0 99be 3f48 ac3e
00000120: 25b2 edbd e21c 5dbe ed0d 42be 67c5 dcbe
00000130: aac2 a5be 8168 36be bdb8 2c3f 2329 ac3e
00000140: 8297 e23b 6abe 3f3e c8ac dabe 1c8c 0dbf
00000150: a9a0 4cbe 3727 babb 556c 15be afd6 c33b
00000160: 1dd2 b7be 9f6a 263e 024a ca3b 1d64 1bbe
00000170: 1a06 d4be de1e 863d ce2b 503e 16c5 febe
00000180: 3d86 0ebe 8b52 093d 0835 55be 8209 d9be
00000190: ead4 693e 91ce a03e 5dfa ddbe 154f cabe
000001a0: 9f35 6c3e 52bd a63d 7688 3e3f 3228 743e
000001b0: 6850 8ebc f694 9f3c 96c2 05be 5d1b b53e
000001c0: c294 e73e bd91 633e 594f c6bd fe8a d03e
000001d0: e781 a1be 3a5a 913e ad27 0f3d 5d13 183e
000001e0: 5265 6cbe 37d2 ce3d baed 59bd 19db a8be
000001f0: cdee 01bf 34e3 1bbf 154b 72be ce24 053f
00000200: 1b18 7e3e f9e0 f4be 1041 be3e bacf c03e
00000210: 9ed1 8b3e 1409 013e d467 383f 5c2f d73e
00000220: 1de3 f9be fa30 9c3e ad17 03bf db52 e1be
00000230: 43f2 b9be d1b3 be3e 8ce2 40be 2051 663e
00000240: eaf2 a23e 055b 333e fcc1 61bd 58b8 20bf
00000250: e147 d63d 64cb 16be ecf7 913e 029d 033f
00000260: 1cff 41be 080e c03d d4ae c0be a030 1e3e
00000270: 7c89 213c 3c32 99be 13a0 66be 14e1 cb3e
00000280: 6d3a b33e baa5 173e 38db 07be ab49 5bbe
00000290: c0e8 5a3c a462 41be b066 febd f02e 8bbd
000002a0: 4d99 89bd 6c6e 25be e101 c1be 7697 7fbe
000002b0: e7fb 823e 5277 ea3d cc01 38bf 3237 0bbf
000002c0: d93d 663e 2cb0 2d3e de2b a5be e4a0 13be
000002d0: 70cc 8c3e 7321 013f bc97 293f a5df e53e
000002e0: db7c 063f 6fe6 a0be aec0 623e 1d10 f0bd
000002f0: 9e76 d23c d35c fb3c 5507 9e3b bc82 1abe
00000300: a1a8 8a3e 2a3e 88bd 0117 b6be 7ff8 c7be
00000310: 8aaa f5be db8f 97be fe1d efbd cfcc d43e
00000320: ab1a 923d 66a0 4ebe 6366 bdbd b379 17bd
00000330: cb11 a83e be4b 863e 4b1e cdbd e335 573e
00000340: e906 e23d 4094 893e d60c 9fbd b2bf 08be
00000350: 24a0 8ebe 0cb2 513e 1caf 083e ed4f 273f
00000360: 99cc bb3d 2a8f dbbe ea57 21bd b348 c93e
00000370: 6aa1 f53c 994e 683e d7d2 51be 282c d1be
00000380: 5e4b 593e a3a6 b83d 44ce b8be bfef a6be
00000390: 667a 48be 6817 6c3e db98 20be ea35 db3d
000003a0: 0e09 8abe d56e 913e e575 b43d 3b23 87be
000003b0: 8ce8 c2be 3c3e e7be a696 b7bd c979 f33e
000003c0: 3cd7 9f3d e40e b0be 0b83 dcbe a7ad c43d
000003d0: 2d70 9cbe 0049 f73d b418 e3be 0df0 01bf
000003e0: f897 763e 382d 533e 57e2 803e 3591 003f
000003f0: 7169 4cbe fb5f 863e 7934 5d3c 2dea 85bd

net.0.bias f4 [128]
0.3333689 0.2794683 -0.46891007 -0.44287622 0.15903896 0.21008465 -0.2746473 0.202777
-0.24906744 -0.0676316 0.13344605 -0.1843675 0.3466317 -0.22305246 0.30747977 -0.19463332
-0.51950496 -0.2380493 -0.4002451 0.47620785 -0.014961416 -0.23669773 0.02097894 -0.11618911
0.14612262 -0.24309988 0.047127426 -0.44945914 -0.29740053 -0.23808621 -0.22052991 -0.15270244
-0.33941975 0.32471293 -0.39575818 0.3680535 0.51959896 0.15845785 -0.31972688 -0.16180094
0.07553721 -0.35297227 0.08468196 0.16599432 -0.4730167 0.21657087 -0.42998183 -0.4370289
0.34939373 -0.24542439 0.4092203 0.09788923 -0.46211854 0.49028966 -0.1705513 0.33742493
-0.42093 -0.26472047 0.15395841 -0.18607874 -0.12941949 -0.02841953 -0.08719024 0.40606457
-0.6199788 0.16837382 -0.15453126 0.3353998 -0.40498248 -0.2088131 0.07974638 0.16788512
0.02192533 -0.5270991 0.10202157 -0.15916528 -0.083577186 0.22371401 0.34076527 -0.52355963
0.008598679 0.032305565 0.082823426 -0.27321243 0.092528746 -0.4846367 -0.2462151 -0.3640282
-0.366218 0.28966412 -0.4844062 -0.37512082 0.47270095 -0.0945952 -0.048839003 0.29103175
-0.5320653 0.4207902 -0.30588344 0.40141863 -0.0037249275 -0.40674517 0.4006691 0.004823098
0.016632598 -0.4409829 0.5217231 -0.2819606 0.072202496 -0.17286325 0.2717953 -0.12989342
0.17266071 -0.38572443 -0.083106816 -0.5336272 0.024298629 -0.26139203 0.24486682 -0.42830718
-0.2727363 -0.38994727 -0.4938922 -0.46701837 0.14847825 -0.44306105 -0.081060745 0.043206863
00000000: 54af aa3e 7816 8f3e fb14 f0be acc0 e2be
00000010: 1cdb 223e 6e20 573e 929e 8cbe c6a4 4f3e
00000020: 890b 7fbe 7082 8abd 15a6 083e d5ca 3cbe
00000030: b679 b13e dd67 64be fd6d 9d3e f54d 47be
00000040: 47fe 04bf 32c3 73be edec ccbe 84d1 f33e
00000050: ba20 75bc e460 72be 07dc ab3c 8ef4 edbd
00000060: 2ba1 153e 2def 78be b008 413d 821f e6be
00000070: e244 98be dfcc 73be 98d2 61be 075e 1cbe
00000080: 6dc8 adbe c640 a63e d1a0 cabe 8271 bc3e
00000090: 7004 053f c642 223e 3eb3 a3be 25af 25be
000000a0: 41b3 9a3d c8b8 b4be bc6d ad3d 6afa 293e
000000b0: 3f2f f2be c1c4 5d3e 9426 dcbe 41c2 dfbe
000000c0: bce3 b23e 8850 7bbe 5385 d13e 267a c83d
000000d0: cd9a ecbe 3f07 fb3e 00a5 2ebe f6c2 ac3e
000000e0: 2384 d7be 7189 87be 46a7 1d3e 6d8b 3ebe
000000f0: 8b86 04be 13d0 e8bc cc90 b2bd b2e7 cf3e
00000100: eeb6 1ebf 306a 2c3e 713d 1ebe 86b9 ab3e
00000110: dd59 cfbe 1ad3 55be 1252 a33d 14ea 2b3e
00000120: c09c b33c f7ef 06bf aff0 d03d 39fc 22be
00000130: 842a abbd 4915 653e c978 ae3e 0108 06bf
00000140: 79e1 0c3c d752 043d 549f a93d 80e2 8bbe
00000150: b67f bd3d 4d22 f8be d01f 7cbe e761 babe
00000160: ed80 bbbe db4e 943e 1704 f8be d60f c0be
00000170: dc05 f23e 21bb c1bd 680b 48bd 1d02 953e
00000180: 6e35 08bf d071 d73e c19c 9cbe be86 cd3e
00000190: ea1d 74bb e740 d0be 8024 cd3e 140b 9e3b
000001a0: 1641 883c 83c8 e1be a58f 053f 245d 90be
000001b0: e7de 933d 1003 31be c128 8b3e c802 05be
000001c0: f8cd 303e ac7d c5be e833 aabd cb9b 08bf
000001d0: eb0d c73c 2dd5 85be 5ebe 7a3e 144b dbbe
000001e0: 18a4 8bbe 2ba7 c7be 70df fcbe 081d efbe
000001f0: af0a 183e e6d8 e2be 2d03 a6bd aef9 303d

net.2.weight f4 [2, 128]
0.057018183 0.18955614 0.03299042 -0.06142906 0.09435958 -0.13536966 -0.11703186 -0.06699265
-0.0044661993 -0.1489851 0.11456163 -0.2717246 0.028906226 -0.11238902 -0.0016404502 -0.10548735
0.04354774 -0.25404507 0.066522375 -0.11310506 0.08542837 -0.036176804 0.059811793 0.14481552
0.02503356 0.1433994 -0.19847864 -0.10028608 0.020259079 -0.052393552 -0.010740939 -0.2007192
-0.00022836032 -0.16219169 0.15790856 -0.07780232 0.04165017 -0.17613699 -0.039055493 -0.20331277
0.028074428 0.064802825 0.06003666 0.21843655 -0.059534077 -0.072490536 0.042470347 0.0017659029
0.13575174 -0.19022956 -0.03416383 0.044271845 0.049490556 -0.22154714 -0.101428226 0.06820101
0.10899856 0.015553156 0.040233098 -0.27100343 -0.13032949 0.06712424 -0.16548967 0.018585153
0.021500103 0.050837062 -0.26056278 -0.077491365 -0.018303707 -0.13876475 0.0128779635 0.15018217
0.052405402 0.08892735 0.08710027 -0.10719686 -0.12013176 0.011509209 -0.08476256 0.015781134
0.12005128 0.1498391 -0.17775482 -0.06414139 -0.118375264 0.03071447 -0.026143834 0.030501168
0.028844308 -0.04455549 0.009885324 0.07811953 0.11411529 -0.09090307 -0.012574697 0.1981862
-0.04730336 0.064904876 -0.10051175 -0.01038462 -0.22229558 -0.08424844 -0.08860892 0.068944834
0.077166945 0.08942884 -0.10360517 -0.15309082 0.29774538 -0.1741747 0.08389792 -0.031537045
-0.08698604 -0.04570264 0.16068116 0.054866996 -0.09797732 -0.00065820524 -0.0055278116 0.01942405
-0.0065594614 0.016775696 -0.02257805 0.055568043 -0.27429858 0.075766206 -0.18370406 -0.12562044
-0.088005885 -0.08395156 -0.07426618 0.0755485 -0.021899302 0.19918568 0.21931025 0.040171076
-0.1334359 0.042250417 -0.08852838 0.14544582 -0.060801014 0.031426713 -0.012873756 0.15702152
-0.043367893 0.13325633 -0.059763417 0.20138508 -0.1806817 -0.065092705 -0.03934926 -0.19623564
-0.121913955 -0.0929377 0.09104054 0.010697421 0.03105279 -0.0073068077 -0.023918249 0.2306555
0.13548373 0.12532689 -0.049914196 0.02121733 -0.16512051 0.14154372 0.08143088 0.10761945
-0.07570604 0.028635727 -0.10882956 -0.13916942 -0.09631248 0.22947401 -0.09859617 0.08172818
-0.08228911 0.082571164 -0.04076568 0.087055504 0.008210633 0.13800636 0.16386513 -0.03569948
-0.052849755 -0.0042925957 -0.025604056 0.21242355 0.036070887 -0.13673577 0.023446968 0.0034693072
-0.023073588 -0.12936614 0.22748788 0.06532293 -0.11809903 0.007095358 0.06440931 -0.08076558
-0.069157995 -0.036255553 0.062037088 0.13425295 0.11338515 -0.07706679 0.060578916 -0.026100505
-0.13424408 -0.25547075 0.19184516 0.17784874 0.07727405 -0.06521429 0.12848909 -0.03737714
-0.015381 0.033378515 0.059000593 -0.14747594 -0.076104194 0.023491317 0.006699337 -0.19490846
-0.011024468 -0.07951127 0.045870002 -0.021246834 0.21021767 0.08366757 0.026848624 -0.014395953
0.017588265 -0.11728981 0.11309008 0.008082729 -0.17308757 0.19816339 -0.1296682 -0.01720245
0.22969736 -0.034451764 -0.1501719 -0.06952775 0.07864212 0.07502406 -0.022981761 -0.028493408
-0.021441946 -0.051861864 -0.094912514 0.073989384 0.19889566 0.004057008 0.11724835 0.07438408
00000000: e68b 693d 011b 423e f620 073d 0a9d 7bbd
00000010: 983f c13d 589e 0abe 66ae efbd 7133 89bd
00000020: 3259 92bb 8d8f 18be 4a9f ea3d 7d1f 8bbe
00000030: c0cc ec3c 372c e6bd 6004 d7ba c009 d8bd
00000040: 1d5f 323d 3212 82be e23c 883d a0a3 e7bd
00000050: 12f5 ae3d 212e 14bd 36fd 743d 854a 143e
00000060: 2e13 cd3c 4bd7 123e fc3d 4bbe ca62 cdbd
00000070: 5ef6 a53c 9f9a 56bd c3fa 2fbc 5589 4dbe
00000080: 0274 6fb9 9415 26be c8b2 213e d356 9fbd
00000090: 5e99 2a3d 415d 34be a7f8 1fbd 3931 50be
000000a0: 58fc e53c 58b7 843d 00e9 753d d5ad 5f3e
000000b0: 01da 73bd eb75 94bd 63f5 2d3d de75 e73a
000000c0: 8102 0b3e 8acb 42be 5fef 0bbd 6556 353d
000000d0: 9cb6 4a3d 41dd 62be 9ab9 cfbd f9ac 8b3d
000000e0: a33a df3d aad2 7e3c 76cb 243d f6c0 8abe
000000f0: 1875 05be 6f78 893d 2076 29be e43f 983c
00000100: fc20 b03c 863a 503d 7c68 85be cbb3 9ebd
00000110: a8f1 95bc 5918 0ebe 18fe 523c 5bc9 193e
00000120: 0ca7 563d 8b1f b63d a061 b23d 078a dbbd
00000130: a407 f6bd 1f91 3c3c fe97 adbd 7047 813c
00000140: 72dd f53d 6c6f 193e 5c05 36be 905c 83bd
00000150: bb6e f2bd ea9c fb3c 982b d6bc 96dd f93c
00000160: e64a ec3c d17f 36bd 0ef6 213c 22fd 9f3d
00000170: 47b5 e93d 642b babd 1a06 4ebc 53f1 4a3e
00000180: 2bc1 41bd d9ec 843d 1bd9 cdbd 4124 2abc
00000190: 74a1 63be 728a acbd 9878 b5bd f332 8d3d
000001a0: b409 9e3d 7826 b73d f32e d4bd d7c3 1cbe
000001b0: 1572 983e da5a 32be acd2 ab3d fd2c 01bd
000001c0: bd25 b2bd b132 3bbd 9a89 243e 37bc 603d
000001d0: 55a8 c8bd 688b 2cba a522 b5bb 2f1f 9f3c
000001e0: c0f0 d6bb 2f6d 893c 9af5 b8bc 519b 633d
000001f0: dd70 8cbe 502b 9b3d eb1c 3cbe a5a2 00be
00000200: 6e3c b4bd ccee abbd de18 98bd 2cb9 9a3d
00000210: 2a66 b3bc 55f7 4b3e de92 603e 6d8a 243d
00000220: 6ca3 08be c60e 2d3d 5e4e b5bd c0ef 143e
00000230: 7c0a 79bd 4cb9 003d 72ec 52bc 40ca 203e
00000240: 88a2 31bd 5974 083e 7cca 74bd e437 4e3e
00000250: a004 39be 534f 85bd b12c 21bd fff1 48be
00000260: 06ae f9bd 1f56 bebd 7673 ba3d 3c44 2f3c
00000270: 6c62 fe3c f26d efbb 34f0 c3bc f530 6c3e
00000280: 3fbc 0a3e b155 003e d472 4cbd f7cf ad3c
00000290: 5a15 29be d6f0 103e 3cc5 a63d 9667 dc3d
000002a0: c50b 9bbd 7995 ea3c 08e2 debd 6e82 0ebe
000002b0: 7a3f c5bd 3cfb 6a3e caec c9bd 1b61 a73d
000002c0: 3187 a8bd 121b a93d eaf9 26bd 284a b23d
000002d0: e485 063c 8a51 0d3e 43cc 273e 9e39 12bd
000002e0: fc78 58bd e7a8 8cbb 99bf d1bc 8f85 593e
000002f0: 11bf 133d 7604 0cbe db13 c03c 515d 633b
00000300: d204 bdbc 8f78 04be 95f2 683e 07c8 853d
00000310: e7dd f1bd 2d80 e83b 07e9 833d 6d68 a5bd
00000320: b5a2 8dbd b480 14bd 9a1a 7e3d 9b79 093e
00000330: 7936 e83d 31d5 9dbd 9921 783d bad0 d5bc
00000340: 4877 09be 10cd 82be 0f73 443e fb1d 363e
00000350: db41 9e3d 128f 85bd a592 033e c618 19bd
00000360: 9700 7cbc e9b7 083d 9baa 713d ef03 17be
00000370: 84dc 9bbd dd70 c03c 1d86 db3b 1596 47be
00000380: f89f 34bc ced6 a2bd 2fe2 3b3d d70d aebc
00000390: 4d43 573e e759 ab3d a5f1 db3c 01dd 6bbc
000003a0: 4415 903c a435 f0bd c69b e73d 6c6d 043c
000003b0: de3d 31be 58eb 4a3e bec7 04be 27ec 8cbc
000003c0: c935 6b3e 4b1d 0dbd aac6 19be 9164 8ebd
000003d0: 1f0f a13d 37a6 993d 3f44 bcbc 026b e9bc
000003e0: 05a7 afbc 1b6d 54bd 7e61 c2bd bf87 973d
000003f0: 4eab 4b3e a6f0 843b e71f f03d ae56 983d

net.2.bias f4 [2]
0.0125705395 0.041792125
00000000: aaf4 4d3c 382e 2b3d
