Teaching Content/L4T4 - Pytorch/cartpole demo/checkpoints/policy_ep0150.pth (torch, 5824 bytes, 4 tensors)

net.0.weight f4 [128, 4]
000000 53 26 f3 3e 08 fe c2 be 27 ea 3b bf d0 26 2e bf
       0.47490177 -0.38084435 -0.73404163 -0.68027973
000010 b3 fe 30 3d 2f 1c f6 3d 00 05 58 3f 8c 3b 45 3f
       0.04321165 0.12017094 0.8438263 0.77043986
000020 f9 50 dc 3c 09 22 7d be 73 a9 09 be 53 62 f5 3d
       0.02689408 -0.24720015 -0.13443546 0.119816445
000030 e4 77 eb bd cb 5a 0b bd 98 e0 73 3f f2 84 02 3f
       -0.11497477 -0.034022134 0.9526458 0.5098411
000040 9f 14 09 bc 42 16 26 3e 0a d2 ba be 6c 93 e5 3e
       -0.008366733 0.16219428 -0.36488372 0.44839036
000050 d6 65 d5 3e 84 f0 99 be f0 86 6e 3d c1 0e 93 3e
       0.41679257 -0.3006631 0.058234155 0.28722194
000060 b8 98 85 3e 89 17 09 be ea d4 8e 3d db a8 35 3e
       0.26093078 -0.13387884 0.06974204 0.17740194
000070 42 29 09 3e 37 f2 d0 be 97 12 66 bf 93 5d 14 bf
       0.13394645 -0.40809795 -0.89872116 -0.5795528
000080 53 70 60 be c8 a8 e1 bd 92 d6 06 be a1 85 9f be
       -0.21917848 -0.110185206 -0.1316779 -0.31156638
000090 dd 3f 55 3e 9a 1b 6d bd 36 4b 26 3f d2 fa 26 3f
       0.20825143 -0.05788765 0.6495851 0.6522647
0000a0 8a 9e 8f bd 27 8a 00 3f ae 92 80 be 9b e1 de bd
       -0.07012661 0.50210804 -0.25111908 -0.108828746
0000b0 61 29 8d 3c fa a0 16 be 4a 5a 5c bf f1 1c 17 bf
       0.017231645 -0.14709845 -0.8607527 -0.59028536
0000c0 4b 08 99 3e 89 66 b4 be 0d c8 51 bf de c5 12 bf
       0.2988914 -0.35234478 -0.8194588 -0.5733317
0000d0 f3 d0 f0 3e ee c7 f1 3e 29 32 5f bf d1 e1 d5 be
       0.47034416 0.47222847 -0.87185913 -0.41773847
0000e0 1e d8 70 3e 7b 0b 3c 3e ea 37 29 3e bb 08 76 3e
       0.23519942 0.18363754 0.16525236 0.24026768
0000f0 9d ee d3 3e fd 68 a7 bd 13 e1 2b 3f 70 3b a4 3e
       0.41392985 -0.08174322 0.6714031 0.32076597
000100 08 28 fb 3d 3d 27 c5 3e 62 f1 db be 92 b4 b4 3e
       0.12263495 0.385065 -0.42957598 0.35294014
000110 33 45 5c bd 13 c6 b2 3e d7 0f 0a 3e cf 8b af be
       -0.05377693 0.34916744 0.13482605 -0.34286353
000120 b4 94 25 bf c9 ea cd be f7 c3 9f 3e ae b1 22 bd
       -0.6468003 -0.4021819 0.31204197 -0.03972023
000130 6e ab 3e 3b a1 34 9e bc 14 73 ab 3e d8 7d 86 3e
       0.002909388 -0.019312205 0.33486235 0.26267886
000140 80 8c d2 35 d1 62 23 bd 4c ba 8a be 75 90 b1 bc
       1.568711e-06 -0.03988916 -0.27095258 -0.021675328
000150 01 53 bb 3d 30 d5 56 bd 0c 2d 30 3f d3 57 13 3f
       0.09146691 -0.052449405 0.68818736 0.57555884
000160 ae ee a7 bc 5d 5d 84 be 23 7f fa be a4 53 b6 3e
       -0.020499554 -0.2585248 -0.48925123 0.35610688
000170 df f3 ca 3e 60 a4 ee be 3b f4 68 be 9b ae a9 be
       0.39639184 -0.46609783 -0.22749417 -0.33141026
000180 5d 1b b6 be 45 aa 99 3e 77 a3 82 3d 47 e7 1f 3f
       -0.35567752 0.30012718 0.06378835 0.62462276
000190 72 fb ae 3d b0 16 b6 bd a1 0e 94 3e 36 32 c3 bd
       0.08544053 -0.08891046 0.2891741 -0.09531061
0001a0 8a e9 be 3d 40 8a 2a 3e 18 f0 16 3f c1 b4 1f 3f
       0.09321888 0.166543 0.58960104 0.62385184
0001b0 b7 6f 0f 3e c4 dd 93 3d 5e 5b 42 3f 1a 44 1f 3f
       0.1400746 0.07220033 0.75920665 0.6221329
0001c0 34 18 1b 3e 14 e5 91 3d 05 20 41 3d a2 04 cd be
       0.15145952 0.07123771 0.047149677 -0.40042597
0001d0 bd d4 57 3e 30 59 1f 3b 6f 81 53 3d c4 b3 3c bb
       0.21077247 0.0024314635 0.05163711 -0.0028793672
0001e0 aa bd 02 3e d5 2c 83 3e b0 ee fb 3d f0 67 6b 3e
       0.12767664 0.25620142 0.123013854 0.22988868
0001f0 db 22 ce 3e 67 13 89 be 6c f5 54 3e 6f 3b 4b 3f
       0.40260968 -0.26772615 0.20796746 0.79387563
000200 46 26 e5 3e 80 e7 b9 be d3 78 90 3e b6 e1 80 bd
       0.44755763 -0.36309433 0.28217182 -0.06293051
000210 d1 a6 c2 bd 6a d6 b4 3e f2 9d 75 bf c2 63 64 bf
       -0.09504474 0.35319835 -0.9594413 -0.8921472
000220 59 50 b8 3e 57 db 96 be 8f 2e ab 3e c7 dc d3 3d
       0.359988 -0.29464218 0.3343396 0.10344844
000230 9a 03 9b 3c d4 4f b4 3e de d4 41 3f 74 35 69 3f
       0.018922616 0.35217154 0.75715435 0.9109719
000240 a0 76 69 3c cc 32 68 bd 23 5d 4f 3e b3 ed d5 3e
       0.014249474 -0.05668907 0.20250373 0.41782913
000250 06 78 bf 3e 10 06 bc 3e ec 24 c6 3e 48 37 ca be
       0.37396258 0.36723375 0.38700044 -0.394953
000260 df 5e b6 3e 82 ef 61 3e 9d 86 e3 be 3f 0c 27 bf
       0.35619256 0.22064021 -0.4443864 -0.6525306
000270 ad 03 6f 3e 6a dc e7 3e 42 d4 01 3f ae f4 7a 3f
       0.23341246 0.4528535 0.50714505 0.980296
000280 2f 11 47 3d 4f 1f 62 3d 4a 7d 9b 3e bf 64 9e 3e
       0.048600372 0.05520564 0.30369025 0.30936238
000290 7e b6 37 bd a6 af 0b 3f c0 23 06 bf d5 3e 83 be
       -0.044851772 0.54564893 -0.523983 -0.25633875
0002a0 b9 a6 33 3e 1e 8e 9d bd c6 7c ee 3e 07 eb 03 3e
       0.17544068 -0.07693122 0.4657957 0.12882625
0002b0 34 97 68 be 93 ff 9b 3e fa 4b b2 3d 5a 2e 49 3e
       -0.2271393 0.30468425 0.08705898 0.19646588
0002c0 85 3d c2 3e 3b da b3 be b5 a8 c1 3d 75 c3 66 bd
       0.3793756 -0.35127434 0.094560064 -0.056338746
0002d0 62 eb 1b 3d b8 37 b7 be c4 dc bd be 63 bd ce 3e
       0.038066275 -0.35784698 -0.37082493 0.40378866
0002e0 88 3f 6d be a0 bd 94 be 1f 7c 7f bd 26 f8 7b 3d
       -0.23168766 -0.29050922 -0.06237423 0.06151595
0002f0 66 db 1c be 3e bf 47 3e 3f f5 e9 3e ab 07 c5 3e
       -0.15318069 0.19506547 0.4569492 0.38482413
000300 be e9 29 be c6 ee c3 3e 61 d4 02 3d d8 d0 78 bd
       -0.16593072 0.38268107 0.03194082 -0.060746044
000310 b2 32 81 3c e9 83 7c 3e e3 35 a9 3d ba 80 47 3f
       0.015771244 0.24659695 0.08262231 0.77930796
000320 c3 63 9c bd 77 0e 04 3e 26 fb a5 3e e6 9f bb be
       -0.076362155 0.12896143 0.32418174 -0.3664543
000330 bf fb fb 3d 91 f6 01 3e 82 2a 94 3e e0 b1 ef bd
       0.12303876 0.12691714 0.2893868 -0.11703849
000340 e6 ea ea 3b a2 a7 47 3e f2 da 18 be e1 9d 77 bd
       0.0071691154 0.1949754 -0.14927271 -0.0604533
000350 4f d5 d7 be 33 d9 bf 3e 4d a9 0e 3f 1c db fe bd
       -0.4215493 0.37470397 0.5572708 -0.124441355
000360 63 a5 88 3d 85 ed 73 3e 5c be 27 3e bf 32 15 3f
       0.0667217 0.23821075 0.1638121 0.5828056
000370 c7 3d 93 bd 2c 04 74 39 c5 54 1d 3e 88 72 85 3c
       -0.071895175 0.00023271207 0.15364368 0.016289964
000380 72 e3 40 3e c4 d5 21 bc 60 5e 3b 3f 39 84 9b 3e
       0.18836764 -0.009877626 0.7319088 0.30374315
000390 ab ba 82 3e 76 97 7b be cc 29 74 3e ab 7a 09 3f
       0.2553304 -0.24569497 0.23844069 0.537028
0003a0 89 0b 6b be b5 4e 6a be 93 83 f3 be 05 25 fd be
       -0.22953619 -0.22881587 -0.4756132 -0.49442306
0003b0 ae 03 f1 bd 39 2c 36 3e 77 b2 23 be ef 4e a9 be
       -0.1176828 0.17790307 -0.15986048 -0.33068034
0003c0 b1 e1 04 3f 52 6e a5 bc 38 e5 03 bf 28 e6 43 bf
       0.5190688 -0.020194206 -0.51521635 -0.76523066
0003d0 db 54 f9 be 00 6c 39 bf 94 3c b4 bd 36 b7 02 bf
       -0.48697552 -0.7243042 -0.08800617 -0.5106081
0003e0 77 d1 ab be 20 c4 06 3e 83 3b 10 be ee c4 80 3d
       -0.33558246 0.13160753 -0.14085202 0.06287561
0003f0 03 7b 0e 3e 75 f7 ea 3d 35 94 fd 3d 67 d7 d9 be
       0.13914113 0.1147298 0.12381784 -0.4254715

net.0.bias f4 [128]
000000 a6 4e b0 3e 7b fb dd ba 8c f2 d5 be 67 96 b7 3e
       0.34435004 -0.0016935909 -0.4178661 0.35856935
000010 10 56 f6 be b2 b9 20 be d4 3b 87 3d 4e 30 8d 3e
       -0.48112535 -0.15695837 0.06603208 0.27575916
000020 ff f1 12 bf ef e6 47 3d 06 39 be 3e 2b 8d c3 3e
       -0.57400507 0.04880422 0.3715288 0.3819364
000030 6d ac c1 3e 81 4b 8e 3d df d0 ce be ee 87 b5 bd
       0.37826863 0.06947995 -0.4039373 -0.08863817
000040 46 20 d4 3d b7 45 17 be ff 20 34 3e 1e e8 ef be
       0.10357718 -0.14772688 0.17590712 -0.4685678
000050 95 30 a0 be e3 54 65 3e f3 c0 13 bf 0e 61 1e bf
       -0.31287065 0.22395663 -0.5771629 -0.61866844
000060 63 e6 4f 3e 57 9b e3 bd 6b 39 19 3d d1 6a 8f bc
       0.2030273 -0.11113613 0.037408274 -0.017506989
000070 14 93 2a 3e 2e a4 15 bf d4 1f 82 3d c2 fd ae 3d
       0.16657668 -0.58453643 0.06353727 0.08544494
000080 d4 be 1c bf 3c 59 03 3f 13 6f c5 be 98 3a 54 3e
       -0.6122868 0.51308036 -0.38561305 0.20725477
000090 e6 ce b1 bc 1c 8e 19 bf 0c 50 11 be 7b bd 7d 3e
       -0.021705102 -0.59982467 -0.14190692 0.24779312
0000a0 17 8a 79 3e 93 9a 04 3e 62 0a d7 bd d0 42 94 3d
       0.24369083 0.1294959 -0.10500027 0.07239306
0000b0 f7 5f 23 be f5 be 16 bf ce 85 40 3e 01 0c 8b 3d
       -0.15954576 -0.5888513 0.18801042 0.06789399
0000c0 32 58 c6 be 08 59 60 39 85 5c 6e be 85 f5 a4 be
       -0.38739163 0.00021395471 -0.23277481 -0.32218567
0000d0 1a 5f 00 bf df 40 8a be b7 98 ba bc f0 f0 bd be
       -0.50145113 -0.27002618 -0.022777898 -0.37097883
0000e0 e1 6c 99 bb ab 15 0a bf 0c 82 87 3e a4 80 bb be
       -0.004682169 -0.5393931 0.26466405 -0.36621583
0000f0 5d 11 98 3e 5f 2b b2 3e a4 a6 08 bf c5 4a c1 bd
       0.29700747 0.34798715 -0.53379273 -0.09438089
000100 1b 08 04 bf 13 f8 ae 3d 7f 2a a8 3e 28 f7 1a 3e
       -0.5157487 0.0854341 0.32844922 0.15133345
000110 6d 87 eb 3e 00 88 e4 3e bb 71 f1 3d 5d eb 67 3c
       0.4600176 0.4463501 0.117892705 0.014155236
000120 d2 8a 32 3d f8 51 7e 3e 2b 0c 91 be 02 5d 97 3e
       0.04358942 0.24835956 -0.28329596 0.29563147
000130 8c b2 d6 be 8c 85 b8 3e 47 55 95 bd 5a 89 57 3e
       -0.41933095 0.36039388 -0.07291656 0.21048489
000140 a0 28 36 3e f7 28 05 bf e3 58 0e 3e f5 a3 00 bf
       0.17788935 -0.5201563 0.13901095 -0.5025018
000150 f6 41 6a be 0d dc d7 3d 98 c8 19 bd bb ab f8 bd
       -0.22876725 0.10540018 -0.037544817 -0.1214213
000160 02 d2 c2 3d f5 1d b3 be 21 0c c2 3c 88 9a 28 3e
       0.09512712 -0.34983793 0.023687424 0.16465199
000170 2d a7 76 bd e1 f4 a1 be 7e f8 c4 bd a2 6e db be
       -0.060218025 -0.3163214 -0.096177086 -0.42857844
000180 9e 03 81 3d 1a a8 aa 3d b0 36 3d 3d b8 3b e2 bd
       0.06299518 0.08332844 0.046194732 -0.11046547
000190 d7 e6 80 be f9 10 97 3e 3f 4d 47 3e 21 12 95 be
       -0.25176117 0.29505137 0.19463061 -0.29115394
0001a0 0d e1 b7 be 8f 3b 63 3e ca d7 1f bf b3 a3 86 3c
       -0.35913888 0.22190689 -0.6243864 0.01643548
0001b0 9a 52 4e 3d 6e ed 4b be ed 7a 4d be 27 35 95 bd
       0.050371744 -0.19914791 -0.20066424 -0.07285529
0001c0 bf ca e3 be 07 6f b6 be a9 c1 c4 bd ad b6 3d 3e
       -0.4449062 -0.35631582 -0.0960725 0.18526717
0001d0 7b c2 8d be 5f dc 96 3c 3c a9 4f 3d 4b 02 83 be
       -0.2768744 0.018415628 0.050698504 -0.25587687
0001e0 f9 a7 7f 3e 92 10 e2 3d 82 1b a5 3e 80 b0 64 3e
       0.2496642 0.11038317 0.3224755 0.22332954
0001f0 4e a9 63 3d c6 b6 70 3e 37 ee a7 3e f1 99 ee be
       0.055581383 0.23507223 0.3279893 -0.46601823

net.2.weight f4 [2, 128]
000000 68 7c c8 3e 1b 94 99 be f2 19 21 3e 06 a3 93 bd
       0.39157414 -0.29995808 0.15732554 -0.07208829
000010 b5 f5 e0 3d 01 70 21 3d 68 11 3e 3d fe 01 c4 3e
       0.10984365 0.039413456 0.04640332 0.3828277
000020 df b3 ef 3d 86 3d 85 be e5 3e 2c 3d 7e 2e 8b 3e
       0.117042296 -0.260235 0.04205217 0.27183908
000030 c3 48 8d 3e 82 b9 af 3d 97 fc 49 3c 21 5b c4 bc
       0.27594575 0.08580305 0.0123282885 -0.023969235
000040 fb 02 21 bd 1c 66 a7 3d df d8 5d 3e 62 94 93 3d
       -0.039309483 0.08173773 0.21664761 0.07206036
000050 9f a8 04 bd e1 a3 0b bc 67 f2 04 bd b2 3d 2c bd
       -0.032387372 -0.0085229585 -0.032457735 -0.042051025
000060 5f 1e 75 bd 1f 51 8b 3c 2e b9 0d be 46 eb 48 be
       -0.059843417 0.017006455 -0.13840172 -0.19621
000070 4f 66 ed 3c bd 5d 03 be 78 33 8d bd f3 b7 47 be
       0.028979449 -0.12828727 -0.068945825 -0.19503765
000080 c0 a2 4f 3d 29 f5 94 3e b3 3b 67 bd a4 8f 5d be
       0.05069232 0.29093292 -0.056453418 -0.21636826
000090 09 c5 41 3d 9b ca 48 3d 93 ed b3 3d 55 0e 6f be
       0.047307048 0.049021345 0.08785548 -0.23345311
0000a0 62 8c 85 bb d1 3d fc 3d 50 26 7b bd 5f 08 e4 3d
       -0.004075573 0.12316478 -0.061315835 0.11134409
0000b0 50 68 f0 3b 44 8b 75 bc 29 93 f2 3d 26 59 88 3d
       0.007336654 -0.014986817 0.11844475 0.06657629
0000c0 ce 6e 56 3d 6a aa b1 bd 30 16 c5 3c 73 ae f2 3b
       0.052351765 -0.08675082 0.024058431 0.00740605
0000d0 f0 23 dc bb 9f a4 56 3b 1c 02 ae bd 07 db a8 ba
       -0.0067181513 0.003275193 -0.08496496 -0.0012882658
0000e0 ab 6b 22 be e8 70 62 bd d8 8d b4 3e 75 43 e7 3b
       -0.15861385 -0.055283457 0.35264468 0.007057602
0000f0 13 54 3e 3e 54 20 b4 3e 1d 75 73 3d 52 00 e5 3d
       0.1858676 0.35180914 0.05943786 0.11181702
000100 12 86 75 3d be 66 45 3d 75 bd a4 3e 5a c8 49 3c
       0.059942313 0.048193686 0.32175794 0.012315834
000110 b5 72 fc 3e a0 c9 50 3e 8d e8 4f be 0a 4d 30 3e
       0.49306265 0.20389414 -0.20303555 0.17216888
000120 eb 7c ac 3d 48 75 d8 3e 7f 54 06 3d 2b b1 9d bd
       0.08422264 0.42276978 0.032795426 -0.07699808
000130 cb a6 d4 3d 88 a9 b3 3e 46 1b 20 3e 37 44 14 be
       0.10383376 0.3509028 0.15635404 -0.14479147
000140 b1 07 70 be 8e a6 ac bd b2 9c b8 3c de 5c bf 3d
       -0.23440434 -0.08430205 0.022535656 0.09343885
000150 8f 8d 4e 3d a9 3d 37 3e ac c8 31 3e 96 bd f6 3c
       0.05042797 0.17894615 0.17361706 0.030119698
000160 9f b0 c3 3d ec 22 eb 3d da 42 bd bd b2 f3 3d 3e
       0.09555172 0.1148127 -0.092412665 0.18549994
000170 23 70 88 3d 49 49 a6 bc 34 a2 17 bd a9 27 b8 3d
       0.066620134 -0.020298617 -0.037019923 0.089919396
000180 e4 1b 1e be fe 52 39 be f5 6b 64 3e e4 e1 ff bd
       -0.15440327 -0.18098065 0.22306807 -0.12494257
000190 4b 24 21 bd 4a 50 8d bd 88 af 0e be da 0e 35 3d
       -0.039341252 -0.069000795 -0.13934147 0.044203617
0001a0 79 3c 99 bd 34 f7 bd 3c 37 28 b4 bc 10 f0 74 be
       -0.07482237 0.023189165 -0.021991832 -0.23919702
0001b0 8f 07 3c be a1 3a 9b 3d 6c 65 91 bd cf cb f9 bd
       -0.18362258 0.07579542 -0.07099423 -0.121970765
0001c0 48 39 0f 3e de f9 ae 3d c8 fd e7 3d 56 1a 8b 3e
       0.13986695 0.08543752 0.11327702 0.2716853
0001d0 84 0b 90 3e 3b f9 7f 3e a9 ee 83 be 43 d8 81 3d
       0.28133786 0.24997418 -0.2576802 0.06340077
0001e0 81 9d a9 3d 94 00 59 3e 1f 10 86 3e 9b c7 8a 3e
       0.082819946 0.21191627 0.26184174 0.27105412
0001f0 6c ce fa 3d 2f 55 46 bd 02 67 d3 3d ea c5 d9 bc
       0.12246403 -0.04842108 0.103223816 -0.02658363
000200 f2 41 8f be e0 83 bc 3e 1d 1d fd bc ab 16 1f 3d
       -0.2798 0.36819363 -0.030897671 0.038839977
000210 7e 45 ce bd 23 ad 33 bc 7c a0 e5 bc e8 06 cb be
       -0.10071848 -0.010966572 -0.028030626 -0.39653707
000220 67 3a 05 be 37 1c fc 3d 0f bb 03 bd 46 2f b2 be
       -0.1301056 0.12310069 -0.032160815 -0.34801692
000230 34 66 92 be 56 e8 4b be 08 0b 96 3a b3 18 a8 3d
       -0.285936 -0.19912848 0.0011447379 0.08207836
000240 03 61 4c 3c b1 cd 72 3d 34 85 1a be ff 0f d6 3c
       0.012474301 0.059278194 -0.15089875 0.026130674
000250 4a 85 d1 3c bb 6c df 3d 02 ad 9f 3d 4a db 89 bd
       0.025576252 0.109094106 0.077966705 -0.06731279
000260 c3 7d 3b 3d 76 ea e1 bb 2f dc 12 3e 38 9e b4 3d
       0.045774233 -0.006894405 0.14341806 0.0881924
000270 05 c7 5b bd 47 1d bd 3c 92 74 1d bc 9c c1 2a 3e
       -0.053656597 0.02308525 -0.009610312 0.16675419
000280 7f 15 75 3d 27 4d 27 be ee 82 0e 3d f1 e9 74 3e
       0.059834953 -0.16338025 0.034792833 0.23917367
000290 8c 87 2e bd b3 48 ac bd 63 2e 20 be 75 83 09 3e
       -0.042609736 -0.08412304 -0.15642695 0.13429053
0002a0 ec 0c e0 bd 96 e2 01 be e3 a1 28 bd 21 ec d1 bd
       -0.10939965 -0.12684092 -0.041170012 -0.10250116
0002b0 75 a7 45 bd f2 77 f3 3a 34 4c 10 be 96 97 37 3d
       -0.048255403 0.0018575175 -0.14091569 0.044822298
0002c0 81 c9 16 be 95 fe 7b 3e 1c 50 3a bd d8 a1 09 3d
       -0.14725305 0.24608834 -0.045486555 0.03360161
0002d0 4d 6c 8b bd 4e db 69 bd ad 41 0e 3e 56 8d c8 3a
       -0.06807766 -0.05709391 0.13892241 0.001530091
0002e0 fd 7a 00 3e c3 73 d6 3d 5f 90 bb be dc d2 b8 bd
       0.12546916 0.104712985 -0.36633584 -0.09024593
0002f0 ff 6f 8a be 09 83 8d be 62 15 30 bb 2f 4f 97 bd
       -0.2703857 -0.27639034 -0.0026868214 -0.0738815
000300 59 b4 cc bd 10 d6 4d be b2 34 af be 03 6d eb bc
       -0.09995336 -0.2010119 -0.3421989 -0.028738504
000310 cc 4a b2 be af f5 20 be 90 f5 d9 3d 1e 70 fe bd
       -0.3482269 -0.15718721 0.106425405 -0.124237284
000320 5b 49 81 3d 66 6c 9e be db ba 9b bc ff e3 3c 3e
       0.063128196 -0.30942076 -0.019009998 0.18446349
000330 54 7c 94 bc b0 e6 9d be 2c 49 3c be 47 38 ac 3d
       -0.01812569 -0.30840063 -0.18387288 0.084091716
000340 7d 18 87 3e 2d 99 99 bd db e3 78 bd 36 af a7 bd
       0.2638587 -0.07499919 -0.060764175 -0.08187716
000350 6c 40 2a be 29 fc 4a be 8a 61 25 be 1a 45 45 3c
       -0.16626137 -0.19822754 -0.1615049 0.012040401
000360 2c 4c 55 be 1a 04 eb 3b 28 2c 29 3e 2f 0f 80 be
       -0.20829839 0.00717212 0.1652075 -0.25011584
000370 48 e6 06 bd 7f e9 19 bc c1 07 66 bd 8a 3b 58 be
       -0.032934457 -0.009394049 -0.05615974 -0.21116462
000380 08 a9 5d 3e c2 8d 32 3e b5 39 20 be 8a 14 ce 3d
       0.21646512 0.17436889 -0.15647013 0.10062511
000390 1c 5d e7 3a 82 9f 34 3e 48 37 ba 3d 12 84 b0 3c
       0.001765165 0.17638972 0.09092575 0.021547351
0003a0 66 86 87 bc d9 f5 08 3e 4f 5c 76 bc 6b 0d e3 3d
       -0.016543578 0.13375033 -0.0150366565 0.11086544
0003b0 0d 6f bd 3d db 5c d0 bd a3 32 c4 3c 61 6c 0d 3d
       0.09249697 -0.10173961 0.023949927 0.034527186
0003c0 e6 ac 3e be 9b 10 ac 3c 67 da 83 bd dc dc 6d be
       -0.18620643 0.021004012 -0.06438141 -0.23228782
0003d0 e2 7a 89 be c0 37 20 be 03 a3 3c 3e 4d 23 98 3d
       -0.26851565 -0.15646267 0.18421559 0.07428608
0003e0 dc e8 8f bd 94 53 02 be 83 b7 97 be 1f a5 93 be
       -0.07026836 -0.12727195 -0.29632196 -0.28836915
0003f0 cc 2e 75 be 13 ab 23 3e b2 2b 24 be 44 81 46 bd
       -0.23943633 0.15983228 -0.16032293 -0.04846312

net.2.bias f4 [2]
000000 ad 03 b3 3d 00 93 92 bd
       0.087409355 -0.07156944
