Teaching Content/L4T4 - Pytorch/cartpole demo/checkpoints/policy_ep0450.pth (torch, 5824 bytes, 4 tensors)

net.0.weight f4 [128, 4]
000000 93 d8 8f 3e e4 ec fa be d7 f0 90 bf 57 62 77 bf
       0.2809492 -0.49008858 -1.1323498 -0.9663443
000010 c9 02 9e 3e f4 4d bf 3e c1 5f ab 3f d1 7f 85 3f
       0.308615 0.3736416 1.3388597 1.0429631
000020 ef b2 2f be 57 08 67 be dc de 18 3d 02 a2 68 3e
       -0.17158101 -0.22561775 0.03732191 0.22718051
000030 1e db 0c 3e 94 70 a4 3e 52 04 a9 3f 07 9e 1e 3f
       0.13755462 0.3211714 1.3204443 0.6195988
000040 fc bc 72 bd 10 29 d9 3d 23 74 c9 be 14 cc e1 3e
       -0.05926226 0.10603535 -0.39346418 0.44101012
000050 04 c0 94 3e c0 e9 81 be 3a 77 d0 bd 8f af 57 3e
       0.29052746 -0.2537365 -0.10178991 0.21063064
000060 26 8c 10 3e 5f dd 82 be 4c d0 40 be 37 23 95 3d
       0.14115962 -0.25559518 -0.18829459 0.07282107
000070 d0 0e be 3c ac 17 c0 be 24 f9 ab bf 0c 34 7d bf
       0.023200423 -0.3751806 -1.3435407 -0.9890754
000080 87 ce 5b be 63 12 db bd 46 e8 03 be 56 a9 9e be
       -0.21465503 -0.10696866 -0.12881574 -0.30988568
000090 fa d3 d7 3e 97 ac 40 3e 3d cf 8e 3f e7 54 67 3f
       0.42153913 0.18815838 1.1156994 0.90363926
0000a0 7f 87 31 be b7 40 bd 3e 60 1f 21 bf 89 ad 83 be
       -0.17336844 0.36963436 -0.629385 -0.25718334
0000b0 7b eb 14 be 93 64 76 be af b5 b9 bf 79 42 7e bf
       -0.14542954 -0.24061804 -1.450857 -0.9932018
0000c0 f9 05 fe 3d 8b f0 eb be f5 37 a0 bf ea 08 5c bf
       0.12403483 -0.46081957 -1.2517077 -0.859511
0000d0 68 18 6b 3e 6f 73 40 3e 31 02 aa bf 59 80 1f bf
       0.22958529 0.18794034 -1.3281919 -0.6230522
0000e0 16 ee 63 3e b3 7b a5 3d 09 98 1c 3e db 87 bb 3e
       0.22258791 0.080802344 0.15292372 0.36627087
0000f0 bf c9 02 3f b2 f8 cf bd 59 7e 50 3f 8d 55 1b 3f
       0.5108909 -0.10154857 0.8144279 0.60677415
000100 f3 41 c7 3d ea 70 1e 3e a8 8f 98 be 97 62 21 3f
       0.09729376 0.15472761 -0.297971 0.6304106
000110 db f1 1d be aa 76 cd 3d f9 95 92 3d 41 b5 99 be
       -0.15424292 0.10032399 0.07157511 -0.30021098
000120 9d 75 4f bf 50 e3 cb be ff 7d 5b 3e 31 a8 2a be
       -0.8103884 -0.39821863 0.21434782 -0.16665722
000130 06 2c d7 bc 30 9d 30 bd 74 f6 a3 3e 3e 99 84 3e
       -0.02626611 -0.043118656 0.32023966 0.25898165
000140 bf bd d9 3a ab a7 1a bd 22 e9 89 be 21 cd ac bc
       0.0016612335 -0.037757557 -0.2693568 -0.021093907
000150 2a b1 92 3e 3f 95 5d 3e db 88 8f 3f ea 7d 3f 3f
       0.2865079 0.21638964 1.121364 0.74801505
000160 33 2c 6a bd 15 fb 1b be 76 03 04 bf b8 3c 96 3e
       -0.057171058 -0.15232499 -0.5156778 0.293432
000170 06 7a 75 3e 8f c3 bd be 24 f3 42 be d8 82 d6 be
       0.2397233 -0.37063262 -0.19038063 -0.418967
000180 7e f0 ad be bf d3 02 3f e1 e3 d7 3e af ed 35 3f
       -0.33972543 0.5110435 0.42166045 0.710658
000190 0b b9 dc 3d 0d ab ae be ee 70 e2 3e 0f cf a5 3b
       0.10777482 -0.34114876 0.44226784 0.0050600837
0001a0 fb 05 98 3e 8f c0 b5 3e 39 49 93 3f fa 24 6c 3f
       0.29692063 0.35498473 1.1506721 0.9224392
0001b0 d6 45 ac 3e 1e 19 9f 3e f3 f1 97 3f 29 3f 59 3f
       0.3364703 0.3107385 1.1870712 0.84862
0001c0 4a 4d 91 bd 9c a5 d7 bd 5f 14 84 be f4 ed 02 bf
       -0.0709482 -0.10529634 -0.25796792 -0.5114434
0001d0 90 7a 57 3e a1 cd 08 3b b9 18 52 3d 4d 3f 53 bb
       0.21042848 0.0020874518 0.05129311 -0.0032233775
0001e0 a0 ef 64 3e b7 90 88 3e 2a 7e 0e 3f dc 6e 03 3f
       0.22357035 0.2667291 0.5566126 0.51341033
0001f0 8d 4f 01 3f 47 1f 57 be d5 4a b8 3e fe 15 86 3f
       0.5051201 -0.21008025 0.35994592 1.0475461
000200 98 69 10 3f 77 3d d0 be f8 a7 a9 3e be 86 e4 3d
       0.56411123 -0.40671894 0.33135962 0.111585125
000210 51 17 6d be a0 d7 2a 3e 6d 34 cb bf 58 24 9c bf
       -0.23153426 0.16683817 -1.5875374 -1.2198591
000220 5c 34 f9 3e 95 45 6a be 74 59 b9 3e d6 83 3f 3e
       0.4867276 -0.22878106 0.3620106 0.18702635
000230 46 13 61 3e 5e 82 0c 3f 3a 2f a4 3f 45 55 9c 3f
       0.21980008 0.54886425 1.2826912 1.2213522
000240 1c b4 9f bd ba a8 c7 3e 89 1e 0d 3f 03 42 e5 3e
       -0.07798025 0.38995916 0.5512472 0.44776925
000250 70 c7 52 3e f6 92 18 3e 5b bb bc 3e 41 54 4f be
       0.20583892 0.14899811 0.3686169 -0.20246984
000260 4c 24 bb 3d ff af 6b 3c 80 33 4c bf 0c 39 57 bf
       0.091377825 0.014385222 -0.7976608 -0.8407142
000270 b2 ee db 3e 2b 90 20 3f 87 8f 7a 3f dc 25 a3 3f
       0.42955548 0.6271998 0.97875255 1.2745929
000280 1f ed 07 3e b3 cd e9 3e e7 ce 30 3f c6 b2 c2 3e
       0.13274048 0.4566475 0.6906571 0.38027018
000290 06 fa 40 be 56 3c a6 3e af e0 84 bf a6 63 d3 be
       -0.18845376 0.32467908 -1.0381068 -0.41286963
0002a0 61 0d 93 bc b9 cb 00 be 69 dc 05 3f 59 c0 ff 3d
       -0.017950715 -0.12577714 0.52289444 0.12487859
0002b0 0b cc c5 be bc 69 9b 3d 20 93 0e be db 3c 3c 3e
       -0.38632235 0.075885266 -0.13923311 0.1838259
0002c0 b8 d2 89 3e 00 1b c1 be b0 8c 7a bd d6 45 74 bd
       0.26918578 -0.37715912 -0.061169326 -0.059636913
0002d0 94 41 fd bb ae 1e 8e be 0f 15 c6 be 0d 35 b3 3e
       -0.007728765 -0.27757782 -0.3868794 0.35001412
0002e0 87 05 39 be d8 37 c5 be 3d 8e 2f be 87 dd b4 bd
       -0.18068515 -0.38519168 -0.17144103 -0.088313155
0002f0 ba 82 87 be d2 87 82 3e 0c c9 3a 3f 30 4d f0 3e
       -0.26466924 0.25494248 0.72963023 0.4693389
000300 32 ab a0 be 63 fe 6b 3e fe f5 95 bd 96 70 89 bd
       -0.31380612 0.2304626 -0.0732231 -0.06710927
000310 3a 10 78 3e 58 61 c9 3e d3 82 0b 3f 67 9b 88 3f
       0.2422494 0.3933208 0.54496497 1.0672425
000320 9e 47 4a be 3e 3c f1 3d 77 9c 95 3e d6 2c c5 be
       -0.19753882 0.117790684 0.29220936 -0.3851077
000330 2f 3f 0d 3d e4 2c 72 3d 7d 39 be 3e 0b 3a b5 bc
       0.034484085 0.059124842 0.37153235 -0.022122404
000340 e1 3c 32 bd b3 e1 08 3e b8 09 61 be 47 72 a9 bd
       -0.04351509 0.13367347 -0.21976364 -0.0827375
000350 28 89 0e bf 31 9c 1e 3e 56 c6 bc 3e 5b 9a c3 bd
       -0.55678034 0.1548927 0.36870068 -0.09550925
000360 07 33 8c 3e ba 17 ac 3e 53 17 39 3f 3a f6 6b 3f
       0.2738268 0.33611852 0.72301215 0.92172587
000370 72 2a 8e bd 51 74 51 3b 51 28 20 3e 26 f3 99 3c
       -0.069416896 0.00319602 0.1564038 0.0187927
000380 cb d1 a3 3e 67 4d 03 3e 23 a4 8b 3f 4c b3 1d 3f
       0.31995997 0.12822495 1.0909466 0.6160171
000390 67 af 33 3f 89 f8 17 bd df 7c 3c 3d 8e 2d 20 3f
       0.7018952 -0.037102256 0.046017524 0.6256951
0003a0 11 48 51 be 2f cf 0f be 82 f5 74 bf 6d 94 5e bf
       -0.20437647 -0.14043878 -0.95687115 -0.8694523
0003b0 3f dd 39 be b0 58 d0 3d 3f fa f1 bd d3 73 8a be
       -0.18150805 0.10173166 -0.11815309 -0.27041492
0003c0 b7 8b 92 3e 74 20 80 be cd c7 83 bf b4 3a 85 bf
       0.2862222 -0.2502476 -1.0295349 -1.040854
0003d0 f4 68 d8 be 8a 3c 76 bf 71 38 8e be 0b d6 1f bf
       -0.42267573 -0.96186125 -0.27777436 -0.6243598
0003e0 5a 65 ab be 3a 46 0b 3e 46 97 1b be 1b 95 79 3d
       -0.33475763 0.13601008 -0.15194425 0.060933214
0003f0 29 e6 02 bb 9d ce 16 3c 7e 16 62 3d 83 12 e8 be
       -0.0019973612 0.009204534 0.05519723 -0.45326623

net.0.bias f4 [128]
000000 1b 54 b2 3e 9d 72 1e 3d b7 af d3 be 61 60 a8 3e
       0.34829792 0.038683522 -0.41344997 0.3288603
000010 64 30 03 bf ed 14 b7 be 8c 17 3d be 5a 07 9a 3e
       -0.51245713 -0.35758153 -0.18466014 0.30083734
000020 cf d6 13 bf 7e 14 3f 3d 1c 29 02 3e f4 6c aa 3e
       -0.57749647 0.046650402 0.12710994 0.3328625
000030 af aa b3 3e 30 af a7 3c d0 de 00 bf ba a3 28 be
       0.3509116 0.020469278 -0.50339985 -0.16468707
000040 0d 59 89 bd af 23 a2 be 63 4a 41 3e ee 15 fa be
       -0.06706438 -0.3166785 0.18876033 -0.48844856
000050 c1 bd a0 be 61 f7 3a 3e 5c 19 27 bf cb b3 4d bf
       -0.3139477 0.1825843 -0.6527307 -0.8035247
000060 29 2b a9 3d e6 2a d9 3d 4c 57 32 3c 88 7e 35 bc
       0.08260185 0.10603885 0.010885071 -0.011077531
000070 cc f5 c6 3c b4 ba 15 bf 91 bc 54 bc 04 32 14 be
       0.024287127 -0.5848801 -0.012984411 -0.14472204
000080 9e 0e 05 bf 4b ab e8 3e d8 c3 a5 be df 3f 31 3e
       -0.5197543 0.45443186 -0.3237598 0.17309521
000090 ee 25 45 bd 27 1e 46 bf 63 44 c6 be d3 65 3b 3e
       -0.048131876 -0.7738976 -0.3872405 0.18300562
0000a0 ec 9f fb 3d 7a 18 71 bc 6b 94 73 be d5 cb d8 3c
       0.12286362 -0.014715308 -0.23787086 0.026464382
0000b0 59 35 a2 be 22 ff 28 bf 29 d4 a9 3e 4f 55 8b bc
       -0.31681326 -0.660143 0.33169678 -0.017008452
0000c0 aa 31 07 bf 52 3e d1 3b a1 00 86 be 20 70 c3 be
       -0.52810156 0.006385603 -0.26172355 -0.38171482
0000d0 ff d9 10 bf 68 4c f2 be 82 8e 75 3b b1 38 bf be
       -0.56582636 -0.47323918 0.0037468974 -0.3734794
0000e0 5d 80 91 3c 8b 23 52 be 44 f9 a2 3e 65 98 dd be
       0.017761404 -0.20521371 0.318308 -0.4328033
0000f0 c7 44 42 3e 2a c0 07 3f 83 a5 08 bf 96 28 14 be
       0.18971549 0.53027594 -0.5337755 -0.14468607
000100 b5 c6 11 bf 25 ff f9 bc 56 f6 f5 3e dc 8f 1c 3e
       -0.5694383 -0.03051717 0.48039502 0.15289253
000110 c2 e5 1b 3f 17 4a cb 3e 2b 71 de 3d f5 1d 3b be
       0.6089746 0.39704964 0.10861429 -0.18273146
000120 c3 d8 2f be 2b 4f fa 3e 13 ed aa be 18 b1 73 3e
       -0.17172532 0.48888525 -0.33383998 0.23798025
000130 7f 9a d9 be 8e cf c8 3e 2d 20 69 be 39 a4 28 3e
       -0.42500684 0.39220852 -0.2276618 0.16468896
000140 40 36 53 3e c1 86 05 bf 22 9e c2 bd 96 8d 01 bf
       0.20626163 -0.52158743 -0.09502818 -0.5060667
000150 a3 ec 06 bf 7e 4b 53 3d 11 58 ed bd 0e 83 85 be
       -0.5270483 0.051585667 -0.11589063 -0.2607655
000160 1a 6f 50 bd e1 2a f5 be cb ea ca 3b 77 cb 04 3e
       -0.050887205 -0.47884277 0.0061925403 0.1296824
000170 d9 f6 1f be 42 69 c3 be 29 5c 1d be 68 39 05 bf
       -0.15621509 -0.38166243 -0.15367188 -0.5204072
000180 8e 5b 7c 3d ba 3a 75 3e 11 00 c4 bd 90 5b 3c be
       0.06161075 0.23948184 -0.09570325 -0.18394303
000190 59 40 86 be 99 2b 6e 3e 97 08 00 3e 61 55 ad be
       -0.26220968 0.23258819 0.12503277 -0.338542
0001a0 8d b4 de be 9e 66 3c 3e 53 ac 20 bf 4d ec ab 3b
       -0.43497124 0.1839852 -0.62762946 0.005246675
0001b0 45 7b 86 3b f3 d0 ae be 87 9a 96 be 41 ff 4f be
       0.0041040503 -0.3414379 -0.2941477 -0.20312215
0001c0 20 6c f7 be 77 97 a5 be a3 0b 41 be 15 ec 03 3e
       -0.4832468 -0.3234212 -0.18852095 0.12883027
0001d0 6c d8 cd be 1a 2e 59 be a2 1c 0c 3d a9 94 9b be
       -0.4020418 -0.21208993 0.034206994 -0.30386856
0001e0 13 f5 3d bd 2f fd 8c 3c f6 85 96 3e dc 38 97 3e
       -0.0463763 0.017210571 0.2939908 0.29535568
0001f0 fc ac 3b 3c 45 4d 3d 3e 00 1a 2a 3e ab d5 11 bf
       0.011454817 0.18486507 0.1661148 -0.56966656

net.2.weight f4 [2, 128]
000000 47 bc d6 3e 88 b9 28 bf 09 0e 5e 3d 8a 99 34 be
       0.4194052 -0.659081 0.054212604 -0.17636696
000010 62 e5 a0 3d 6b 04 0d bd 57 e4 0e bc 05 87 e4 3e
       0.07856251 -0.03442804 -0.008721433 0.44634262
000020 59 84 fd 3d c6 32 f8 be 8a fc 01 bd 67 ef de 3e
       0.12378759 -0.48476237 -0.03173498 0.43542024
000030 d3 84 aa 3e 90 98 95 bc 7d 89 93 3c f9 a1 14 be
       0.33304462 -0.018261224 0.018009895 -0.14514913
000040 e9 87 24 bd 85 3d a1 3d 03 dd 80 3e 81 80 94 3d
       -0.040168677 0.07873062 0.2516862 0.07251073
000050 7b 78 04 bd c8 e5 11 be 98 f6 ae bc bf d6 9d bd
       -0.03234146 -0.14247811 -0.02135782 -0.07706975
000060 05 90 1f be ab 6a 30 3e 6c b8 c3 be 70 ec f7 be
       -0.15582283 0.1722819 -0.3822664 -0.48422575
000070 58 db 8e 3b ea b7 03 be 7f 79 10 be 33 4a 96 be
       0.004359644 -0.12863126 -0.14108847 -0.29353485
000080 88 21 5e 3b 82 ab bc 3e 6b 7f f7 bd 40 d4 e1 be
       0.0033894498 0.368496 -0.1208485 -0.44107246
000090 f6 f0 ce bd ff 21 a0 3c a7 c3 66 3d 5e 47 e2 be
       -0.101045534 0.01954746 0.056338932 -0.44195074
0000a0 f2 ff 3f be 54 e5 58 3d 53 6a 73 bd 7c 8a 23 3d
       -0.18749979 0.05295308 -0.05942757 0.03992699
0000b0 36 88 36 bd 22 1e b8 3c b8 6a 6b 3e 04 98 00 bc
       -0.044563495 0.022475306 0.22989929 -0.007848743
0000c0 99 1a e6 bc d6 e0 a5 be 59 b4 59 3b 38 3c 2d 3d
       -0.028088855 -0.323981 0.0033219068 0.042293757
0000d0 ba 6a e8 bc 87 db 00 be 43 c4 8d be 97 fc 03 39
       -0.028371204 -0.12583743 -0.27688798 0.0001258723
0000e0 e6 c2 8d be ef 66 6e be e3 fd f1 3e f6 ec e4 b9
       -0.27687758 -0.23281454 0.47264013 -0.00043664098
0000f0 f8 63 18 3e f5 05 14 3f ec 12 85 3d 3e a8 37 3d
       0.14881885 0.5782159 0.0649775 0.044838183
000100 b4 d5 18 3d d4 c0 5a bd 08 f0 f6 3e 82 bf a0 be
       0.03731318 -0.05340655 0.48230004 -0.3139611
000110 ff 4e 38 3f 73 a8 8b 3e 3a ca ba be 36 f2 18 3e
       0.7199554 0.27276954 -0.36482412 0.14936146
000120 fc 49 c5 bb a9 c4 2f 3f 23 77 14 3c 9a 1e 63 be
       -0.0060207825 0.68659455 0.0090616075 -0.22179642
000130 cd 26 e7 3d 06 03 0b 3f 21 10 df 3d de a2 9b be
       0.112866975 0.5430149 0.10891748 -0.30397695
000140 34 e8 e6 be 57 bb ac bd 65 0a 15 bb 66 6c cb 3d
       -0.45099032 -0.0843417 -0.0022741791 0.09932785
000150 d5 a9 72 ba 22 5a 93 3d fc 7a 3a 3e 1c de 4a 3d
       -0.00092568743 0.07194926 0.18210977 0.049528226
000160 c1 27 37 3d c9 93 aa 3d 7c ce a9 be d6 ca 15 3e
       0.044715647 0.08328969 -0.33165348 0.14628157
000170 f6 f4 1a 3d 94 3b 52 3c 1e 25 9b bd a0 69 0d bd
       0.03783127 0.012831587 -0.07575439 -0.03452456
000180 22 45 a5 be 7d 87 de be e3 4b 28 3e e9 3e 9e be
       -0.32279307 -0.43462744 0.16435198 -0.30907372
000190 bf 03 4a bd c7 59 6e be f1 b3 ae be ff e7 77 3b
       -0.04931998 -0.23276435 -0.3412166 0.003782749
0001a0 42 31 36 bc ea 4d 05 be 06 c7 c0 bc 79 e9 e4 be
       -0.011120142 -0.13018003 -0.023532402 -0.44709376
0001b0 8f 2d 93 be c8 a6 da 3a fa 96 4d be 8b ca d3 bd
       -0.28745696 0.0016681785 -0.20077124 -0.103413664
0001c0 d8 94 11 3d 8b 73 55 3d 11 da 48 3d 9a 54 6d 3e
       0.03554234 0.052112143 0.04903609 0.23176804
0001d0 d6 bb 25 3e 6c 14 1d 3e 9d 4f 06 bf ff 24 9d 3d
       0.16184935 0.15339822 -0.5246523 0.07673072
0001e0 ff e2 bf ba 84 ff 24 3e a2 75 e0 3e 4a 03 b4 3e
       -0.0014639794 0.16113096 0.43839747 0.3515876
0001f0 15 29 ec 3d 28 56 46 be 64 3f ca 3d 58 db d1 bc
       0.11531273 -0.19368804 0.09875372 -0.025617287
000200 ce 81 9d be 66 31 3a 3f 8b e5 93 3d b5 8d 12 3e
       -0.30763096 0.72731626 0.07221516 0.1431187
000210 2b 35 8e bd 8d c4 80 3d 80 f4 dd 3c ef 8b eb be
       -0.06943735 0.06287489 0.027094126 -0.46005198
000220 a0 22 0c be 4f fc b1 3e 5b 80 2a 3d 17 f8 02 bf
       -0.13685083 0.3476281 0.041626316 -0.51159805
000230 45 a2 af be 1c b1 c2 bd f0 a9 94 bb f0 22 50 3e
       -0.3430349 -0.09506437 -0.0045368597 0.20325828
000240 a8 74 5a 3c dd 1e 7f 3d 5a 66 3e be 66 5f d2 3c
       0.013333477 0.062285293 -0.18593732 0.025680255
000250 fc 24 d1 3c e6 e1 78 3e 71 f1 88 3d b2 46 04 bd
       0.02553033 0.24304923 0.06686676 -0.032293983
000260 d8 27 11 3e da 0f 26 be e7 49 c6 3e 5f 9e c0 3e
       0.14175355 -0.16216984 0.38728258 0.37620828
000270 93 de ed bc b7 ee bf 3c f9 10 80 3d 0b cf 87 3e
       -0.029036796 0.023429258 0.06253237 0.2652515
000280 1b 6b db 3d ce b9 76 be 07 23 cb 3d 67 81 ed 3e
       0.10713788 -0.24094316 0.0991879 0.4638779
000290 ab 8f d8 3d e2 d7 5f bd 03 d1 ff bd eb 81 af 3e
       0.105742775 -0.05464924 -0.12491038 0.34278807
0002a0 2d 9a 97 3d eb f3 67 bd f2 5d 30 bd f5 a3 fe bc
       0.074024536 -0.056629103 -0.043058343 -0.03108404
0002b0 47 dc 6e 3b 24 d6 11 bd ab 36 81 be 04 38 f4 3d
       0.0036447213 -0.03560461 -0.2523702 0.11924747
0002c0 f5 d4 88 bd 86 75 f7 3e 98 c0 ca bc cb 92 a8 ba
       -0.06681243 0.4833185 -0.024750039 -0.001286113
0002d0 be 27 3e bd 8a 7e 93 3d 92 64 a9 3e e9 2b f3 38
       -0.04642462 0.0720187 0.33084542 0.00011595322
0002e0 1b 95 79 3e 4a 82 90 3e 6e 00 f9 be bd 79 a9 bd
       0.24373285 0.28224403 -0.4863314 -0.08275173
0002f0 e4 ef 6e be 50 b7 00 bf 52 c8 06 bc a2 2f e2 bb
       -0.23333699 -0.5027971 -0.008226471 -0.006902651
000300 31 5c 9e bd 40 98 cb bd a4 b3 00 bf f5 56 98 3e
       -0.07732428 -0.09941149 -0.5027411 0.29753843
000310 05 3b 13 bf 05 7d 67 be 54 53 89 3e 6c ba cf bd
       -0.5751193 -0.22606285 0.26821387 -0.10142979
000320 64 0d 1d 3e 35 c0 12 bf 62 ca 9a 3b fd 94 a8 3e
       0.1533714 -0.57324535 0.004723833 0.3292617
000330 7d 7c de bc 9c 21 00 bf fd b5 0b be 9e 1d 79 3e
       -0.02715897 -0.50051284 -0.13643642 0.24327704
000340 d7 fc f5 3e 64 84 99 bd db 44 13 bd be be b3 bd
       0.48044464 -0.07495955 -0.035954338 -0.087766156
000350 b3 54 eb bd 20 d7 ba bd d9 13 2e be 32 70 f1 bb
       -0.114907645 -0.09123063 -0.16999759 -0.007368111
000360 d1 3d 21 be c6 7e 1e 3d d8 13 cf 3e 86 f5 57 be
       -0.15746237 0.03869512 0.40444827 -0.21089754
000370 8c d7 87 bb dc 2d 2e bd 83 bf 8e bc a4 9a b1 bd
       -0.0041455682 -0.042524204 -0.017425304 -0.086720735
000380 b5 0b c5 3e e5 24 db 3e 57 33 c8 bd 8e cb 91 3e
       0.38485494 0.42801586 -0.09775417 0.28475612
000390 8a 69 40 3c 96 28 ae 3e 02 ea 95 3e 64 d2 7d 3d
       0.0117439125 0.3401534 0.29280096 0.061968222
0003a0 ea 57 a4 bd 59 01 93 3e a8 1e 5d bc cd 34 a3 3e
       -0.08024581 0.28711966 -0.013496079 0.3187622
0003b0 0e 0b 49 3e 6c 33 e2 bc 98 6a 1d 3e bc d3 82 3c
       0.19633123 -0.02761241 0.15372694 0.015970103
0003c0 ac b1 a7 bd 78 88 5e 3d 14 4d 13 b9 d6 fc 44 be
       -0.08188185 0.054329365 -0.00014047726 -0.19237074
0003d0 8e 9a 18 be 9f 4b 75 bd 0c 02 e7 3e 18 ad 79 3d
       -0.14902708 -0.05988657 0.4511875 0.06095609
0003e0 7d a1 65 3c 12 a5 9c bd 0b 1d f2 be cf e0 bc be
       0.014015553 -0.07648672 -0.47287783 -0.36890265
0003f0 1f dc 6d be fb 35 9c 3e e7 97 1f be 93 76 4a bd
       -0.23228501 0.30509934 -0.1558529 -0.049429487

net.2.bias f4 [2]
000000 dd b7 ab 3d 32 47 8b bd
       0.083846785 -0.06800689
