Teaching Content/L4T4 - Pytorch/cartpole demo/checkpoints/policy_ep0100.pth (torch, 5824 bytes, 4 tensors)

net.0.weight f4 [128, 4]
00000000: a68c 093f e2e1 adbe 851f 0ebf 7c5c 08bf
00000010: 181e 24bd 4879 0abd 52fb 123f 95ad 0e3f
00000020: d3eb 273e de9c 6ebe 5b70 53be 3e3e bb3d
00000030: 7ea4 d9be 5c1a a1be 68ad 3c3f a3b3 b73e
00000040: c1a2 383d 1e57 4a3e 7d99 a9be 0792 ea3e
00000050: a510 013f c627 b5be b31c 493c 1dd2 aa3e
00000060: ac3b e93d 3841 81be 7013 5b3d 9c10 443e
00000070: d9ee a73e c6b3 42be e475 1bbf 59ff f1be
00000080: f31f d3be e37c 87be 5b7b 78be f00e b3be
00000090: 53e7 9a3e 2de7 c3bd a451 cb3e 6eec e13e
000000a0: b2b9 8f3d 621e 183f 23d5 17be de7b 85bc
000000b0: 5c36 153e 39f3 55bd 8889 23bf 0e1c e8be
000000c0: 1514 ed3e 2c13 51be 0910 11bf 81f3 cdbe
000000d0: 3230 0e3f 0d44 0f3f 2c01 31bf 8694 71be
000000e0: d77d b23e f5da 9c3e d83e 853e 2f37 a13e
000000f0: 1eb1 f63e a64c 04be 2f25 d53e c872 653e
00000100: a86d 2a3e a1cf f53e 2f19 0dbf a7bf 8d3e
00000110: b6dc 843d 99a8 fd3e 1525 8a3e 8726 55be
00000120: 9e07 1cbf 3a0d 93be ff70 933e e7c5 a9bd
00000130: fe85 d93d a7ad b93d c14c d23e f979 943e
00000140: 12e3 2dbd 1236 c0bd 578c 9fbe c15e 19bd
00000150: 3fec f7bd 4687 80be 7616 f43e b595 d73e
00000160: 7953 943d 8e9c a2be 2b7f debe 820d cc3e
00000170: 82a7 fc3e ec5e f0be 08a2 1bbe 745c 16be
00000180: 4441 1cbf 0be0 823d 3be0 00be 09f0 f83e
00000190: 32e6 7b3d 511f 1bbe a216 5e3e e440 b4bd
000001a0: 4189 3e3d 5e5a 1f3e abf6 ae3e 0982 a93e
000001b0: e92c ddbd 050d 55be 7d00 ef3e 7aa7 e83e
000001c0: f78e 7f3e 312c 373e d14c 2a3e 1b4c 96be
000001d0: 79b4 873e 6746 683d f7e8 d83d 7f85 523d
000001e0: 1c79 253e da31 953e 91d3 8abc a622 133e
000001f0: c53c e83e aed6 9bbe 6d92 583c 5a36 233f
00000200: 1561 df3e 95f3 fbbe 18a9 203e be5d 0d3d
00000210: c005 7b3d 8b86 f33e 2d65 3dbf b622 33bf
00000220: 268d f13e 7fe5 84be 6d49 ab3e 5de9 483e
00000230: f958 92bc 19ec a33e 5d6f 063f 1f1a 263f
00000240: 881a 16be c6e8 55be b92f f83d 59c0 b83e
00000250: 77f0 e33e d901 ed3e 8fa3 083f 48bd 97be
00000260: 112d e33e 5dfa 9d3e 3ec9 8cbe 1109 f0be
00000270: 23be 4f3e e4ca b43e be6f 693e 00cc 453f
00000280: 5ef2 82be bbe8 3fbe ca84 533e 834c 693e
00000290: d6ba f83c c204 1a3f 78fb c0be ba89 dbbd
000002a0: f6b1 8c3e 9d08 75bd 4a2e 973e 0ce1 5b3d
000002b0: 846b 0cbf 129c 3b3d c2e2 e1bc b611 1c3e
000002c0: 147b e33e 8f02 9fbe 98b6 6e3e 7b66 cb3d
000002d0: 001c 5e3e 64f4 b4be 8ee2 9ebe 0866 e13e
000002e0: 2a00 6dbe 1c8f 12be 8ccf 58bd cd06 9ebc
000002f0: 82d9 d2be be17 e4bc 8c46 943e 1c2b 843e
00000300: 20a4 d4bd 792f de3e 12d2 2c3d 2990 a2bc
00000310: b766 68be d886 153c 42f0 46be 62f3 103f
00000320: 8be9 383d 6547 553e d86e d23e 349f 96be
00000330: ab34 a13e 4b0c 973e 536c b43e 3b90 30bd
00000340: 2789 ef3c 5ebe 533e e6bf 07be 27db 53bd
00000350: bb0a 9cbe 94f9 ca3e 7bfe e53e 2978 0ebe
00000360: adac 3e3d 822e 593e 8bca 4abd 9bc6 9d3e
00000370: 8173 4ebe 268f f5bd a365 363d 4429 9cbd
00000380: 279d 943d 7a35 03be fb73 033f 0723 193e
00000390: 829c 943d 6b30 d4be 0a59 343e d4a0 0c3f
000003a0: a134 723c d9bf 54bd 7dce a9be 0c55 b6be
000003b0: 502d 8bbc 028b 4a3e 7b46 87be bfe9 aebe
000003c0: 6aa3 0f3f 806c 793d 595f a3be e1c0 19bf
000003d0: 165f 94be 2baa eebe 21bf b33d 4090 ecbe
000003e0: 65f3 b8be 6995 293d 7ed4 e43c f5f3 e73d
000003f0: 534b 333e d362 443e f82b 7b3e 770b a2be
0.5373024 -0.33961397 -0.55516845 -0.5326612 -0.040067762 -0.03380707 0.57414734 0.55733615
0.16398554 -0.23302028 -0.20648329 0.09142731 -0.4250831 -0.31465423 0.73702097 0.3587924
0.04507709 0.19759795 -0.33124915 0.45814535 0.5041602 -0.35381907 0.012274909 0.3336343
0.11388335 -0.2524507 0.053485334 0.19146961 0.32799414 -0.1901389 -0.6072676 -0.47265127
-0.41235313 -0.26462469 -0.24265806 -0.34972334 0.3025461 -0.09565578 0.39710724 0.44125694
0.070178404 0.5942136 -0.14827399 -0.016294416 0.14571518 -0.05223391 -0.6388173 -0.45333904
0.46304384 -0.2041747 -0.5666509 -0.4022484 0.5554229 0.5596321 -0.69142413 -0.23591813
0.34861633 0.306358 0.26024508 0.31487414 0.48182005 -0.12919864 0.4162993 0.22407067
0.16643393 0.4800997 -0.5511655 0.27685282 0.0648741 0.49542692 0.26981416 -0.20815478
-0.6094912 -0.2872103 0.28797147 -0.082897 0.1062126 0.09066325 0.41074184 0.28999308
-0.04245288 -0.09385313 -0.31161758 -0.03744388 -0.12105607 -0.25103205 0.47673386 0.42106405
0.07242484 -0.31760067 -0.43456396 0.39854056 0.49346548 -0.4694742 -0.15198529 -0.14683706
-0.6103709 0.06390389 -0.12585537 0.48620632 0.06149883 -0.15148665 0.21688321 -0.088014394
0.046517614 0.15561816 0.34172568 0.3310702 -0.107995816 -0.20805748 0.4668006 0.45440274
0.2495688 0.17887951 0.16630866 -0.2935494 0.26504877 0.056707766 0.105913095 0.051396843
0.16159481 0.29139596 -0.016946586 0.14368686 0.45358863 -0.30437225 0.013218504 0.6375481
0.43628755 -0.49209276 0.15689504 0.034513228 0.06128478 0.47563586 -0.73982507 -0.6997484
0.47178 -0.25956342 0.33454457 0.19620271 -0.017864691 0.32016066 0.52513677 0.6488361
-0.14658558 -0.20889577 0.121184774 0.3608425 0.44519398 0.46290472 0.5337457 -0.29636598
0.4437032 0.30855075 -0.27497286 -0.46881917 0.20287375 0.35311043 0.22796533 0.77264404
-0.25575536 -0.18741123 0.20656124 0.22783093 0.030362528 0.6016351 -0.37691855 -0.10719629
0.27479523 -0.059822667 0.29527503 0.05368142 -0.54851556 0.045803137 -0.027573947 0.15241131
0.4442984 -0.3105664 0.23311841 0.09931656 0.21690369 -0.35342705 -0.31032223 0.44023156
-0.23144594 -0.14312404 -0.052932307 -0.019290352 -0.4118157 -0.027843352 0.28960073 0.2581414
-0.10382867 0.43395594 0.042192526 -0.019844132 -0.22695433 0.009126388 -0.19427589 0.5662137
0.0451446 0.20828016 0.41100192 -0.29418337 0.31485495 0.29501566 0.35238895 -0.0431063
0.029240204 0.20678088 -0.13256797 -0.05172267 -0.30476937 0.39643538 0.44920716 -0.13913025
0.046551395 0.21209148 -0.049509566 0.30815586 -0.20161249 -0.11990194 0.044530522 -0.07625058
0.07256537 -0.12813368 0.5134885 0.14954768 0.07256414 -0.4144319 0.1761209 0.54932904
0.0147830555 -0.051940773 -0.3316535 -0.3561176 -0.01698938 0.1977959 -0.2642096 -0.3416271
0.56108725 0.06089449 -0.31908682 -0.60059935 -0.28978795 -0.46614203 0.08776689 -0.46203804
-0.36123195 0.041402254 0.027933355 0.11325828 0.17509203 0.19178323 0.24528491 -0.31649372

net.0.bias f4 [128]
00000000: 3422 5b3e d1c9 c3bd eb26 cabe c991 d63e
00000010: 713d e7be 7c20 99bd 8314 1f3e afd7 d43d
00000020: 8fe6 e0be 5215 cbbc 5b39 df3e aa0f f93d
00000030: 47a1 933e 1cbf a83d 58a2 97be 49e9 0abd
00000040: 619f 743e 68b6 29bd 0567 9e3d 7aa6 bebe
00000050: 12ea 91be 4894 a43e 3584 00bf 9694 fcbe
00000060: 42d1 8d3e 89a1 2cbd 398d e33d ba77 833d
00000070: 1301 803e 21bf 07bf f623 533e c1a0 ab3d
00000080: 7cef e7be 16a5 f43e 59f4 51be 96d8 833e
00000090: 5642 f13c 77b5 fabe a211 a7bd 8376 9c3e
000000a0: 225c 8d3e a57f 2e3e 2243 59bc 03e5 a03d
000000b0: 807b 163d add8 0bbf 9b89 9d3d 36ce 0a3e
000000c0: 9a72 99be 94e7 d53d a235 19be 6225 4ebe
000000d0: 4d6e fabe f5a3 d7be 90ad 94b9 25a4 86be
000000e0: 54df d33d e723 e5be d744 913d 6028 b0be
000000f0: 3b04 9a3e f929 c63d b46b febe 351b 54bd
00000100: 6a76 dcbe 91a1 a73d 3208 5e3d 6c64 503e
00000110: 41b9 813e df7c d13e ff0d 5e3e a1dc 9f3c
00000120: 5abe 183e 035a 59bd f6aa 90be b298 bc3e
00000130: a3f7 96be 47f2 793e 6a84 e4bd bd68 a23e
00000140: ecb9 713e c05a f6be 026c 793e 86bd abbe
00000150: a265 08be 35ff b13d 49a9 2cbe 6e47 aabd
00000160: 4a1d 9a3d 9b26 81be abcb 80bc 28ee 2b3e
00000170: ada4 1a3c 1c77 3bbe a458 6cbd 63c2 05bf
00000180: 1d9f 993d 97f9 0c3e 936b f93c ea9f 6fbe
00000190: e69b 0bbe 512f d23e bf69 a13e 0c8e 82be
000001a0: e49f 9fbe 0340 923e 3f1a 10bf deb7 423c
000001b0: 08a9 fb3d d7e4 2fbe 2783 80be 0f0e 25be
000001c0: cfd8 97be 1e14 99be c2a8 a7bd 6e7a 103e
000001d0: be86 7fbe a464 4bbd 4144 9a3d 400d 0fbe
000001e0: dbf8 7a3e 83d9 ac3d 54c2 5d3e ae37 72bd
000001f0: 5e08 aabd 191f a73e 6491 ab3e 8db2 a5be
0.21399766 -0.09559978 -0.39482817 0.419081 -0.45164064 -0.07476899 0.15535168 0.10392701
-0.43925902 -0.02479044 0.43598446 0.12161191 0.28833982 0.08239576 -0.29616046 -0.033913884
0.23888923 -0.04143372 0.07734493 -0.37236387 -0.28498894 0.3214438 -0.5020173 -0.49332112
0.27698714 -0.04214624 0.111109205 0.064193204 0.2500082 -0.53026015 0.20619187 0.08380271
-0.452999 0.477822 -0.20503367 0.2575118 0.029450577 -0.48966572 -0.0815766 0.30559167
0.27609354 0.1704088 -0.013260635 0.078561805 0.036738873 -0.54627496 0.07692262 0.13555226
-0.29970247 0.10444561 -0.14961866 -0.20131448 -0.48912278 -0.42117277 -0.00028358074 -0.26297107
0.10345331 -0.44753954 0.07093208 -0.34405804 0.30081353 0.096759744 -0.49691546 -0.05178376
-0.43059093 0.08185113 0.054207034 0.20350808 0.2533665 0.40915582 0.21685027 0.019514384
0.14916363 -0.053064357 -0.28255433 0.36835247 -0.29485807 0.24408828 -0.111580685 0.31720534
0.2360608 -0.48116112 0.24357608 -0.33543032 -0.1332002 0.08691255 -0.16861452 -0.083144054
0.07525118 -0.25224766 -0.015722116 0.16790068 0.009438676 -0.18307155 -0.05770172 -0.52249736
0.075010516 0.13767086 0.030446803 -0.23400846 -0.1363369 0.41051725 0.3152599 -0.25498998
-0.31176674 0.28564462 -0.5629005 0.011884658 0.122880995 -0.17177139 -0.2510006 -0.16118644
-0.296576 -0.2989816 -0.08186485 0.14109203 -0.24953744 -0.049656525 0.0753255 -0.13969898
0.24508993 0.084399246 0.21656162 -0.05913513 -0.08302377 0.32640913 0.33509362 -0.32362786

net.2.weight f4 [2, 128]
00000000: 36fa 863e 08a0 edbd 73c9 1c3e 07cd 33be
00000010: 2531 183e 0811 8439 d977 08bb 1525 303e
00000020: 898c dbbd 0c08 47be e4c8 5c3d 7ace 8a3d
00000030: 3972 1f3e 699b ae3d 8798 d13d 3766 acbc
00000040: 8f9d d5bc 1f7e 053e e057 6cb9 d8f9 2a3d
00000050: 8a38 04bd b96c 89bd 1403 793c f9b9 b4bd
00000060: bba0 28be c18e 32bc 62f3 87bd 33fe 36be
00000070: d3c2 ca3c 0793 97bd ce57 66bd e9bc 0fbe
00000080: 4667 db3d 1172 583e 81d5 a6bd 8a9f 0dbe
00000090: 2106 2dbd c059 943d 4bbe 993d 0e38 24be
000000a0: 9a21 d5bd 8019 fe3d 2650 9ebd 1228 8bbd
000000b0: 0010 1f36 8c84 8cbc 57a5 03bd cae3 0fbd
000000c0: 6fbe eb3c 979a 0dbd 9d5f 013d da8b a13d
000000d0: 6d92 a43b 0bdd af3c 3819 47bc 1d6b 2fbd
000000e0: 0f74 c1bd dc98 05bd 3f10 e83d e3c0 493c
000000f0: e337 0b3e 9727 d33d 7d14 4abc 3cd6 0b3e
00000100: 48d1 9d3d 088b 573d 43dc 933d c30e c5bd
00000110: f5d3 813e 02c5 093e 812e 41be 4981 2a3e
00000120: b4a2 173d 6595 3b3e a8cc 053d 82a8 f9bc
00000130: 5fab eebd 5ab8 323e 9529 213e f784 2dbe
00000140: 137f 1dbe 917e 86bd 92ab 9d3c 80c5 ebbd
00000150: 0cef 8c3d 0f0f 343e 16c9 2e3d b5d0 783c
00000160: cf74 803d d21a 173e 49df 76bc 3f5e 023e
00000170: 1209 993d a809 283d ec76 35bd e885 4bbd
00000180: 88b7 c4bd 4309 3fbe bc18 4d3e ae64 ddbd
00000190: 1353 e03c 79cd 8dbd ce2b b3bd 732b 5c3d
000001a0: e69e 16bd 2bb6 55bd 8e1f f43a 1650 26be
000001b0: 618f 2abe 2a64 ec3c e848 38bd 5831 e4bd
000001c0: 1a0c 1c3e c69a b73d e140 053d 14dd 503e
000001d0: 252f 773e c416 323e e8be 24be 390e af3d
000001e0: 1d22 1dbd a309 1e3e d7e1 cc3d 7ee0 d53c
000001f0: d28b 8ebd 6c92 1fbc c4b7 863d 37ee 00bb
00000200: 817f 1bbe 8daf 3c3e 2799 dabc 30c1 113e
00000210: 0bd9 0ebe 2bf9 e63c 4a91 a73c e92e 3ebe
00000220: 9bcb c03d 796c 6a3d 0c45 34bd cd68 13be
00000230: 1bad 29be 4d59 4bbe c600 b6bd 7a1b a23d
00000240: e0fe 46ba ca85 2e3c 7f1d 873d ec36 673d
00000250: 20a5 d03c 79b2 2b3e a14d f83c a300 adbc
00000260: 9138 1a3e db1d ac3c 6639 923d 0dc4 903d
00000270: 4275 4abd 7484 ffbc 83d8 b6bc 248d e53d
00000280: 3a9b 5e3b c2a9 abbd 3bf2 743d daf9 243e
00000290: 9b43 403d 2a3d dcbd bf16 13be c1b4 7a3d
000002a0: 9220 1abc 6fd0 02be c64f cebc 4d44 9d3d
000002b0: ee9c 27bd aed9 833b 4a6b 1e3c 6c0b 163e
000002c0: 3b4b fdbd 0190 463e 9f24 59bd 1820 1bbd
000002d0: b577 a3bd c82f 9abd 6164 873d ad68 303d
000002e0: 6c25 7b3d be07 a83d 350d 02be c196 c3bd
000002f0: d0c3 61be 9cc9 e2bc 747c 8d3d 5efb c9bd
00000300: 98c2 efbd 265f 52be 36b9 bdbd 936c a33d
00000310: 35b0 debd 1ce2 b3bd 7481 bc3d 95d8 f2bd
00000320: eaf4 e13d 4507 8fbd 28ab 9abc 7640 0d3e
00000330: 8c19 4f3e a932 07be 7e57 3dbe c4b9 de3d
00000340: 5aa8 3b3e 2ac1 bfbd 4f6b 6bbd 93b9 013e
00000350: 8d14 3dbe 92cd 47be 1459 fabc c7f7 dc3c
00000360: 44ae 33be f789 d1bc 6df1 b33d eb88 44be
00000370: 2418 28bd 5bd4 90bd 0d33 48bd 7b8c 92bd
00000380: e9e8 213e 0744 383e 7ce6 08be 4d97 ab3d
00000390: 7609 85bd 1bde 343e 1508 203d c895 443c
000003a0: 409d 5fbd 4b22 563e 2b4c 1fbd e09a 0b3d
000003b0: b07e 9a3d 9176 60bd ec89 06bb df6e c43c
000003c0: b87f 4bbe 018d 893c be0b 863c 4085 28be
000003d0: e20d 6abe 8daa a4bd 2609 b33d bbda 553d
000003e0: 698b 503d 48b9 8ebd b2bf 09be 60dc 31bd
000003f0: ab06 42bd d91d f83d 27a8 fbbd afaa 95bd
0.2636277 -0.11602789 0.15311222 -0.1755868 0.14862497 0.0002518969 -0.0020823388 0.17201646
-0.10720164 -0.19436663 0.05390252 0.067776635 0.15570916 0.08525736 0.102341704 -0.021044834
-0.026076106 0.13036393 -0.0002253945 0.041742176 -0.032280482 -0.0671019 0.015198488 -0.08824534
-0.16467564 -0.010898293 -0.066382185 -0.17870407 0.024751103 -0.0740109 -0.05623608 -0.14036907
0.10713057 0.21137263 -0.081461914 -0.1383039 -0.042242173 0.07243681 0.07506999 -0.16037008
-0.104067996 0.124072075 -0.07730131 -0.06794752 2.370216e-06 -0.017153047 -0.032140102 -0.035129346
0.02877733 -0.034571256 0.031585325 0.07888003 0.005022338 0.021467706 -0.012152009 -0.04282676
-0.094459645 -0.03261648 0.11331224 0.012314054 0.13595538 0.103102855 -0.012333986 0.13655943
0.07705933 0.052622825 0.07219746 -0.09621956 0.25357023 0.13454059 -0.18865396 0.16650881
0.0370204 0.18318708 0.03266588 -0.030475859 -0.1165378 0.17453137 0.15738519 -0.16945253
-0.15380506 -0.065671094 0.01924685 -0.115122795 0.06881532 0.1758387 0.04267224 0.015186478
0.062722795 0.14756325 -0.015067884 0.12731265 0.07472433 0.041024834 -0.044302866 -0.04968825
-0.09605318 -0.18655877 0.20028967 -0.10810219 0.027383363 -0.069239564 -0.087485895 0.053752374
-0.03677263 -0.052175682 0.0018625127 -0.16241488 -0.16656257 0.028856356 -0.044991404 -0.11142224
0.15238991 0.089650676 0.032532576 0.20396835 0.24139078 0.17391497 -0.1608845 0.08547635
-0.03836261 0.15433364 0.10004013 0.026108023 -0.06960262 -0.0097395 0.06578019 -0.0019673237
-0.15185358 0.18426342 -0.026684357 0.14233851 -0.13949983 0.028194984 0.020455021 -0.18572582
0.09413835 0.057232354 -0.04401116 -0.14395447 -0.16569941 -0.19858284 -0.08886866 0.07915397
-0.000759108 0.010652015 0.06597423 0.056448862 0.025469363 0.167673 0.030310454 -0.021118468
0.15060641 0.02101033 0.07139854 0.07068644 -0.049428232 -0.031191088 -0.022320038 0.11208561
0.0033967034 -0.08381988 0.05980132 0.16110936 0.046939474 -0.107538536 -0.14364146 0.061207537
-0.009407179 -0.12774824 -0.025184523 0.07679043 -0.040921144 0.004023752 0.009669134 0.14652795
-0.12367865 0.1939087 -0.05301344 -0.037872404 -0.07981817 -0.07528645 0.06610943 0.043068577
0.061314985 0.08204602 -0.1270035 -0.095502384 -0.22047353 -0.027684025 0.06908503 -0.098623976
-0.11707038 -0.20544109 -0.09263842 0.07979693 -0.108734526 -0.08783361 0.09204379 -0.11857716
0.11033042 -0.069838084 -0.018880442 0.13794121 0.20224589 -0.13202919 -0.18490407 0.10875276
0.1832594 -0.09363015 -0.057475384 0.12668447 -0.18464871 -0.19512013 -0.030560054 0.026973618
-0.17546946 -0.025578482 0.08786283 -0.19192855 -0.041038647 -0.070717536 -0.04887681 -0.07155701
0.15811504 0.179947 -0.13369173 0.08378468 -0.06495945 0.17662852 0.039070208 0.011998601
-0.054593325 0.20911519 -0.038891 0.034083247 0.07543695 -0.054800574 -0.0020528985 0.023978649
-0.1987294 0.016790869 0.016363021 -0.16457081 -0.22856858 -0.080403425 0.08741979 0.05221055
0.050914202 -0.06968933 -0.13452032 -0.043423057 -0.04736964 0.12115068 -0.12287932 -0.07307946

net.2.bias f4 [2]
00000000: b66e 3e3c 5c2d 8a3b
0.011623075 0.004216833
