Teaching Content/L4T4 - Pytorch/cartpole demo/checkpoints/policy_ep0250.pth (torch, 5824 bytes, 4 tensors)

net.0.weight f4 [128, 4]
00000000: d302 b83e d3ea a3be 8229 60bf 3b08 5fbf
00000010: 8543 603e 892e 193e 52a6 843f 3380 713f
00000020: e6a8 38be e335 9abe 0a7c 703d 6656 6e3e
00000030: c0c6 38bb b4df 80bd f987 823f 143b 153f
00000040: 24bb 72bd 112a d93d 0574 c9be 1acc e13e
00000050: 5d04 503e 72ce bfbe eb19 bdbc 667c 723e
00000060: 019f 1a3d 324b 8fbe 1a1d 61bd 4b00 6e3d
00000070: 5085 893d 9ceb 87be c91e 8dbf 6d14 5dbf
00000080: 8fce 5bbe 6e12 dbbd 49e8 03be 56a9 9ebe
00000090: e75c b13e 66f2 f5bc 3601 523f 422e 533f
000000a0: 3598 72be b0e5 c63e 4306 bcbe ab56 05be
000000b0: 7e6b 94bd 822e 3abd 20bb 8bbf 6c25 5abf
000000c0: 492e 433e c10b 9cbe 8597 7dbf bcb2 42bf
000000d0: 6233 9d3e 31ec be3e 7eef 75bf e6cf ffbe
000000e0: 76d9 bb3e 5984 6d3e b01a 343e 0028 9f3e
000000f0: 4ca3 ff3e a362 dbbd 2f94 533f 5786 013f
00000100: 309f 043e d704 883e ef77 6bbe 6670 163f
00000110: c1c6 9ebd 0054 5f3e f9b9 583e d1ae 8ebe
00000120: eaf4 4cbf 1966 86be 58b7 2e3e 4c90 1abe
00000130: eb29 d7bc 549c 30bd 82f6 a33e 3e99 843e
00000140: d2bb d93a bca7 1abd 22e9 89be 29cd acbc
00000150: 9fa4 523e 0d7a 6fbd 09c4 4c3f 8522 293f
00000160: 671b 6abd f51b 1cbe f602 04bf 7445 963e
00000170: 90ae 953e feb9 edbe 9ef1 6ebe e7ce c2be
00000180: 0e16 c0be a5b9 7f3e a4e3 0e3e c1ec 2d3f
00000190: 14ef 25bd 600d 52be 2f06 d93e 0236 1bbd
000001a0: 05e5 543e 75df ed3d fb28 583f 052c 5d3f
000001b0: e7a5 8d3e dc03 b03d a57f 6a3f 216a 473f
000001c0: 4225 f3bc d8e0 d239 f2cf 46bd 264a e3be
000001d0: 907a 573e d1cd 083b b918 523d 1d3f 53bb
000001e0: 2fa3 203e 18f4 013e e4d3 da3e f453 f83e
000001f0: 6b4c 053f 57e9 7bbe d2a3 9a3e 5703 713f
00000200: 382e 203f 7ed7 d3be df30 9e3e 9fee b73d
00000210: 73fb 38be 1937 a63e 67ce 9cbf e3bd 84bf
00000220: de34 d63e d33e bebe 19c8 bc3e 9595 473e
00000230: 3001 fe3d 8fba b03e b1a2 803f 231e 8f3f
00000240: b02c 8dbd 645e 333d beaf 343e 4af2 b43e
00000250: 0a89 8f3e d7dd 653e 964d b73e a282 82be
00000260: 6aad 213e 3af5 923d 5b12 1ebf ba41 40bf
00000270: 7382 b03e c0b3 de3e 2989 393f 0bd4 983f
00000280: 870f cfbd 9564 d6bd 249c 683e 41a5 8b3e
00000290: 8438 f0bd 4888 ed3e ac67 2bbf 6e35 a0be
000002a0: 480b 093e e398 1fbe 9877 053f 1bad 213e
000002b0: b9a9 c7be 662c 243e ead3 76bd 5a61 513e
000002c0: 26b8 5b3e bf70 f6be 8012 1f3c 9517 96bd
000002d0: 29db fcbb af24 8ebe 0214 c6be a237 b33e
000002e0: 3e20 9abe b620 f3bd e634 8ebd 7111 b7bd
000002f0: 6a8a 2dbe a8d8 0a3e 21f1 ec3e bbac c93e
00000300: 89aa a0be c1ff 6b3e 1bf4 95bd 7870 89bd
00000310: 3f96 203e 11f8 493e 5643 8f3e 741b 813f
00000320: 0557 47be 8fd8 f93d 07c3 973e 6ea5 c5be
00000330: 240e 963d 766a cc3d 23cc b93e f968 3cbd
00000340: 0a3b 32bd 3fe2 083e 1509 61be e471 a9bd
00000350: f92e 01bf 0d9b 273e dc7f a53e 1c85 aebd
00000360: 5c47 263e a2c8 2b3e 906f df3e 4706 613f
00000370: 7a2a 8ebd 9b72 513b 4e28 203e fbf2 993c
00000380: e94b 9b3e 9b95 9abc c96d 653f fabf 013f
00000390: ee0d db3e 759e a8be 5f10 4b3e 5ec7 2a3f
000003a0: a22c 2fbe e899 da3b a89e 20bf a462 3abf
000003b0: 84dc 39be 4468 d03d 0df7 f1bd 3377 8abe
000003c0: d859 bc3e 82de 1ebd 5727 2abf bc55 68bf
000003d0: 4da1 e7be a11c 19bf 6382 0ebe 50a3 25bf
000003e0: 5a65 abbe 3346 0b3e 2f97 1bbe 2a95 793d
000003f0: 4bc2 013d f9b6 9ebb fe16 643d dca8 debe
0.35939655 -0.32015094 -0.87563336 -0.87121934 0.21900757 0.14959158 1.0363257 0.9433624
-0.1803318 -0.30119237 0.058712043 0.23275146 -0.0028194636 -0.06292668 1.0197746 0.5829327
-0.059260502 0.10603727 -0.39346328 0.4410103 0.20314164 -0.37462193 -0.023083648 0.23680267
0.037749294 -0.27987057 -0.054959394 0.05810575 0.067148805 -0.26546943 -1.102502 -0.8635929
-0.21465515 -0.106968746 -0.12881579 -0.30988568 0.3464119 -0.030022811 0.820331 0.8249246
-0.23690875 0.38847113 -0.36723527 -0.13021342 -0.07247065 -0.04545451 -1.0916481 -0.8521335
0.19060625 -0.30477718 -0.99059325 -0.76053977 0.30703264 0.37289575 -0.9606856 -0.499633
0.36689347 0.23195018 0.17588305 0.31085205 0.49929273 -0.10712173 0.82647985 0.5059561
0.1295135 0.26566193 -0.2299497 0.58765256 -0.07752753 0.21809387 0.21164693 -0.2786775
-0.8006121 -0.2624977 0.17062128 -0.15094107 -0.026265105 -0.043117836 0.32024008 0.25898165
0.0016611761 -0.03775762 -0.2693568 -0.021093922 0.2057061 -0.058466006 0.79986626 0.660683
-0.05715504 -0.1524504 -0.5156702 0.29349864 0.29234743 -0.46430963 -0.23334357 -0.3804848
-0.37516826 0.24973162 0.13954026 0.6793938 -0.040511206 -0.20512915 0.4238753 -0.037893303
0.20790489 0.11614887 0.8443753 0.86395293 0.27665636 0.08594486 0.9160102 0.77896315
-0.029680852 0.00040221843 -0.048538156 -0.44392508 0.21042848 0.002087463 0.05129311 -0.0032233663
0.1568725 0.1269077 0.42739785 0.4850155 0.5206973 -0.24600731 0.3020311 0.9414572
0.62570524 -0.41375345 0.3089666 0.0898106 -0.1806467 0.3246391 -1.2250489 -1.0370449
0.4183721 -0.37157306 0.36871412 0.19490655 0.1240257 0.34517333 1.004965 1.1181072
-0.06893289 0.04379119 0.17645165 0.35341102 0.2803424 0.22447906 0.3580138 -0.2549029
0.15788808 0.071756795 -0.6174676 -0.7510029 0.34474525 0.43496513 0.72474915 1.193971
-0.101103835 -0.10468403 0.22715813 0.27274516 -0.117295295 0.46393037 -0.66955066 -0.31290764
0.1338321 -0.15585665 0.5213561 0.15788691 -0.38996676 0.16032562 -0.06026069 0.20447293
0.21456966 -0.48132893 0.009709001 -0.07328717 -0.0077165556 -0.27762362 -0.3868714 0.35003382
-0.30102724 -0.118714735 -0.06943683 -0.089388736 -0.16947332 0.1355921 0.46277717 0.39389595
-0.31380108 0.23046781 -0.0732195 -0.06710905 0.15682314 0.19723536 0.2798106 1.0086503
-0.19466789 0.121995084 0.29640982 -0.38602775 0.07326916 0.09981243 0.36288556 -0.045998547
-0.043513335 0.13367556 -0.21976121 -0.08273676 -0.504623 0.16367741 0.3232411 -0.08521482
0.16238159 0.16775754 0.43639803 0.87900203 -0.069416955 0.003195918 0.15640375 0.01879262
0.30331352 -0.018870166 0.89620644 0.5068356 0.42784065 -0.32933393 0.19830464 0.6671046
-0.1710687 0.006671179 -0.6274209 -0.72806764 -0.18150526 0.10176137 -0.11814699 -0.27044067
0.36787295 -0.03878642 -0.6646628 -0.9075582 -0.4524025 -0.5980931 -0.13916926 -0.6470232
-0.33475763 0.13600998 -0.1519439 0.06093327 0.031679433 -0.0048435894 0.05568599 -0.43488204

net.0.bias f4 [128]
00000000: 8735 d73e 62ea d4bc fd82 b3be b925 9a3e
00000010: 5530 03bf d76e b8be deac 3fbe 33e7 b43e
00000020: cfd6 13bf 0aa6 81bc dc61 ce3e 7a5f f03e
00000030: d04c e03e 5b5e 713d 7412 c5be 7b2f 3fbe
00000040: 1619 71bd ce79 5bbe da35 2f3e da15 fabe
00000050: c1bd a0be 68a4 113e ab14 27bf b310 35bf
00000060: e41f 023e b12e c3bd c35a 66bd 685c d9bd
00000070: 328f 3a3e b4ba 15bf a037 1abd bcb0 8e3c
00000080: 4c23 e9be facb 1c3f 5dbb b9be fba7 fb3d
00000090: 8ebd c5bd a55e 36bf 2908 85be e097 1e3e
000000a0: fe50 a83d 86da 493e a8f8 16be 1355 003e
000000b0: d2f9 97be e8fc 28bf 6b94 753e 07a4 643a
000000c0: 5d31 07bf 04d8 babd 30dc 84be 6fb2 b8be
000000d0: ddd9 10bf 691a 01bf c046 07be b138 bfbe
000000e0: aa2d f8bd 43e2 dcbe 55cf e53e 4695 ddbe
000000f0: 6a72 af3e 4ff9 eb3e 83a5 08bf de8e 11be
00000100: 97c6 11bf 1eac 4c3d e2f4 af3e 9d57 4e3c
00000110: 47ef 173f b310 133f 5e53 063d 4a79 d83c
00000120: d705 5cbe fcbb 9e3e c7f6 8abe c0b0 4c3e
00000130: 7c9a d9be 5a13 0f3f 04f3 47bd d32b f43d
00000140: 4a8b 003e c186 05bf ad6a 49bc 968d 01bf
00000150: b506 abbe fb54 033e 2bed 42be 337f 85be
00000160: 799b f53d c577 eebe 42d8 bebd 46d0 363e
00000170: 7cdf 1fbe 2f55 b7be 0e58 1dbe fb81 04bf
00000180: 2f86 19bd 5841 b6bc 7397 853c 1ac2 54be
00000190: 5040 86be 3338 513e facf 9b3d 2d55 adbe
000001a0: e9ef cdbe d7ca 0a3e 53ac 20bf 6dcd efbd
000001b0: fd80 76bb ddaa 6dbe db4e 09be df50 bfbd
000001c0: 8c5b efbe bca4 a0be e002 55be 24dd 2b3e
000001d0: 5196 b7be 2463 0e3d 2cda 31bd 7594 9bbe
000001e0: d9c5 4e3e 3953 303e 5978 d93e ae46 173e
000001f0: fe98 92bd c8a4 0a3e d60b ae3e 03d5 11bf
0.42033026 -0.025990669 -0.35060874 0.30106905 -0.51245624 -0.36022064 -0.18718287 0.3533264
-0.57749647 -0.015826244 0.40309036 0.46947843 0.43808603 0.058927875 -0.3849064 -0.18670456
-0.058861814 -0.21433184 0.17110386 -0.48844796 -0.3139477 0.14222872 -0.6526591 -0.70728606
0.12707478 -0.0953039 -0.0562389 -0.10613328 0.18218687 -0.5848801 -0.037650704 0.017418258
-0.45534742 0.61248744 -0.3627576 0.12287899 -0.09655295 -0.71238166 -0.25982788 0.15487623
0.08218573 0.19712266 -0.14743292 0.12532453 -0.29682785 -0.66010904 0.23982398 0.0008721952
-0.528097 -0.09123233 -0.2594924 -0.36073634 -0.56582433 -0.50430924 -0.13210583 -0.3734794
-0.12118085 -0.43141374 0.44884744 -0.4327795 0.34266979 0.46088645 -0.5337755 -0.14214656
-0.5694365 0.04996883 0.34366518 0.012594131 0.59349483 0.57447356 0.03279435 0.026425023
-0.21486603 0.31002796 -0.271414 0.199893 -0.42500675 0.55888903 -0.048815742 0.11922421
0.12553135 -0.52158743 -0.0122935 -0.5060667 -0.33403555 0.12825386 -0.19035785 -0.26073608
0.11992545 -0.46575752 -0.09318592 0.17852888 -0.15612596 -0.35807177 -0.15365621 -0.51760834
-0.037481483 -0.022247955 0.016307568 -0.20777169 -0.26220942 0.20431595 0.07608028 -0.33854046
-0.402221 0.1355394 -0.62762946 -0.11709104 -0.0037613504 -0.2320971 -0.13408987 -0.09341597
-0.46749532 -0.31375682 -0.20801878 0.16783577 -0.3585687 0.034762517 -0.043420956 -0.303867
0.2019266 0.17219247 0.4247463 0.14773056 -0.07158087 0.13539422 0.33993405 -0.56965655

net.2.weight f4 [2, 128]
00000000: 9930 c33e e433 e4be dd4e e13d b0c7 83bd
00000010: f0e5 a03d b8f4 bcbd ec53 9cbd 3382 d43e
00000020: 3d84 fd3d 4416 c9be 2191 ae3d 5311 d23e
00000030: 0d33 973e ceb2 453d caa5 a0bd cd93 1fbe
00000040: d1e0 29bd bb38 a13d 84dc 563e 8180 943d
00000050: 7b78 04bd 31e2 84bd 1215 afbc 2b36 b7bd
00000060: c283 8ebb 434d 5e3d 7efd 65be 6472 b4be
00000070: 64f2 ac3c eab7 03be 3dde a8bd 69e6 9fbe
00000080: 1cb5 31bc 1b96 d53e 470f 2ebe a979 86be
00000090: cfe0 cbbc 6a6d 5fbd c2e2 163d 241d 93be
000000a0: ca36 84bd 65ba 153e 3cdd bbbd fd97 ac3d
000000b0: 6d02 0ebe e6d0 b73c aa5e cb3d e493 4e3d
000000c0: 9914 e6bc fca7 27be 28c7 9a3b 5fdf 113d
000000d0: 2a69 e8bc 9750 fdbd fd60 26be 69ef 0339
000000e0: c89b 93be 0a6c 1fbe f51a 0e3f a2b7 e3b9
000000f0: 6856 2f3e 32f5 b43e d512 853d 7964 3e3d
00000100: 90d6 183d a0d1 ea3b 86f1 a63e 0186 9ebd
00000110: b79d 0e3f c859 ac3e 01fe 44be 5c83 093e
00000120: eac2 4dbd f7f4 d13e e596 bd3c b932 00be
00000130: a726 e73d 131a 163f 32cb 013e f0b1 6cbe
00000140: 7d78 86be 57bb acbd 7a64 4cbd 4e6c cb3d
00000150: 55a0 10bd 3c3a 1a3e d831 943d bddf 4a3d
00000160: 690a de3d e2da 8f3d 2be8 1fbe 7c81 f23d
00000170: 2f06 1b3d 6234 663a 5f25 9bbd 602d fabc
00000180: d1ef 93be 1fff 46be 5c89 563e 699e 90be
00000190: 6603 4abd 6afd ebbd 7ef4 3cbe baff 773b
000001a0: 129e 22bd 1186 0e3c ecc6 c0bc a1db c3be
000001b0: abac 21be 1a06 a53c c826 a7bd 098a 3abe
000001c0: c73d cf3d fcfb 853d a768 683d 9501 4f3e
000001d0: 3fb9 373e 62e9 653e 40ba b6be c524 9d3d
000001e0: 83bd 463d 73c2 733e 5316 bf3e d9e7 833e
000001f0: 1301 f53d e397 0bbe f89d ed3d e9d8 d1bc
00000200: 1ff6 89be d491 033f c676 863c 00c0 fe3c
00000210: b935 8ebd 1337 f73d 82f4 c13d 1c87 dbbe
00000220: 9422 0cbe cddf 823e 374f 9abd 1c12 f9be
00000230: 7f50 9cbe 4c78 25be 873d bc3d c614 5b3e
00000240: 4dd8 6f3c 6828 7f3d d988 13be 6b5f d23c
00000250: fc24 d13c 346d 293e 0ff9 883d d40f a3bc
00000260: a040 1fbc 02e2 34bd 7820 6b3e 9848 7a3e
00000270: 118d 3bbd b4ee bf3c 1e86 7f3b 3e6b 913e
00000280: ca92 f83d 8147 94be 15e1 173e d026 923e
00000290: c05b f23c 234d 9f3c 92e0 d7bd 67af 403e
000002a0: d05d 48bd 0e7e 19be f736 30bc c17b 9abd
000002b0: 9f37 c83d 87af 11bd e963 f9bd 10b6 793d
000002c0: 74d6 88bd b068 a53e d63b d6bc 4cc2 b03b
000002d0: 8728 3ebd 1818 8f3d 9aa1 5d3e 4946 f338
000002e0: 70a3 823e af09 523e 399c 11bf ee7a a9bd
000002f0: 28f1 82be e657 8ebe 87c7 06bc d208 0cbc
00000300: 9c5c 9ebd f1d2 23be c568 b1be 95c7 793d
00000310: 8a13 d3be ce6f 94be 7620 c43d bedc b0bd
00000320: da53 4a3e 15ec 97be 7651 19bc 223e 6e3e
00000330: d77b debc a938 0bbf 17f9 1dbe db89 2e3e
00000340: 228d 953e 6484 99bd c73b 3f3c a6be b3bd
00000350: e4e9 a4bd baf8 2dbe 27c7 76bd 527d f1bb
00000360: 1579 62be 9af0 533d e572 6a3e 6a6b 3bbe
00000370: 8561 88bb a26f fabc 72be 8ebc 19c4 b9bd
00000380: 63b6 b33e e339 403e 1d57 12be 132b 843e
00000390: 1768 403c 0ff6 633e 9b60 0b3e ecd0 7d3d
000003a0: 159e 53bd 60cc 173e de1e 5dbc f426 823e
000003b0: 3eb9 883d 87c7 3cbd 0c9c 0d3d 7dfe c13d
000003c0: 8012 17be 0b04 283d 9387 00bc cfa9 26be
000003d0: f797 2abe e527 06be 161d 913e 8fad 793d
000003e0: 4354 13bd 7615 1dbe b7bd d0be 5fc5 8cbe
000003f0: 2148 72be b2ad 7d3e 3047 31be c877 4abd
0.38123015 -0.4457084 0.1100137 -0.06434572 0.07856357 -0.09226364 -0.07633194 0.41505584
0.12378738 -0.392748 0.08523775 0.41028842 0.29531136 0.048266225 -0.07844122 -0.15583725
-0.041474167 0.078721486 0.20982558 0.07251073 -0.03234146 -0.06488455 -0.021372352 -0.089458786
-0.004349203 0.0542729 -0.22459981 -0.35243523 0.021111675 -0.12863126 -0.082455136 -0.31230476
-0.0108464025 0.41716084 -0.16998015 -0.26264694 -0.02488747 -0.054547705 0.036837347 -0.2873317
-0.06455763 0.14621885 -0.091730565 0.08427427 -0.13868113 0.022438478 0.09930165 0.05043401
-0.028085994 -0.16372675 0.0047234483 0.035613414 -0.028370459 -0.12368887 -0.16247936 0.00012582321
-0.2882979 -0.15568557 0.55509883 -0.0004343363 0.17122805 0.3534332 0.064977325 0.046482537
0.037313998 0.0071661025 0.32606143 -0.07740403 0.55709404 0.33662248 -0.1923752 0.13429016
-0.050234713 0.41007206 0.023143241 -0.12519349 0.11286669 0.58633536 0.12675169 -0.23114753
-0.262638 -0.0843417 -0.04990051 0.09932767 -0.035309155 0.15061277 0.072360694 0.04952978
0.10841829 0.070241705 -0.15615909 0.118411034 0.037847694 0.00087816094 -0.07575487 -0.030539215
-0.28893903 -0.19433258 0.20950836 -0.28245857 -0.049319647 -0.11522944 -0.18452641 0.0037841634
-0.03970153 0.008698956 -0.023532353 -0.382535 -0.15788524 0.020144511 -0.08161694 -0.18216719
0.10119205 0.06542203 0.05674043 0.20215447 0.1794176 0.2245231 -0.35688972 0.07673029
0.048520576 0.23804645 0.3732172 0.25762823 0.119630955 -0.13632159 0.11602396 -0.025616126
-0.26945588 0.5139439 0.016414057 0.031097412 -0.069438405 0.120710514 0.09470464 -0.42876518
-0.13685066 0.2556137 -0.0753464 -0.4864663 -0.30530164 -0.16159171 0.09191423 0.21394643
0.0146389725 0.062294394 -0.14407672 0.025680264 0.02553033 0.16545564 0.06688129 -0.019905008
-0.009719998 -0.04416085 0.22961605 0.24441755 -0.04578883 0.023429252 0.0038989852 0.28402132
0.12137373 -0.28960803 0.14831956 0.28545237 0.029584765 0.019445961 -0.1054088 0.1881691
-0.04891759 -0.14989492 -0.010755292 -0.075431354 0.09776234 -0.035567787 -0.121772595 0.060964644
-0.06681529 0.32306433 -0.026151579 0.0053942557 -0.04642537 0.069870174 0.21643677 0.000116002346
0.25515318 0.20511506 -0.56879 -0.082754 -0.25574613 -0.27801436 -0.008226282 -0.008547025
-0.077325076 -0.15998437 -0.34650245 0.060981352 -0.41225845 -0.2899155 0.09576504 -0.08635853
0.1975855 -0.29672304 -0.009357801 0.2326589 -0.02715866 -0.5438333 -0.15427051 0.17044775
0.29209238 -0.07495955 0.011671967 -0.08776598 -0.080524236 -0.16989413 -0.06024852 -0.0073696757
-0.22116502 0.051743127 0.22895391 -0.18302694 -0.004162016 -0.030570809 -0.017424796 -0.09070606
0.35100088 0.18772082 -0.14291044 0.25814113 0.011743567 0.22261833 0.13611071 0.06196682
-0.05166443 0.14824057 -0.013496129 0.25420344 0.06675957 -0.04608872 0.034572646 0.09472368
-0.14753151 0.04101948 -0.007844823 -0.16275714 -0.16659532 -0.13101156 0.28342503 0.060956534
-0.03596903 -0.15340218 -0.4076974 -0.27494332 -0.23660327 0.24773291 -0.17312312 -0.04943064

net.2.bias f4 [2]
00000000: 0cc7 0f3e 631d ffbd
0.14040774 -0.12456777
