Teaching Content/L4T4 - Pytorch/cartpole demo/checkpoints/policy_ep0050.pth (torch, 5824 bytes, 4 tensors)

net.0.weight f4 [128, 4]
0.4786278 -0.34275213 -0.47757605 -0.51296 -0.14617316 -0.08899413 0.50160986 0.49272346
0.16237082 -0.2345371 -0.20827155 0.09151285 -0.39849 -0.38352957 0.60501325 0.29783422
0.07195729 0.21177192 -0.31363338 0.465758 0.36677134 -0.48653227 -0.11876859 0.283102
0.09996182 -0.36839867 -0.078912504 0.16201247 0.27937037 -0.17491356 -0.57390356 -0.5023337
-0.31785387 -0.20917448 -0.1706939 -0.30769724 0.27490407 -0.18803157 0.2674788 0.36384735
0.045475543 0.60233164 -0.07182225 0.042590156 0.09610729 0.007857922 -0.50913376 -0.44662967
0.41057464 -0.20329465 -0.49049783 -0.35943148 0.5763725 0.5351424 -0.6434314 -0.11951908
0.37530187 0.3119569 0.2778916 0.35077238 0.4565277 -0.17747173 0.3172182 0.18242928
0.08459908 0.43359718 -0.5397687 0.3018752 0.06501576 0.5118904 0.35350677 -0.09975417
-0.62975574 -0.39885238 0.18648478 -0.1008973 0.11105228 0.08999864 0.41618374 0.29321542
-0.11887173 -0.1639424 -0.3810127 -0.117789425 -0.09205786 -0.31516516 0.3563972 0.3749644
0.0014041889 -0.3381373 -0.45089084 0.3986667 0.49346548 -0.4694742 -0.15198529 -0.14683706
-0.57789594 0.00043206633 -0.2262488 0.47580093 -0.049259376 -0.25917158 0.20611627 -0.06314461
-0.031251423 0.054291524 0.18231194 0.25401986 -0.07644936 -0.2514928 0.3554844 0.40873647
0.17129627 0.14775826 0.2237686 -0.25031844 0.31020308 0.10186207 0.15106714 0.09655106
0.058154136 0.2079046 -0.04941863 0.1455357 0.34304142 -0.42215404 -0.13293248 0.5500309
0.43993047 -0.4896323 0.16067739 0.03444904 0.00020218478 0.47959748 -0.64871484 -0.64264154
0.41672897 -0.33477885 0.2743394 0.20091017 -0.03347784 0.3019033 0.43226245 0.58307713
-0.08996643 -0.2606964 -0.018612415 0.309552 0.4844838 0.48267153 0.5701437 -0.23865399
0.45882282 0.30510336 -0.22530751 -0.37659037 0.16992117 0.27354807 0.06942809 0.6817472
-0.25200963 -0.2917668 0.059568394 0.16882992 0.025243994 0.5806905 -0.33145672 -0.052607723
0.22874722 -0.13493212 0.2535162 0.072068356 -0.51143885 -0.023701029 -0.1265611 0.12803468
0.3794021 -0.3773333 0.15366964 0.07587911 0.21441083 -0.35413945 -0.30985072 0.44046307
-0.30048004 -0.28970233 -0.15864678 -0.030246701 -0.38259336 -0.11396245 0.15532857 0.2156699
-0.085385375 0.4394722 0.055695552 0.012119615 -0.20927852 -0.038294796 -0.3009275 0.5285404
0.004846376 0.17179036 0.39821512 -0.2817747 0.3408942 0.33098385 0.3870487 -0.024478031
0.029642412 0.2071831 -0.13297018 -0.05212488 -0.30663925 0.39559588 0.44739613 -0.1393184
0.04439474 0.21824719 -0.063992135 0.27436647 -0.27510482 -0.15509826 0.017205592 -0.11567514
0.10735849 -0.19291681 0.40754047 0.1404186 -0.03392686 -0.51887876 0.11992391 0.5578371
-0.05173548 -0.021952365 -0.24567457 -0.34617737 -0.030564407 0.19514349 -0.28228998 -0.35784277
0.575503 0.114386134 -0.2036485 -0.5292661 -0.37728316 -0.50836927 0.1465236 -0.42685702
-0.3617829 0.040851362 0.028484251 0.11380918 0.1555107 0.16777869 0.30898055 -0.20077759
00000000: b40e f53e 357d afbe d984 f4be 5951 03bf
00000010: 6bae 15be 8e42 b6bd 8169 003f 4046 fc3e
00000020: 8944 263e 7e2a 70be 2345 55be 176b bb3d
00000030: e206 ccbe fd5d c4be 26e2 1a3f ba7d 983e
00000040: 585e 933d bdda 583e 8e94 a0be d577 ee3e
00000050: 74c9 bb3e c21a f9be f23c f3bd bff2 903e
00000060: c8b8 cc3d c09e bcbe e19c a1bd 99e6 253e
00000070: a209 8f3e 8a1c 33be 58eb 12bf f198 00bf
00000080: bebd a2be d631 56be 62ca 2ebe 7e8a 9dbe
00000090: 3ac0 8c3e 598b 40be fbf2 883e 334a ba3e
000000a0: 9044 3a3d 6832 1a3f 8b17 93bd 0473 2e3d
000000b0: e6d3 c43d 84be 003c 9756 02bf a5ac e4be
000000c0: d736 d23e 792c 50be 8822 fbbe 6707 b8be
000000d0: 268d 133f 18ff 083f ecb7 24bf 6bc6 f4bd
000000e0: 9127 c03e d1b8 9f3e cf47 8e3e 7098 b33e
000000f0: 00be e93e 26bb 35be 6d6a a23e bece 3a3e
00000100: 4842 ad3d 7300 de3e 482e 0abf 638f 9a3e
00000110: fc26 853d 400b 033f d7fe b43e ea4b ccbd
00000120: ac37 21bf 6136 ccbe def5 3e3e 3ea3 cebd
00000130: 616f e33d 3551 b83d 0916 d53e 5520 963e
00000140: 0673 f3bd 84e0 27be 1914 c3be 953b f1bd
00000150: d588 bcbd 545d a1be b279 b63e 55fb bf3e
00000160: c30c b83a 5520 adbe 2adb e6be 0b1e cc3e
00000170: 82a7 fc3e ec5e f0be 08a2 1bbe 745c 16be
00000180: fdf0 13bf f686 e239 c4ad 67be 2e9c f33e
00000190: 33c4 49bd 23b2 84be 2510 533e f651 81bd
000001a0: 7e01 00bd ca60 5e3d fbaf 3a3e e40e 823e
000001b0: 7b91 9cbd aac3 80be 0d02 b63e e845 d13e
000001c0: 4a68 2f3e f14d 173e 9923 653e bd29 80be
000001d0: f0d2 9e3e 109d d03d 58b1 1a3e 90bc c53d
000001e0: 0833 6e3d f2e4 543e 306b 4abd 4f07 153e
000001f0: 20a3 af3e 9324 d8be 741f 08be d3ce 0c3f
00000200: 913e e13e 16b1 fabe 9d88 243e 701a 0d3d
00000210: 9001 5439 cd8d f53e 2d12 26bf 2884 24bf
00000220: 805d d53e 2268 abbe 3776 8c3e 65bb 4d3e
00000230: 0f20 09bd 1293 9a3e 8151 dd3e 8b44 153f
00000240: 5240 b8bd 007a 85be 1079 98bc 9a7d 9e3e
00000250: 430e f83e b920 f73e f0f4 113f b661 74be
00000260: d3ea ea3e 8236 9c3e 03b7 66be 74d0 c0be
00000270: d1ff 2d3e 7e0e 8c3e 5030 8e3d fc86 2e3f
00000280: 6807 81be 7562 95be fdfd 733d c0e1 2c3e
00000290: 7ecc ce3c 22a8 143f b2b4 a9be 327b 57bd
000002a0: b63c 6a3e a52b 0abe e0cc 813e 9398 933d
000002b0: a8ed 02bf a928 c2bc 3c99 01be 861b 033e
000002c0: fe40 c23e d531 c1be 935b 1d3e 8266 9b3d
000002d0: 838e 5b3e c451 b5be c1a4 9ebe 6084 e13e
000002e0: 85d8 99be dd53 94be 4d74 22be eec7 f7bc
000002f0: 47e3 c3be 2565 e9bd 740e 1f3e 92d8 5c3e
00000300: 87de aebd 8002 e13e 0521 643d 5a91 463c
00000310: 1c4d 56be 01db 1cbd 2b13 9abe 6c4e 073f
00000320: 59ce 9e3b d0e9 2f3e dae2 cb3e c644 90be
00000330: af89 ae3e b776 a93e 3f2b c63e 2786 c8bc
00000340: a5d4 f23c ce27 543e 5629 08be e680 55bd
00000350: d2ff 9cbe 8b8b ca3e 1b11 e53e 7ca9 0ebe
00000360: 42d7 353d 317c 5f3e 4f0e 83bd c379 8c3e
00000370: 8ada 8cbe 14d2 1ebe bef2 8c3c 16e7 ecbd
00000380: c5de db3d fc8b 45be 25a9 d03e e5c9 0f3e
00000390: e4f6 0abd 3dd5 04bf ab9a f53d 6ace 0e3f
000003a0: 95e8 53bd 72d5 b3bc 1d92 7bbe 293e b1be
000003b0: 3562 fabc b2d3 473e 5088 90be 2b37 b7be
000003c0: 2a54 133f 4743 ea3d 3b89 50be fc7d 07bf
000003d0: 422b c1be 7d24 02bf 480a 163e 018d dabe
000003e0: 9c3b b9be c253 273d ce57 e93c ca14 e93d
000003f0: 323e 1f3e 2dce 2b3e b332 9e3e a498 4dbe

net.0.bias f4 [128]
0.23021126 -0.12454614 -0.39322546 0.3947985 -0.44056392 -0.084750794 0.15451382 0.06298813
-0.50766397 -0.019697279 0.51370466 0.17265867 0.34414262 0.1720534 -0.27287585 -0.052088015
0.386711 0.050746292 0.17137007 -0.36852896 -0.2110225 0.2970403 -0.4924278 -0.49332112
0.22772251 0.05992933 0.13387962 0.025470572 0.34966913 -0.48510593 0.3650678 0.0813246
-0.4547829 0.54287845 -0.16937537 0.21277258 -0.03584635 -0.4581028 -0.1430787 0.32591972
0.3013504 0.25675905 0.115903445 0.12369172 -0.022552807 -0.5459697 0.2230006 0.115566075
-0.29002255 0.05897623 -0.19920656 -0.15027668 -0.48872066 -0.42177552 -0.0008731873 -0.22633125
0.03984209 -0.3932345 0.128506 -0.3273107 0.3369683 0.17338943 -0.4963645 0.08353017
-0.38287753 0.16620837 0.067719825 0.12959076 0.2923692 0.4793567 0.22532992 0.06527026
0.0910305 -0.022029877 -0.24295236 0.37378997 -0.29798573 0.29252768 -0.04341083 0.29704556
0.1843972 -0.4556622 0.32878813 -0.35616457 -0.17358248 0.17751406 -0.18767223 -0.011555536
0.14355701 -0.23141226 -0.032910682 0.2260248 0.059067395 -0.112531394 0.0382747 -0.5269867
0.040638313 0.04200113 -0.040329285 -0.2522723 -0.14478211 0.379923 0.36276048 -0.21459398
-0.25745767 0.2259509 -0.5615599 0.017352093 0.11812915 -0.17136918 -0.22197156 -0.1792533
-0.23738614 -0.32339093 0.045579046 0.17181583 -0.21188657 -0.036568515 0.060235128 -0.042260088
0.32497853 0.17866962 0.29093185 -0.021104965 0.044155855 0.35087582 0.40880427 -0.21576661
00000000: 80bc 6b3e 0c12 ffbd d954 c9be 0723 ca3e
00000010: 9891 e1be d391 adbd df38 1e3e ecff 803d
00000020: 44f6 01bf 305c a1bc 2682 033f 6fcd 303e
00000030: 7633 b03e c42e 303e 62b6 8bbe 3e5a 55bd
00000040: fcfe c53e 58db 4f3d a37b 2f3e d4af bcbe
00000050: 4816 58be ab15 983e 7f1f fcbe 9694 fcbe
00000060: 1730 693e 7578 753d bd17 093e a9a7 d03c
00000070: d507 b33e ce5f f8be 2bea ba3e 838d a63d
00000080: 4ed9 e8be 15fa 0a3f bd70 2dbe 0ee1 593e
00000090: 9fd3 12bd 738c eabe 3983 12be f3de a63e
000000a0: 9a4a 9a3e ec75 833e c95e ed3d 1652 fd3d
000000b0: aac0 b8bc acc4 0bbf 455a 643e e8ad ec3d
000000c0: d67d 94be 0f91 713d cefc 4bbe 21e2 19be
000000d0: 9839 fabe f6f2 d7be 9ce6 64ba 61c3 67be
000000e0: 7631 233d 0856 c9be 1497 033e 4595 a7be
000000f0: 1c87 ac3e 008d 313e 7d23 febe de11 ab3d
00000100: 8608 c4be 8732 2a3e b1b0 8a3d 71b3 043e
00000110: 6ab1 953e 3e6e f53e e3bc 663e 6aac 853d
00000120: 336e ba3d 0078 b4bc 81c8 78be 6661 bf3e
00000130: 9691 98be 30c6 953e 8ecf 31bd 5b16 983e
00000140: 9fd2 3c3e 8e4c e9be eb56 a83e 345b b6be
00000150: 9bbf 31be 3fc6 353e 262d 40be 6e53 3dbc
00000160: 9c00 133e 56f7 6cbe 5acd 06bd 0c73 673e
00000170: a7f0 713d dc76 e6bd efc5 1c3d 9ae8 06bf
00000180: 5c74 263d 6009 2c3d 5230 25bd d629 81be
00000190: c341 14be 4485 c23e bebb b93e 86be 5bbe
000001a0: 7ed1 83be ac5f 673e 64c2 0fbf fa25 8e3c
000001b0: b2ed f13d 677b 2fbe 834c 63be 2d8e 37be
000001c0: 5a15 73be 7f93 a5be 18b1 3a3d 7df0 2f3e
000001d0: cbf8 58be dec8 15bd 1cb9 763d ea18 2dbd
000001e0: 9663 a63e 2bf5 363e 05f5 943e 52e4 acbc
000001f0: c5dc 343d ffa5 b33e cb4e d13e ecf1 5cbe

net.2.weight f4 [2, 128]
0.24105802 -0.078274414 0.15150881 -0.1342863 0.16738617 -0.05402633 -0.0050092433 0.15722385
-0.024697132 -0.15440236 0.09669345 0.06748623 0.1661702 0.095020816 0.13191614 0.0024985187
0.01737122 0.14907376 0.039859124 0.05186967 0.04418578 -0.03188502 0.013063743 -0.08824534
-0.12439296 0.031525847 -0.022551939 -0.17203021 0.062487185 -0.028856587 -0.012612532 -0.13112912
0.10242241 0.22838047 -0.07464412 -0.08454652 -0.09237545 0.075393185 0.06077648 -0.10875906
-0.078270294 0.15352055 -0.0379339 -0.02518704 -0.044064093 -0.016435605 0.002035079 -0.005561185
0.026398726 -0.02931501 0.02129183 0.10766832 0.0046201264 0.021063142 0.018653287 0.023190225
-0.11344811 -0.056015804 0.14139134 0.012811233 0.13775352 0.13216667 -0.011783108 0.14625284
0.093450546 0.06385045 0.08958515 -0.09760049 0.2553259 0.16435236 -0.12821311 0.16919827
0.018383726 0.19634518 0.02592372 0.00804531 -0.06168655 0.19234751 0.14360753 -0.13114966
-0.10227204 -0.050077014 0.0520461 -0.0394547 0.077949025 0.18790938 0.04353872 0.035321046
0.06538322 0.15695468 0.016920721 0.14754009 0.0831776 0.06681788 -0.018617863 -0.058589317
-0.10073396 -0.1295374 0.17608881 -0.09131772 0.023906305 -0.029730754 -0.040154565 0.05285612
0.0075537898 -0.022788692 0.0022708105 -0.1157889 -0.123910904 0.028454142 -0.005456699 -0.097753234
0.13031797 0.088450894 0.06053917 0.20227017 0.2042327 0.1523303 -0.11546186 0.10703471
0.004714084 0.16817692 0.11841679 0.061705805 -0.02936806 0.02394527 0.09102648 0.010496512
-0.12928388 0.14651 -0.025080942 0.101038024 -0.15826106 0.08247321 0.023381907 -0.17093322
0.011633854 0.017268095 -0.08680207 -0.14366405 -0.17616042 -0.20834626 -0.11844306 0.055610605
-0.044206444 -0.008057845 0.02588972 0.046321362 -0.0509969 0.1324561 0.032445196 -0.021118468
0.11032373 -0.021413818 0.027568294 0.06401259 -0.08716432 -0.0763454 -0.06594357 0.10284563
0.008104869 -0.10082774 0.0529835 0.10735199 0.09707275 -0.11049492 -0.12934801 0.009596533
-0.03520485 -0.15719673 -0.064551935 0.034029942 0.003145309 0.0033063092 -0.024506046 0.116959766
-0.12130006 0.18865246 -0.04271994 -0.0666607 -0.079415955 -0.07488191 0.03530414 -0.022948416
0.080303416 0.10544533 -0.15508261 -0.095999576 -0.22227173 -0.05674783 0.06853415 -0.10831741
-0.13346156 -0.21666877 -0.1100261 0.08117789 -0.11049031 -0.1176454 0.03160292 -0.12126661
0.1289671 -0.08299617 -0.012138287 0.099420026 0.14739464 -0.14984535 -0.17112641 0.07044983
0.13172637 -0.10922424 -0.09027466 0.05101639 -0.19378245 -0.20719081 -0.031426538 0.0068390523
-0.17812996 -0.034969896 0.05587422 -0.21215601 -0.049491946 -0.09651059 -0.074561834 -0.06265593
0.16279581 0.122925654 -0.10949088 0.06700021 -0.06148238 0.1371197 -0.008261135 0.012894862
-0.098919764 0.17972815 -0.039299298 -0.012542785 0.032785304 -0.054398373 -0.04158761 0.010309653
-0.17665747 0.017990679 -0.011643585 -0.16287258 -0.19141047 -0.058818787 0.041997164 0.030652156
0.007837502 -0.083532624 -0.152897 -0.079020835 -0.08760418 0.08746592 -0.1481256 -0.08554329
00000000: ead7 763e 564e a0bd 2025 1b3e 5982 09be
00000010: 4867 2b3e b74a 5dbd 9424 a4bb 4aff 203e
00000020: a451 cabc a71b 1ebe 3707 c63d 3836 8a3d
00000030: 8528 2a3e 469a c23d 0615 073e 30be 233b
00000040: 174e 8e3c cba6 183e 5243 233d 4b75 543d
00000050: 26fc 343d de99 02bd 4f09 563c f9b9 b4bd
00000060: bcc1 febd 3f21 013d d8be b8bc b028 30be
00000070: 90f2 7f3d a664 ecbc cba4 4ebc b646 06be
00000080: d7c2 d13d 92dc 693e 04df 98bd ba26 adbd
00000090: 572f bdbd be67 9a3d c2f0 783d 12bd debd
000000a0: 2d4c a0bd 7e34 1d3e 9460 1bbd 0d55 cebc
000000b0: 8d7c 34bd f6a3 86bc f65e 053b 9a3a b6bb
000000c0: 2442 d83c 0826 f0bc 346c ae3c 3581 dc3d
000000d0: 6e64 973b 9c8c ac3c c7ce 983c 6df9 bd3c
000000e0: 7c57 e8bd d470 65bd e4c8 103e 35e6 513c
000000f0: 420f 0d3e b356 073e f00d 41bc 4ec3 153e
00000100: 0063 bf3d 06c4 823d 6b78 b73d c4e2 c7bd
00000110: 14ba 823e fc4b 283e 4c4a 03be 5042 2d3e
00000120: 7899 963c b60e 493e fb5d d43c 7ad0 033c
00000130: 09ab 7cbd bff6 443e da0d 133e 194c 06be
00000140: 0174 d1bd 8e1d 4dbd 4b2e 553d 409b 21bd
00000150: bda3 9f3d 516b 403e a855 323d cdac 103d
00000160: a3e7 853d bab8 203e 539d 8a3c c014 173e
00000170: 0459 aa3d d0d7 883d 7d84 98bc 5afb 6fbd
00000180: 9b4d cebd 74a5 04be a050 343e c904 bbbd
00000190: 28d7 c33c e98d f3bc 1d79 24bd a97f 583d
000001a0: c885 f73b 5aaf babc e1d1 143b bb22 edbd
000001b0: 00c5 fdbd a918 e93c 1cce b2bb d932 c8bd
000001c0: 1372 053e be25 b53d ecf7 773d e91f 4f3e
000001d0: 6022 513e 79fc 1b3e 4577 ecbd 0435 db3d
000001e0: 9a78 9a3b 9236 2c3e 8184 f23d 3abf 7c3d
000001f0: 4995 f0bc df28 c43c 176c ba3d 90f9 2b3c
00000200: fe62 04be b806 163e 8c76 cdbc 06ed ce3d
00000210: 300f 22be b7e7 a83d 6a8b bf3c 1e09 2fbe
00000220: ec9b 3e3c d275 8d3c 49c5 b1bd ab1c 13be
00000230: 6663 34be b958 55be 4692 f2bd f2c7 633d
00000240: d111 35bd 0d05 04bc ae16 d43c 78bb 3d3d
00000250: 20e2 50bd 92a2 073e 41e5 043d a300 adbc
00000260: 68f1 e13d 086c afbc e7d6 e13c 0819 833d
00000270: 3583 b2bd fa5a 9cbd 6c0d 87bd bba0 d23d
00000280: 49ca 043c c67e cebd 3a05 593d 5cdb db3d
00000290: 14ce c63d 294b e2bd ce73 04be c73a 1d3c
000002a0: f632 10bd 2ef8 20be ce33 84bd fb62 0b3d
000002b0: 8721 4e3b aaae 583b e7c0 c8bc 9a88 ef3d
000002c0: 2a6c f8bd 1c2e 413e 1bfb 2ebd 6885 88bd
000002d0: d5a4 a2bd b05b 99bd 139b 103d 51fe bbbc
000002e0: 1e76 a43d b9f3 d73d facd 1ebe 6d9b c4bd
000002f0: 339b 63be 6a70 68bd a25b 8c3d 85d5 ddbd
00000300: 26aa 08be 6bde 5dbe 5d55 e1bd 9840 a63d
00000310: be48 e2bd 12f0 f0bd 1072 013d a15a f8bd
00000320: f40f 043e e5f9 a9bd aadf 46bc ba9c cb3d
00000330: 9fee 163e 0f71 19be c33b 2fbe 0048 903d
00000340: 47e3 063e f5b0 dfbd ece1 b8bd 90f6 503d
00000350: e86e 46be d429 54be 1db9 00bd 211a e03b
00000360: b367 36be 983c 0fbd 5edc 643d 6d3f 59be
00000370: 11b8 4abd 58a7 c5bd e0b3 98bd c151 80bd
00000380: f2b3 263e 72c0 fb3d c13c e0bd 6837 893d
00000390: f3d4 7bbd 1b69 0c3e b659 07bc f944 533c
000003a0: 7296 cabd a80a 383e 4df8 20bd 4180 4dbc
000003b0: e249 063d d4d0 5ebd c557 2abd d2e9 283c
000003c0: b2e5 34be 3061 933c bcc4 3ebc 12c8 26be
000003d0: 1b01 44be f8eb 70bd 3805 2c3d 3b1a fb3c
000003e0: de68 003c 2713 abbd 0891 1cbe add5 a1bd
000003f0: d269 b3bd 5521 b33d 3dae 17be 5231 afbd

net.2.bias f4 [2]
0.047244504 -0.031404603
00000000: 7483 413d 1da2 00bd
