Teaching Content/L4T4 - Pytorch/cartpole demo/checkpoints/policy_ep0200.pth (torch, 5824 bytes, 4 tensors)

net.0.weight f4 [128, 4]
000000 08 5f 3a 3e 89 a3 6f 3c a9 aa 34 bf ff 24 b2 be
       0.18200314 0.014626392 -0.70572907 -0.3479385
000010 25 1a b9 3c f2 b9 23 be 05 41 83 bf c1 1b 25 bf
       0.022595474 -0.15988901 -1.0254217 -0.64495474
000020 6a 5e 55 3e 2d 10 32 be 70 4d 8b be a7 80 52 3d
       0.20836797 -0.17388983 -0.27207518 0.051392224
000030 59 84 dc 3d 6d 4e 7b be 2b 96 91 3e ca af 3e be
       0.10767431 -0.24541636 0.28434882 -0.18621746
000040 01 cb 1b 3e fc 0f 9d be 72 15 3d bf cb bd 12 bf
       0.15214159 -0.30676258 -0.7386085 -0.5732085
000050 34 c3 9f be 18 24 a1 be 38 30 76 3f 27 53 4a 3f
       -0.31203616 -0.3147285 0.96167326 0.7903313
000060 5b 23 80 3c 28 ae cd be 8f b3 dc 3e 70 3a 08 3f
       0.015641859 -0.40171933 0.43105742 0.5321417
000070 01 76 25 3e a8 b2 7a be 3f dd 09 3f bb 30 b3 3e
       0.16158296 -0.24482214 0.5385322 0.34998116
000080 a6 36 d9 3e 07 e5 13 bf 00 3e 11 bf c4 94 81 be
       0.42424506 -0.57771343 -0.5673523 -0.25308812
000090 f0 11 2b be d8 27 6f be 9b 59 cd be ca 46 26 3e
       -0.16706061 -0.23355043 -0.40107426 0.16237941
0000a0 c5 81 d6 3d 0f 7c ed be 52 97 53 be 62 76 3e bf
       0.1047397 -0.46383712 -0.20663193 -0.7439939
0000b0 9d df 46 bd 64 7f 81 be aa 9d 0a 3d e5 29 68 3e
       -0.048553098 -0.25292504 0.033841766 0.22672231
0000c0 91 2c b5 3b d6 5d 09 be d5 3a c6 be 0f 82 2c bf
       0.0055289944 -0.13414702 -0.3871676 -0.67385954
0000d0 a4 10 31 bd e7 7a 72 be 9e bf 2e 3f 83 71 da 3e
       -0.04322876 -0.23679696 0.68261135 0.42664728
0000e0 75 29 00 bf 82 ce 4c be 7b 73 1c bf 1e 71 eb be
       -0.5006326 -0.20000651 -0.6111371 -0.4598474
0000f0 1c b7 a5 3e 1b aa eb 3e 5a 6f 7e 3d ef ec 4f 3f
       0.32366264 0.46028218 0.062117912 0.81220907
000100 0f 71 b2 3d 43 88 c2 bd 8f 9e 0b bc fc a3 c3 be
       0.087129705 -0.09498646 -0.00852169 -0.38211048
000110 ed ec b7 3d c4 ab eb be 5f dc b5 bd 57 cc 53 3e
       0.08980737 -0.46029484 -0.08879923 0.20683418
000120 64 1d 8f 3c 8d b9 0a be e8 8f 0b be 35 47 b2 be
       0.01747007 -0.13547345 -0.13629115 -0.34819952
000130 14 a4 4d 3d 36 3d 7f bd 7d fb 91 3f 5d 94 13 3f
       0.050205305 -0.062314235 1.1404873 0.5764826
000140 69 94 34 be e6 7f b7 3d 74 70 3d bf 17 c0 36 bf
       -0.17634739 0.089599416 -0.73999715 -0.71386856
000150 a0 34 b7 bd 6a da 80 3d 25 c6 cf bd 93 10 9b bc
       -0.08945584 0.06291659 -0.10145215 -0.018928802
000160 78 30 0f bf 98 67 94 3e a1 4c c0 be fb c6 c5 be
       -0.5593333 0.28985286 -0.37558463 -0.38628373
000170 50 c0 25 bf 52 10 38 3e ab 29 2b be dd a4 2a bf
       -0.6474657 0.17974976 -0.16715114 -0.6665781
000180 d0 7b a2 be 1e 82 7d bc aa 65 27 bf b1 8a 12 bf
       -0.31735086 -0.015472917 -0.653895 -0.57242876
000190 5c 30 d3 3d 5d fb 50 3d ec 96 33 bf 2a 9a f0 be
       0.10311958 0.05102097 -0.70152164 -0.46992618
0001a0 3f 3f 6d 3e f9 49 21 3e 9d a8 ac 3f 2f 8b e9 3e
       0.23168658 0.15750875 1.3488957 0.45614
0001b0 f7 6f 82 bd 27 48 3d 3c 2e 46 07 be df 77 b2 3e
       -0.06369012 0.011552847 -0.13210365 0.3485708
0001c0 f8 6c 27 3e 9b af 17 bc 4b fc ee 3d 6a a9 b0 3e
       0.16350162 -0.009258176 0.11669215 0.34504253
0001d0 49 0c fd be 49 94 c7 3e 11 b4 15 be 2a 87 ca 3d
       -0.49423435 0.3898032 -0.14619471 0.09889062
0001e0 dd c3 05 be 03 db 67 3e 6c c1 92 3b a5 3f ac be
       -0.13062997 0.2264214 0.004478624 -0.33642307
0001f0 32 60 d3 be 5f 19 f0 be b2 f0 73 bd 7d ea 14 3f
       -0.4128433 -0.46894357 -0.059555717 0.581703
000200 9f 18 e5 3d e0 96 ea be ec 82 14 3f 3e 7d b6 3e
       0.11186337 -0.45818233 0.5801227 0.35642427
000210 35 62 a5 3e 74 b3 4e 3e cc 48 af 3f 74 13 34 3f
       0.3230149 0.20185643 1.3694091 0.70342183
000220 66 d2 4a bf 7b 77 bd 3e 22 fe 67 bf ab d1 27 bf
       -0.7922729 0.3700522 -0.9062215 -0.655543
000230 51 bc b1 bd 56 99 e5 3e ba dc af 3e a6 ca 10 3f
       -0.08678497 0.4484355 0.34348089 0.56559217
000240 00 0a c4 3d 15 66 bd bd 04 c1 1f bf 80 57 5d bf
       0.0957222 -0.09247986 -0.62403893 -0.8646164
000250 18 1b 5b 3e fc a5 06 3c 00 39 52 3f 33 58 52 3f
       0.21397054 0.008218285 0.82118225 0.8216583
000260 ad 4e 64 bd 20 98 92 3e 32 91 c7 be 2c 38 8a bc
       -0.055739094 0.28631687 -0.38977963 -0.016872488
000270 b6 1d 6f 3b 2e ca 44 be b1 13 15 bd cd 89 b6 3e
       0.0036486215 -0.1921775 -0.036395732 0.3565201
000280 7c 65 fd 3d d2 f9 4d be 94 4f 04 bf 50 0c c0 be
       0.12372872 -0.2011483 -0.51683927 -0.37509394
000290 52 94 cf 3d d3 8d ce bd c2 60 14 bd 74 21 a4 3c
       0.10135712 -0.100856446 -0.036225088 0.020035483
0002a0 39 ea 6d bd 34 13 84 be 1e 45 7a bf 67 be f9 be
       -0.0580847 -0.257959 -0.97761714 -0.48778078
0002b0 ca 29 a7 3d f3 1e 21 be f7 5b 99 bf 8e e9 32 bf
       0.081622675 -0.15734462 -1.198119 -0.69887626
0002c0 d8 f1 cf 3d a6 8a 9a 3d ae 49 bf be f8 10 0a be
       0.1015355 0.07545976 -0.373609 -0.13483036
0002d0 1b c5 96 3e b3 29 07 3f f6 0b a1 3f 69 f0 40 3f
       0.29447255 0.52798 1.2581775 0.75366837
0002e0 5a 3f dd 3e df 39 0a bf 02 76 18 be 4e c9 03 bf
       0.43212396 -0.53994554 -0.14888766 -0.5147904
0002f0 2d eb cd 3c 4a d1 f6 3c 45 35 b0 3b 51 f1 19 be
       0.025136555 0.030129094 0.005377444 -0.15033461
000300 3b c4 82 3d a6 c7 9b be d7 51 7c bf 2b 72 2a bf
       0.06385084 -0.30425757 -0.9856238 -0.66580456
000310 99 9a b5 be 3a ee 80 be e5 bd 99 bc e1 3e fa 3e
       -0.3546951 -0.25181752 -0.018767307 0.48876098
000320 1e 95 c6 bd 07 0f c3 be c5 fc 34 bf 07 13 b4 be
       -0.096964106 -0.38097402 -0.70698196 -0.35170767
000330 9d 5a 5e 3e 24 26 63 3e c3 ee db 3e cd 67 c4 3e
       0.21714254 0.22182518 0.42955598 0.38360444
000340 1a 8b e5 bd 0d 76 81 3e 4d e4 37 be f6 1b 93 be
       -0.11208172 0.25285378 -0.17958184 -0.2873227
000350 5f 0b 09 3d ab cb cf 3e 53 81 39 3f 24 f2 67 3f
       0.03345811 0.40585074 0.7246296 0.9060385
000360 bc 28 8f 3d 7d 19 a3 be 44 06 23 3e 7b 11 9e 3e
       0.06990191 -0.31855384 0.15920359 0.30872712
000370 86 fe f7 bd 64 50 9a bc 78 a7 48 bf 98 4e 26 bf
       -0.12109093 -0.018837161 -0.7838054 -0.64963675
000380 73 0e f4 3d 0c db 4a bc d7 3c cb be 30 07 8e be
       0.119168185 -0.012381326 -0.39694855 -0.2773986
000390 12 cf 01 bf 64 26 b6 3e e4 55 8a be 22 77 0d 3d
       -0.5070659 0.35576165 -0.27018654 0.034537442
0003a0 59 23 e1 be 0a 71 ad 3e c8 a3 88 be 5b ac e2 be
       -0.4397228 0.33875304 -0.26687455 -0.44272122
0003b0 f6 0a 9b be b0 5a b3 be c9 9c a2 3d bc 54 12 3f
       -0.302818 -0.35030127 0.07940061 0.57160544
0003c0 a2 b2 57 3d 09 8c 66 be 8a 32 9e be d8 41 93 3d
       0.052660592 -0.22514357 -0.30897933 0.07190293
0003d0 f7 fe 1c bf f7 6c 04 3e 23 26 37 bf 2e a2 1f bf
       -0.61326545 0.12932192 -0.71542567 -0.6235684
0003e0 14 03 95 3e 87 a5 82 3e c3 86 55 3f f4 9b 3b 3f
       0.2910391 0.25516912 0.83408755 0.7328484
0003f0 7f 5d fd bc 96 46 7f ba 23 0b 9d be 14 1f c1 bd
       -0.030928371 -0.0009737996 -0.3067256 -0.09429756

net.0.bias f4 [128]
000000 8d 05 1e 3e f9 5f 6b 3e ff fa 10 bf cd d8 0a bf
       0.15431805 0.2298583 -0.5663299 -0.5423706
000010 1e 1a 8e 3d b6 d1 1b 3e 94 88 de be 43 fb 43 3e
       0.06938575 0.15216717 -0.43463576 0.19138817
000020 17 75 8f be af 3f 8b be 91 c0 a4 3d 1b b9 bb be
       -0.2801902 -0.27197024 0.080445416 -0.36664662
000030 52 8b 45 3e ba a1 a0 be ab 9f 9d 3e 26 6b 9c bd
       0.19291428 -0.31373388 0.3078588 -0.076376244
000040 56 36 05 bf 3f 75 e7 be 7c da f7 be e0 05 f1 3e
       -0.52036035 -0.4520664 -0.48408878 0.47074795
000050 8b ca dd 3d 5d a0 9d be d9 da 34 3c dc df 0a 3c
       0.10829648 -0.3078641 0.0110385055 0.008476224
000060 d7 fe 28 3e d6 6c bd be fb 62 84 3e dd 23 ea be
       0.16503464 -0.36997098 0.25856766 -0.45730487
000070 3a ce d9 be 25 f0 96 bd 08 a8 89 be 1d b7 98 be
       -0.4254015 -0.07370023 -0.2688601 -0.29827204
000080 20 f0 bf be dd 5b cc 3e 54 b8 f3 bb 4a bb a8 3e
       -0.37487888 0.39913836 -0.007437745 0.3295539
000090 29 c3 ea 3e eb 93 76 3e 64 ed d8 be 73 56 97 be
       0.4585202 0.24079864 -0.42368615 -0.29558143
0000a0 6f fc 1d be a3 c6 e1 be b8 f0 0c 3e 8e 03 4e 3e
       -0.15428327 -0.4409686 0.13763702 0.20118544
0000b0 b3 02 17 bf 2a 08 cb 3e cb 72 05 bf f8 0a e0 be
       -0.58988494 0.39654666 -0.52128285 -0.43758368
0000c0 2d 6d 8c 3e be ad a0 be 3f b1 85 3e 29 37 2d 3e
       0.27427045 -0.31382555 0.2611179 0.16915573
0000d0 23 5b f2 be c1 3f f1 3e 5d 51 aa be ca 03 86 3e
       -0.47335157 0.47118953 -0.332652 0.26174766
0000e0 1f ee 05 bf 4e b6 80 3c cd 01 9d 3d ee 50 79 be
       -0.5231647 0.01571193 0.07666359 -0.24347278
0000f0 17 fe 9d be 27 77 84 3d ea d2 cf 3d 8e 97 97 3e
       -0.30857918 0.06468039 0.101476505 0.29607815
000100 76 00 07 bf 0e b1 30 3e 7d b9 9a be f4 4f b4 3e
       -0.5273508 0.17255041 -0.3021964 0.3521725
000110 26 f2 ec be 0f ae 9d be 9d 65 47 3d a4 83 4f 3e
       -0.46278495 -0.3079686 0.04868089 0.2026506
000120 ca bd bd 3d 41 c2 31 bf 22 44 9e 3b 93 9a d7 be
       0.09264715 -0.6943703 0.0048298994 -0.42110118
000130 6f 7e 9a be 79 3d 32 3e 02 a8 cb 3e 64 ca 07 bf
       -0.30174586 0.17406262 0.39776617 -0.530432
000140 33 55 03 bd ef fc 25 3d 46 a3 6d 3e aa 9b e2 be
       -0.032063674 0.04052442 0.23206815 -0.44259387
000150 45 52 8b 3e 04 cd 0b bf 49 87 9b be 30 10 c5 be
       0.27211204 -0.54609704 -0.30376652 -0.38488913
000160 e8 ca ca be 17 e0 b1 3e cd 6d ae be 68 77 20 be
       -0.3960793 0.3474128 -0.34068146 -0.1567055
000170 41 e1 bf 3e ee aa a3 be 3a c7 41 be d4 11 95 3e
       0.37476543 -0.31966347 -0.18923655 0.29115164
000180 42 f2 77 be 5b 0d c0 3e 1e 99 cc be b2 cf ae 3e
       -0.24213508 0.3751019 -0.3996057 0.34142834
000190 94 67 e8 bd c8 0a bc be 49 c2 a4 3e 8c 3b 36 be
       -0.11347881 -0.36726975 0.32179478 -0.17796153
0001a0 96 80 2c bd 7b bc 71 be 9e 03 00 3f f3 8b 60 be
       -0.042114817 -0.23607056 0.5000552 -0.21928386
0001b0 b4 57 21 3d bc 15 96 bd 85 3d 34 3e 59 c0 86 be
       0.03939028 -0.07328364 0.17601593 -0.26318625
0001c0 45 e1 c6 3d c4 93 d4 be 3d 8e c1 bd 67 f5 44 bf
       0.097109355 -0.41518986 -0.09450958 -0.76936954
0001d0 53 9f 2e 3e ef b8 80 be 3c 5d 96 3d 76 cc 20 bf
       0.17052965 -0.25141093 0.07342002 -0.6281198
0001e0 ef 59 cc be d6 6c 2a bf ac c8 13 bf f5 70 23 bf
       -0.39912364 -0.6657232 -0.57728076 -0.63844234
0001f0 62 27 d9 3e 98 ec 0b bf 4a c9 27 3e d9 1b 7c be
       0.4241286 -0.5465789 0.1638538 -0.24619998

net.2.weight f4 [2, 128]
000000 a7 ff b6 bc 23 3f 66 3e d5 62 60 3d 8c 28 35 3d
       -0.022338701 0.22485022 0.054781754 0.04422812
000010 7c fd ae 3d f4 69 21 be ce 63 43 bd 5e 36 fc bd
       0.08544442 -0.15763074 -0.047702603 -0.12315057
000020 be 5b c0 3c 46 19 09 3c 3f bc 4a 3e 0a 01 35 be
       0.023481246 0.008367842 0.19798373 -0.17676178
000030 7f d2 f1 ba 17 74 b0 bd 37 11 02 3e c8 3f 88 be
       -0.0018449574 -0.086158924 0.1270188 -0.2661116
000040 a8 d2 34 3d d7 21 11 be 8f 5e 9d 3c 3b 0f 1b be
       0.04414621 -0.14173065 0.019210128 -0.15142529
000050 76 bc 4b 3e 67 68 0d bd ee 93 b7 3e b2 5f d1 3e
       0.19896111 -0.034523394 0.3585505 0.40893322
000060 6b 86 4c 3e 4a b3 44 3d 40 88 f6 be a6 f0 cd bd
       0.19973151 0.048022546 -0.48150826 -0.10055666
000070 85 0f 3b bc a7 3d 78 3e d1 97 9b bd 08 d0 d1 bd
       -0.011417274 0.24242269 -0.07597316 -0.10244757
000080 5d 4e 80 3d 84 02 d6 be 50 aa c7 3e da 6a d5 bd
       0.062649466 -0.41798794 0.38997126 -0.10420771
000090 6a 94 0a 3d c4 db bf be 67 8f 5f be dd 1b 85 bd
       0.033832945 -0.37472355 -0.21832047 -0.06499455
0000a0 20 68 0b bc 91 c6 bd bc f4 69 4a 3e 61 ae 85 3e
       -0.008508712 -0.023165973 0.1976698 0.26109603
0000b0 69 11 b8 bd f9 e2 a1 be a3 a0 7b 3d 26 bd 9e 3a
       -0.08987696 -0.3161848 0.061432492 0.0012110814
0000c0 bf 67 45 3e b8 52 db bd 61 24 39 3b b2 e9 83 bd
       0.19277857 -0.10709137 0.0028250443 -0.06441058
0000d0 43 18 0a 3d 6a ed bc be 28 0b 2d 3b bd fd c8 3d
       0.033714544 -0.36899883 0.0026404355 0.09814022
0000e0 05 0a 81 3d 7f 35 9c 3e 4a d4 62 3e 78 1b 3b be
       0.06300739 0.30509564 0.22151294 -0.18272197
0000f0 6a 96 9e bd 3b 2c b5 3e ad d5 c2 be fe 62 c5 bc
       -0.07743533 0.35385308 -0.38053647 -0.024095055
000100 0e f8 da bd fb f8 06 3e a5 ca 27 be 94 6a 34 be
       -0.10691844 0.13180916 -0.16385897 -0.17618781
000110 17 a8 20 bd 0a 61 1a bd 90 9e 9f 3d 39 d7 93 3e
       -0.039222803 -0.0376902 0.07793915 0.2887514
000120 87 b0 5b 3e 81 a5 54 bc b1 04 a7 3d d8 08 15 bb
       0.21454059 -0.012978912 0.08155192 -0.0022740867
000130 a2 9a b1 3b 7d 17 aa 3d e4 44 4f be e3 f5 11 3c
       0.005420045 0.08305261 -0.20241123 0.008908722
000140 fc f7 54 3e 3d d9 75 3e d2 42 e0 be 53 91 68 3d
       0.20797724 0.24008651 -0.4380098 0.056779217
000150 44 f8 a9 be 2b 0b 93 bc 15 5f 17 be c7 73 63 3d
       -0.33197224 -0.017949661 -0.14782365 0.055530336
000160 18 e1 30 3d 16 b4 43 be 86 61 21 be f0 ed 45 3e
       0.043183416 -0.19111666 -0.15759858 0.19329047
000170 94 09 97 3d c4 e7 42 3c 22 d1 28 3d 6a 84 ac 3e
       0.07374874 0.011896078 0.04121507 0.33694774
000180 dd ef d5 be 9b 39 47 3e a4 95 a4 bc ba ac 8a 3d
       -0.41784564 0.19455568 -0.020090885 0.06771226
000190 e2 08 18 be 0f b4 82 be c4 6a 15 be 42 62 15 3e
       -0.14847139 -0.25528 -0.14591509 0.14588264
0001a0 86 54 28 3e 43 a5 47 3e be 4d 98 bd 6a 51 a2 be
       0.16438493 0.19496636 -0.07436703 -0.3170274
0001b0 34 12 b7 3e 00 da a1 be 53 0e 4e 3d ec f5 8e bc
       0.35756075 -0.31611633 0.05030663 -0.017451249
0001c0 87 5c e3 bd b7 76 7f bd ff 5d db 3d 0b 42 a3 3d
       -0.111016326 -0.062369075 0.10711288 0.07971581
0001d0 64 fa 62 be e6 8e 7b bd 6a 83 42 3e bf 76 7a 3e
       -0.22165829 -0.061415575 0.18995443 0.2445936
0001e0 9d 18 01 3e b3 ee 20 3d 3e 51 9f bd 5e fb f5 3d
       0.12607045 0.03929014 -0.077791676 0.12010835
0001f0 38 e4 18 bf 04 2f c2 ba 3f 4d 99 be 56 0d 10 3c
       -0.59723234 -0.0014815037 -0.29941747 0.008792242
000200 8d b4 0d bc 0c 37 f4 bd cb b9 c4 bd 80 a6 f6 bc
       -0.008649004 -0.11924562 -0.0960575 -0.03010869
000210 60 bb 54 bc f1 c2 62 3e 9d 94 19 3e 1d 48 c5 3d
       -0.012984127 0.22144677 0.14998098 0.09632895
000220 ae 41 25 be e7 ba eb bd cc 13 30 be 30 c7 4e 3d
       -0.16138336 -0.11510258 -0.17195052 0.05048293
000230 0d 2b f6 bc 91 48 aa 3b 05 ee 10 be 78 a2 a2 3e
       -0.030049825 0.005196639 -0.14153297 0.3176458
000240 13 16 34 bd 6e 8e ab 3c f7 ff 4b bc 48 75 75 3e
       -0.043966364 0.02094194 -0.0124511635 0.2397052
000250 47 a3 96 be 35 b2 88 bd e1 19 ad be 70 b3 eb be
       -0.29421446 -0.06674615 -0.33808807 -0.46035337
000260 85 dd 97 be 97 db 1f 3b 22 86 bf 3e 45 b3 33 3c
       -0.29661193 0.002439236 0.37407023 0.010968034
000270 20 78 80 3d e0 af 9a be da 38 29 3d a5 8f 07 3e
       0.06272912 -0.30212307 0.041313984 0.1323839
000280 72 b2 94 3d 91 22 c3 3e 45 5f 90 be 1b 10 43 3d
       0.07260598 0.3811231 -0.28197685 0.04762278
000290 16 14 21 be 8f 25 ae 3e e5 79 85 3e ed 7b fb bc
       -0.15730318 0.3401303 0.2606956 -0.03069874
0002a0 5b 3f 20 bd 56 ce ee 3d b5 60 7c be 57 31 3a be
       -0.03912292 0.11660449 -0.24646266 -0.18182884
0002b0 12 1b 87 bd 1a 43 f2 3e 6a c2 f0 bd f8 83 a8 3d
       -0.0659696 0.4731682 -0.117558315 0.08228296
0002c0 d0 a8 0e be 3a a4 14 ba c8 3d 9f bd 80 6f 48 3e
       -0.13931584 -0.00056702236 -0.07775456 0.19573784
0002d0 9c 7f c4 3c 8c 27 92 3e 25 ed 74 3d 88 6d 86 bd
       0.02398663 0.28545797 0.05979647 -0.0656386
0002e0 ef bd e0 bb 8e 71 96 be 5b d9 53 be 39 3e fe 3d
       -0.0068585793 -0.2938351 -0.20688383 0.12414212
0002f0 07 d1 89 bc 5b d0 d8 be b5 37 74 3e 52 07 3d 3d
       -0.016823305 -0.42346463 0.23849376 0.04614956
000300 17 bf d7 3d db 62 57 be 3f ec 05 3e b3 f4 27 3e
       0.10534494 -0.21033804 0.13078402 0.16401939
000310 4a 06 c7 bd 2d 78 c0 bd c2 e0 2a ba 3b 99 60 be
       -0.097179964 -0.09397922 -0.0006518477 -0.21933453
000320 1a d8 6c be e2 73 86 3d 40 6a 8a 3d e4 45 f0 3c
       -0.23129311 0.06565072 0.06758547 0.029330201
000330 a6 56 47 bc 4a 2d 18 be 47 81 36 3e 3b 84 9d bc
       -0.012166655 -0.14861026 0.17822753 -0.019228091
000340 8a 80 63 be fe 01 b1 be ae 79 e7 3e 73 2d 69 3d
       -0.22217003 -0.34571832 0.45210022 0.05692811
000350 0b ed 94 3e 33 94 87 bc 23 16 80 3e c2 9d 7f bd
       0.290871 -0.01655016 0.2501689 -0.06240631
000360 98 77 f3 bc 1a 42 38 3e 8f eb 67 3e a3 79 86 be
       -0.029720113 0.17993966 0.22648452 -0.26264676
000370 97 61 12 bd 25 6c a2 bd e4 e1 40 bd cc d6 aa be
       -0.0357376 -0.07930783 -0.047090426 -0.33367002
000380 b9 12 b8 3e 95 2e 56 be 36 85 0d bd b8 74 cb bd
       0.35951784 -0.20916207 -0.034550868 -0.09934372
000390 b8 aa 0b 3e e9 67 82 3e 62 59 ac 3d 28 0d bb bd
       0.13639343 0.25469902 0.08415486 -0.09133369
0003a0 09 9a 8e bd da 2c 64 be 90 ba ab 3d ce 25 30 3e
       -0.069629736 -0.22282735 0.08385193 0.17201921
0003b0 20 7e 6e be 41 22 ae 3e f6 c3 c4 bd 14 28 00 bd
       -0.232903 0.3401051 -0.09607689 -0.03128822
0003c0 98 e8 81 3e 88 b2 91 bc 1f d8 c5 bd 81 48 c1 bd
       0.25372767 -0.017785326 -0.096603625 -0.09437657
0003d0 cd 2d 4f 3e 48 0a 0b 3e 05 b5 5f be 1c e0 81 be
       0.20232315 0.1357814 -0.21846397 -0.25366294
0003e0 04 c5 1d be 9c 52 98 bd 4d 9b 22 bd 63 d0 1a 3c
       -0.15407187 -0.074376315 -0.039698888 0.009449097
0003f0 9d 96 05 3f 14 83 a6 3d 82 8d 6e 3e 98 e0 75 bd
       0.5218294 0.0813047 0.23296168 -0.060028642

net.2.bias f4 [2]
000000 b0 0d ad 3b af 09 49 3d
       0.0052811727 0.0490815
