Teaching Content/L4T4 - Pytorch/cartpole demo/checkpoints/policy_ep0250.pth (torch, 5824 bytes, 4 tensors)

net.0.weight f4 [128, 4]
0	0x3e3a1941	0.18173696
1	0x3cbcf0fa	0.023064125
2	0xbf30ad02	-0.6901399
3	0xbeb7cab0	-0.35896826
4	0x3cdf428d	0.027253414
5	0xbe65f4f6	-0.22456726
6	0xbf8834cf	-1.0641116
7	0xbf17ed71	-0.5934668
8	0x3e555bcc	0.20835799
9	0xbe32105f	-0.17389058
10	0xbe8b4eb3	-0.2720848
11	0x3d528c48	0.051403314
12	0x3ddc78d7	0.10765236
13	0xbe7b5439	-0.24543847
14	0x3e919389	0.28432873
15	0xbe3eaa0f	-0.1861956
16	0x3e272f48	0.1632663
17	0xbeacc35a	-0.3374279
18	0xbf419efe	-0.7563323
19	0xbf09cabf	-0.5382499
20	0xbeac7a0d	-0.33686867
21	0xbe4d62b2	-0.2005718
22	0x3f8016ab	1.0006918
23	0x3f3a34d4	0.7273686
24	0x3d09f21f	0.03367817
25	0xbebbff4c	-0.36718214
26	0x3ed7621a	0.42067033
27	0x3eff3f40	0.49852943
28	0x3df33c3b	0.118767224
29	0xbde8287e	-0.11335848
30	0x3f144ca5	0.5792945
31	0x3e839e9d	0.2570695
32	0x3ed6374a	0.41839057
33	0xbf1ba346	-0.6079601
34	0xbf165dca	-0.5873686
35	0xbe5dca71	-0.21659257
36	0xbe4d01f6	-0.2002028
37	0xbe9a0908	-0.30085015
38	0xbed53f48	-0.41649842
39	0x3e6e4119	0.2326702
40	0x3da8aef0	0.08236492
41	0xbefe096e	-0.4961657
42	0xbe5e711d	-0.21722837
43	0xbf3a656c	-0.7281101
44	0xbd4d8a63	-0.050180804
45	0xbe7ebb21	-0.24876072
46	0x3d221afe	0.039576523
47	0x3e4ff12a	0.2030684
48	0x3c986a8d	0.018605495
49	0xbe176a66	-0.14786682
50	0xbecdb2d4	-0.40175498
51	0xbf283467	-0.6570496
52	0xbcea556d	-0.028605187
53	0xbe4a689d	-0.1976647
54	0x3f2fd7d5	0.6868871
55	0x3ec6dada	0.38838845
56	0xbeead666	-0.45866698
57	0xbe92863c	-0.28618038
58	0xbf2a9ffe	-0.6665038
59	0xbec63be0	-0.38717556
60	0x3eb097e2	0.34490877
61	0x3eeeb986	0.46625918
62	0x3d55da36	0.052210055
63	0x3f472ea6	0.77805555
64	0x3db2710f	0.087129705
65	0xbdc28843	-0.09498646
66	0xbc0b9e8f	-0.00852169
67	0xbec3a3fc	-0.38211048
68	0x3db99004	0.09060672
69	0xbee5753b	-0.44816002
70	0xbd9fad92	-0.07796778
71	0x3e362b35	0.1778992
72	0x3c8f1ebb	0.017470708
73	0xbe0ab97a	-0.13547316
74	0xbe0b8fdf	-0.13629101
75	0xbeb2472c	-0.34819925
76	0x3d45033d	0.04809879
77	0xbaf19ec4	-0.0018434157
78	0x3f986e51	1.1908666
79	0x3f041683	0.5159685
80	0xbe31137d	-0.1729259
81	0x3d0fb45a	0.035084106
82	0xbf44d525	-0.7688773
83	0xbf26f10d	-0.65211564
84	0xbdb73488	-0.089455664
85	0x3d80da77	0.06291669
86	0xbdcfc61f	-0.101452105
87	0xbc9b10be	-0.018928882
88	0xbf081a71	-0.53165346
89	0x3e6fc20d	0.23413868
90	0xbecb3c99	-0.3969467
91	0xbe9e877e	-0.30962747
92	0xbf19bd1e	-0.60054195
93	0x3e2c9404	0.16853338
94	0xbe5dda88	-0.21665394
95	0xbf200c9e	-0.6251925
96	0xbe926bb7	-0.28597805
97	0xbddfa0d4	-0.109193474
98	0xbf38a03d	-0.72119504
99	0xbef89887	-0.4855387
100	0x3dd2e81c	0.102981776
101	0x3d2f1b69	0.04275075
102	0xbf33c2ca	-0.702191
103	0xbeec0032	-0.460939
104	0x3e5e7368	0.21723711
105	0x3e7d9415	0.2476352
106	0x3fb09bbd	1.3797528
107	0x3eb5bf11	0.35497335
108	0xbd826ff7	-0.06369012
109	0x3c3d4827	0.011552847
110	0xbe07462e	-0.13210365
111	0x3eb277df	0.3485708
112	0x3e270256	0.16309485
113	0xbc1d7ec7	-0.009612746
114	0x3deec157	0.116579704
115	0x3eb099ef	0.34492442
116	0xbeefbd33	-0.46824035
117	0x3e9cb371	0.30605653
118	0xbe3b2c0c	-0.18278521
119	0x3e226722	0.15859655
120	0xbb2664da	-0.0025389702
121	0x3e48256e	0.19545528
122	0xbdd52734	-0.10407868
123	0xbe9fac16	-0.3118598
124	0xbed0ebc7	-0.40804884
125	0xbed681a0	-0.4189577
126	0xbcf0fdbe	-0.029417869
127	0x3f0c593f	0.5482368
128	0x3de836d9	0.11338586
129	0xbeeeea7a	-0.46663266
130	0x3f135853	0.5755665
131	0x3ebac542	0.3647862
132	0x3e9d9a9f	0.3078203
133	0x3e92dbdb	0.2868336
134	0x3fb4cb8f	1.4124621
135	0x3f215f96	0.6303648
136	0xbf4321e0	-0.76223564
137	0x3e9981f5	0.29981962
138	0xbf6f9f85	-0.9360278
139	0xbf0fd450	-0.5618334
140	0xbd95d15c	-0.07315323
141	0x3f03ea39	0.5152927
142	0x3ec47b88	0.38375497
143	0x3f02d29e	0.51102626
144	0x3ddef760	0.10887027
145	0xbe039827	-0.1285101
146	0xbf280391	-0.6563044
147	0xbf54d48c	-0.8313682
148	0x3e1b3c47	0.15159713
149	0x3e32edf7	0.17473589
150	0x3f674acc	0.90348506
151	0x3f23096b	0.63686246
152	0x3e058f0f	0.13042854
153	0x3ea31083	0.31848535
154	0xbf24202f	-0.6411161
155	0xbd9cc38a	-0.076544836
156	0x3b8eb8f3	0.0043555438
157	0xbe4179b5	-0.18894084
158	0xbd0fd178	-0.035111874
159	0x3eb40b28	0.35164762
160	0x3dfbd5d6	0.12296645
161	0xbe4f75e6	-0.20259818
162	0xbf04a41f	-0.5181293
163	0xbebff021	-0.3748789
164	0x3dcf9465	0.10135726
165	0xbdce8dc0	-0.100856304
166	0xbd146098	-0.03622493
167	0x3ca421ca	0.020035643
168	0xbd5a81d5	-0.053346474
169	0xbea80837	-0.32818767
170	0xbf81f1f8	-1.0151968
171	0xbedde7a7	-0.433408
172	0x3d7a7240	0.061144114
173	0xbe58f951	-0.21188857
174	0xbf9aea96	-1.210284
175	0xbf245344	-0.64189553
176	0x3dcfeb5a	0.101523116
177	0x3d9a86d1	0.075452454
178	0xbebf49bb	-0.3736094
179	0xbe0a0b1f	-0.13480805
180	0x3e8b3035	0.27185217
181	0x3f169b1a	0.58830416
182	0x3fa974fb	1.3238825
183	0x3f31e306	0.69487035
184	0x3edcf2f3	0.43154106
185	0xbf0a5a28	-0.5404382
186	0xbe18dfab	-0.14929073
187	0xbf03ee16	-0.51535165
188	0x3ccdeb2d	0.025136555
189	0x3cf6d14a	0.030129094
190	0x3bb03545	0.005377444
191	0xbe19f151	-0.15033461
192	0x3d887ca9	0.06664402
193	0xbeb5e871	-0.355289
194	0xbf82a97d	-1.0207974
195	0xbf1eae4e	-0.6198472
196	0xbeadeaa0	-0.33968067
197	0xbe640a46	-0.22269544
198	0xbc03258c	-0.008004557
199	0x3eefeea6	0.46861762
200	0xbda50ade	-0.080587134
201	0xbed9f0f0	-0.42566633
202	0xbf3dbdbc	-0.74117637
203	0xbea3008c	-0.31836355
204	0x3e372282	0.17884257
205	0x3e8ec66e	0.27885765
206	0x3ef9c22d	0.48780957
207	0x3ea1cb9b	0.3160065
208	0xbdeb2ce6	-0.11483173
209	0x3e68f907	0.22751246
210	0xbe20d272	-0.15705279
211	0xbe89e8c1	-0.2693539
212	0x3cedad96	0.029013436
213	0x3ef70d1f	0.48252198
214	0x3f473f7b	0.7783124
215	0x3f55bddc	0.8349283
216	0x3d930fd3	0.071807526
217	0xbe9f1c43	-0.3107625
218	0x3e2413df	0.16023205
219	0x3e975f39	0.29564837
220	0xbdcac2b2	-0.099004164
221	0xbd513803	-0.051078808
222	0xbf541032	-0.8283721
223	0xbf1eae55	-0.6198476
224	0x3df40e02	0.11916734
225	0xbc4add3c	-0.012381848
226	0xbecb3cd7	-0.39694855
227	0xbe8e06fc	-0.27739704
228	0xbee71ffa	-0.45141584
229	0x3e9c9499	0.3058212
230	0xbe963ff2	-0.2934566
231	0x3db34d31	0.087549575
232	0xbecb7b91	-0.3974271
233	0x3e90c45f	0.2827482
234	0xbe9bad90	-0.30405855
235	0xbec377c0	-0.381773
236	0xbe9fba57	-0.31196854
237	0xbe9e7778	-0.30950522
238	0x3de1f2f4	0.11032668
239	0x3f09779d	0.5369814
240	0x3d5e8c8f	0.054333266
241	0xbe61d7f9	-0.22055043
242	0xbe9d6635	-0.3074204
243	0x3d874081	0.066041
244	0xbf0c751e	-0.54866207
245	0x3df826f6	0.12116806
246	0xbf4660d3	-0.7749149
247	0xbf1c5bd2	-0.61077607
248	0x3e93b6a6	0.28850287
249	0x3e8ef0e5	0.27918163
250	0x3f677eff	0.90428156
251	0x3f315066	0.69263303
252	0xbc61b894	-0.013776917
253	0x3d4a1279	0.049334023
254	0xbe874832	-0.26422268
255	0xbe0d92cf	-0.13825534

net.0.bias f4 [128]
0	0x3e1a9c9b	0.15098803
1	0x3e44b9a6	0.19211444
2	0xbf10fbaa	-0.5663401
3	0xbf0ada43	-0.5423929
4	0x3d4c40ec	0.0498666
5	0x3e2cdcf3	0.1688116
6	0xbeec07d7	-0.4609973
7	0x3e783d0a	0.24242035
8	0xbe7a3d23	-0.24437384
9	0xbe523413	-0.20527677
10	0x3ded4407	0.11585241
11	0xbebe5fad	-0.3718237
12	0x3e271481	0.16316415
13	0xbeaf403f	-0.34228703
14	0x3e7cec70	0.24699569
15	0xbdb463d3	-0.088081025
16	0xbf053656	-0.52036035
17	0xbeed9773	-0.4640461
18	0xbef7da84	-0.48408902
19	0x3efddb12	0.495812
20	0x3d2a44d7	0.041569557
21	0xbe9da05d	-0.3078641
22	0xbdf925e2	-0.12165429
23	0xbdf21590	-0.11820519
24	0x3df212b3	0.11819973
25	0xbebfe49e	-0.3747911
26	0x3ea6a0f8	0.32544684
27	0xbeea23dd	-0.45730487
28	0xbed9ef4c	-0.42565382
29	0xbe2a0ed2	-0.16607216
30	0xbea191a1	-0.3155642
31	0xbea65517	-0.32486793
32	0xbebd2db6	-0.36948937
33	0x3ee25bdd	0.4421071
34	0xbe0aecf4	-0.13566953
35	0x3eb03e1f	0.34422395
36	0x3ed7ca6b	0.4214662
37	0x3eaeb0e9	0.34119347
38	0xbed3d48b	-0.41373095
39	0xbe98b673	-0.29826698
40	0xbe1dd0c9	-0.15411676
41	0xbee1c6a4	-0.44096863
42	0x3dcbb2f3	0.09946241
43	0x3e454e79	0.19268216
44	0xbf17038a	-0.58989775
45	0x3eea0bf3	0.45712242
46	0xbf059130	-0.52174664
47	0xbee00af8	-0.43758368
48	0x3e7c241a	0.24623147
49	0xbead0492	-0.3379255
50	0x3e536d1f	0.20647095
51	0x3e79814d	0.2436573
52	0xbefa6695	-0.4890639
53	0x3f0156f3	0.505233
54	0xbeadcced	-0.33945408
55	0x3e5232d9	0.2052721
56	0xbf05ee28	-0.5231652
57	0xbe133824	-0.14376885
58	0xbd1d83db	-0.038455825
59	0xbe75b52c	-0.23994893
60	0xbe9f63b4	-0.31130755
61	0xbd5e90b9	-0.054337237
62	0x3da30fc7	0.07961994
63	0x3e9447ee	0.28961128
64	0xbf06e53d	-0.5269354
65	0x3e05275d	0.13003297
66	0xbea88598	-0.32914424
67	0x3ebf8c1c	0.37411582
68	0xbeed0a3e	-0.46296877
69	0xbe8f4ee9	-0.2798989
70	0xbc9b8991	-0.018986495
71	0x3e2308cd	0.15921326
72	0x3d0cbcb9	0.034359667
73	0xbf31c49f	-0.69440645
74	0xbd228219	-0.039674852
75	0xbed9ecd8	-0.4256351
76	0xbe9567c2	-0.29180723
77	0x3df391a6	0.118930146
78	0x3ef36376	0.4753682
79	0xbf07ca64	-0.530432
80	0xbc9da0a5	-0.01924164
81	0x3d84c9d4	0.06483808
82	0x3e94738a	0.289944
83	0xbee32430	-0.44363546
84	0x3e957121	0.29187873
85	0xbf0cad12	-0.54951584
86	0xbe9af337	-0.30263683
87	0xbec51030	-0.38488913
88	0xbecacae8	-0.3960793
89	0x3ec35e86	0.38158053
90	0xbeb027f3	-0.3440548
91	0xbe9b9a99	-0.30391386
92	0x3eae8725	0.34087482
93	0xbea3ab06	-0.31966418
94	0xbe427185	-0.18988617
95	0x3e80df45	0.2517034
96	0xbe5ddc61	-0.21666099
97	0x3ea90639	0.3301256
98	0xbec7094d	-0.38874283
99	0x3e8fb9d0	0.2807145
100	0xbe2744f4	-0.16334897
101	0xbebbf15a	-0.36707574
102	0x3eb31fc7	0.34985182
103	0xbe099c77	-0.13438593
104	0xbd14e7c2	-0.036353834
105	0xbe86d8c2	-0.26337248
106	0x3f032a14	0.5123608
107	0xbe4a3a26	-0.19748744
108	0x3d315524	0.043294087
109	0xbda433f6	-0.08017723
110	0x3e1f8e26	0.15581569
111	0xbeba1d3c	-0.3635043
112	0x3e1a553f	0.15071581
113	0xbed493c4	-0.41518986
114	0xbdcd62e0	-0.100286245
115	0xbf450566	-0.7696136
116	0x3e7cb038	0.24676597
117	0xbe834f0e	-0.2564625
118	0xbdc0c726	-0.094129845
119	0xbeee9fb6	-0.46606225
120	0xbecc5a15	-0.39912477
121	0xbf2a735d	-0.6658228
122	0xbf13d6d9	-0.57749707
123	0xbf2374cc	-0.6385009
124	0x3eed9e04	0.4640962
125	0xbf0c84c5	-0.5489009
126	0x3e829e27	0.25511286
127	0xbe6c18cb	-0.23056333

net.2.weight f4 [2, 128]
0	0xbd0436a1	-0.03227866
1	0x3e4e61b5	0.2015446
2	0x3d60703f	0.054794546
3	0x3d3541cb	0.0442522
4	0x3dc8d6b9	0.0980658
5	0xbe02ac73	-0.12761097
6	0xb9996388	-0.0002925659
7	0xbdb5d63e	-0.08878754
8	0x3d061d52	0.032742806
9	0x3b307222	0.0026923497
10	0x3e6023bc	0.21888632
11	0xbe2e203d	-0.17004485
12	0xbcc201e2	-0.023682538
13	0xbd47e836	-0.048805438
14	0x3dc9ecdf	0.09859633
15	0xbe84aad2	-0.25911576
16	0x3d34d2a8	0.04414621
17	0xbe060871	-0.13089158
18	0x3c9d5e21	0.019209923
19	0xbe21c2ca	-0.15796962
20	0x3e08deb4	0.13366205
21	0xbd0d6867	-0.034523394
22	0x3e9aa10a	0.30200988
23	0x3eb4ec29	0.35336426
24	0x3e0ded9b	0.1386017
25	0x3d3272f1	0.043566648
26	0xbf02c597	-0.5108275
27	0xbdcdf0a6	-0.10055666
28	0xbc3f4580	-0.011674285
29	0x3e2fe358	0.17176569
30	0x3cfa74e4	0.030573316
31	0xbd629371	-0.055316392
32	0x3de16b66	0.11006813
33	0xbedf2fd5	-0.4359118
34	0x3eaa094f	0.33210227
35	0xbe161c57	-0.14659248
36	0x399079c6	0.0002755655
37	0xbeb1fec8	-0.34764695
38	0xbe744367	-0.23853837
39	0xbd0f178f	-0.034934577
40	0xbc0fbf86	-0.00877369
41	0xbcbdc6e7	-0.023166133
42	0x3e4cd932	0.20004728
43	0x3e72d7e2	0.23715165
44	0xbdb8112d	-0.08987651
45	0xbeb5c04c	-0.35498273
46	0x3d79d62b	0.060995262
47	0x3a9ebd26	0.0012110814
48	0x3e3bd715	0.18343766
49	0xbd83004d	-0.06396542
50	0x3c41c2ca	0.0118262265
51	0xbd9c8952	-0.07643379
52	0x3aef062b	0.0018236091
53	0xbecc997b	-0.39960846
54	0x3ce97045	0.028495917
55	0x3d6ef7f0	0.05834192
56	0x3d8109eb	0.0630072
57	0x3e65a36b	0.2242562
58	0x3e216778	0.15762126
59	0xbe00fad2	-0.1259568
60	0xbd9ae8d9	-0.075639434
61	0x3e95a3c6	0.29226512
62	0xbebc0a6a	-0.36726695
63	0xbd251a5f	-0.040308353
64	0xbddb990a	-0.10722549
65	0x3dd85894	0.1056377
66	0xbdff8b52	-0.12477745
67	0xbe593488	-0.21211445
68	0xbd20be8e	-0.039244227
69	0x3b6284df	0.003456406
70	0x3d8973a9	0.067115135
71	0x3e81f104	0.25379193
72	0x3e709357	0.23493706
73	0xbc551472	-0.013005363
74	0x3e085df4	0.1331709
75	0xbb4b4c37	-0.003102077
76	0x3cc12e58	0.023581669
77	0x3df11c18	0.117729366
78	0xbe43f452	-0.1913617
79	0x3c11f5e3	0.008908722
80	0x3e6851f1	0.22687508
81	0x3e87b9b7	0.26508877
82	0xbef0afbb	-0.47009072
83	0x3da38aef	0.07985484
84	0xbebcc8c0	-0.3687191
85	0xbc8cb4da	-0.01717608
86	0xbe1f0ef6	-0.15533051
87	0x3d6373c7	0.055530336
88	0x3d30e118	0.043183416
89	0xbe7251e8	-0.23664057
90	0xbe2613bb	-0.16218464
91	0x3e333df9	0.1750411
92	0x3d2196b4	0.039450362
93	0x3c42eb09	0.011896857
94	0x3d28aaeb	0.041178625
95	0x3e9a61cc	0.30152738
96	0xbeda6293	-0.4265333
97	0x3e262106	0.16223535
98	0x3c0b0810	0.008485809
99	0x3d1ab3c8	0.03776911
100	0xbdcadd46	-0.09905486
101	0xbe85d640	-0.26140022
102	0xbe2d5fc9	-0.1693107
103	0x3e2fae8a	0.17156425
104	0x3e3af8b6	0.18258938
105	0x3e494338	0.19654548
106	0xbddc89a9	-0.10768444
107	0xbea2d355	-0.3180186
108	0x3ec1673e	0.3777408
109	0xbea58835	-0.3233048
110	0x3d6c7eba	0.057738043
111	0xbba72e75	-0.0051019737
112	0xbdbab381	-0.09116269
113	0xbd7f76bd	-0.062369097
114	0x3dcf6381	0.10126401
115	0x3da340c8	0.079713404
116	0xbe7cb96f	-0.24680112
117	0xbd4f064e	-0.050543122
118	0x3e0d7a09	0.13816084
119	0x3ecc5f6e	0.39916557
120	0x3e0118ed	0.12607165
121	0x3d210274	0.03930898
122	0xbd9fc0ad	-0.07800422
123	0x3df60db5	0.12014333
124	0xbf294bce	-0.66131294
125	0xbab067a7	-0.0013458625
126	0xbea66884	-0.32501614
127	0x3c2492bc	0.01004475
128	0x3aa93534	0.0012909533
129	0xbdc47c33	-0.095940016
130	0xbdc4c081	-0.0960703
131	0xbcf6d8f5	-0.03013275
132	0xbcd1c29e	-0.025605496
133	0x3e440570	0.19142699
134	0x3dd210b8	0.10257095
135	0x3d7dcff8	0.061965913
136	0xbe2ebd8a	-0.17064491
137	0xbde01b4e	-0.10942708
138	0xbe457b4b	-0.19285314
139	0x3d3343f2	0.04376597
140	0xbc068ca3	-0.008212241
141	0xbd03b6e0	-0.032156825
142	0xbde7a679	-0.11311049
143	0x3e9f0d82	0.31064993
144	0xbd341613	-0.043966364
145	0x3c258683	0.010102871
146	0xbc4bff16	-0.012450954
147	0x3e7c28d5	0.24624951
148	0xbe6a68c8	-0.22891533
149	0xbd88b235	-0.06674615
150	0xbe9026fc	-0.28154743
151	0xbecf3fe7	-0.4047844
152	0xbe712232	-0.235482
153	0x3be1f0a9	0.006895144
154	0x3ece8913	0.40338954
155	0x3c33b345	0.010968034
156	0x3d80fee0	0.062986135
157	0xbe6d0573	-0.2314661
158	0xbd85989c	-0.065232486
159	0x3dae98fd	0.08525274
160	0x3cce55a3	0.02518732
161	0x3ecc4fe2	0.39904696
162	0xbe657c8c	-0.22410792
163	0x3db855e6	0.09000759
164	0xbdfd6e79	-0.123745866
165	0x3ea04893	0.3130537
166	0x3e8fd3e2	0.2809134
167	0xbd78de23	-0.06075872
168	0xbd1f2981	-0.03885794
169	0x3deece69	0.11660463
170	0xbe7ecff4	-0.24884015
171	0xbe21ac74	-0.15788442
172	0xbd871b4e	-0.06597005
173	0x3f031036	0.5119661
174	0xbdefdd34	-0.11712113
175	0x3da883f8	0.08228296
176	0xbe051825	-0.12997492
177	0xbd32f765	-0.043692965
178	0xbdb1acfe	-0.08675574
179	0x3e54bf52	0.20776108
180	0x3d64dfe1	0.05587757
181	0x3ea1d39e	0.31606764
182	0x3d0b05b7	0.033940997
183	0xbcd3af0c	-0.025840305
184	0xbbe0bc23	-0.006858365
185	0xbe5a1b89	-0.21299566
186	0xbe126c89	-0.14299215
187	0x3d89fcec	0.06737694
188	0xbc988751	-0.018619211
189	0xbeb947e7	-0.3618767
190	0x3e66a133	0.2252243
191	0x3d7f7035	0.06236287
192	0x3dd86013	0.105652
193	0xbe3c9628	-0.18416655
194	0x3dbbce81	0.09170247
195	0x3e4cbea5	0.199946
196	0xbdc6fb0d	-0.09715853
197	0xbe0a5e6d	-0.13512583
198	0x3c26a921	0.010172159
199	0xbe3cccc6	-0.1843749
200	0xbe80dd74	-0.25168955
201	0x3d8681c4	0.065677196
202	0x3c82cc29	0.015966492
203	0x3cf70e50	0.030158192
204	0xbcf87302	-0.030328277
205	0xbe3baf98	-0.18328702
206	0x3e2b30b6	0.167178
207	0xbc9d843b	-0.019228091
208	0xbe76da7f	-0.24106787
209	0xbebdcf18	-0.37072062
210	0x3ef7e697	0.48418114
211	0x3d0aa8e8	0.033852488
212	0x3ea7bd87	0.32761785
213	0xbc8dea84	-0.01732374
214	0x3e83ee0f	0.25767562
215	0xbd7f9dc2	-0.06240631
216	0xbcf37798	-0.029720113
217	0x3e66dfeb	0.22546355
218	0x3e6c9dc4	0.23107058
219	0xbe7a434e	-0.24439737
220	0xbabca31f	-0.0014391876
221	0xbda26c8b	-0.07930859
222	0xbd40bbad	-0.04705398
223	0xbe98b42e	-0.29824966
224	0x3ebc856f	0.36820552
225	0xbe351601	-0.17684175
226	0xbd814904	-0.06312755
227	0xbd8e21dd	-0.06940053
228	0x3db220f4	0.086976916
229	0x3e858a1a	0.26081926
230	0x3ddc436a	0.10755046
231	0xbdefa5be	-0.11701535
232	0xbdb3e266	-0.087834165
233	0xbe65cacf	-0.22440647
234	0x3deff678	0.11716932
235	0x3e3129a4	0.17301041
236	0xbe81941c	-0.2530831
237	0x3eb1d076	0.34729356
238	0xbdd3fc2a	-0.10350831
239	0xbd32bd3f	-0.04363751
240	0x3e6f7ca9	0.23387398
241	0xbc91b279	-0.017785298
242	0xbdb9dda1	-0.090754755
243	0xbdc1473e	-0.094374165
244	0x3e68ecda	0.22746602
245	0x3dffd041	0.12490893
246	0xbe2aaba3	-0.16667037
247	0xbed1042b	-0.40823492
248	0xbe1dc554	-0.15407306
249	0xbd985c7b	-0.07439514
250	0xbd21bc6e	-0.03948634
251	0x3c1a3da2	0.0094141085
252	0x3f15fe33	0.58591
253	0x3da63bf7	0.08116906
254	0x3e846206	0.25856036
255	0xbd7b01f4	-0.06128116

net.2.bias f4 [2]
0	0xbcce515c	-0.02518528
1	0x3da2ea08	0.07954794
