Teaching Content/L4T4 - Pytorch/cartpole demo/checkpoints/policy_ep0100.pth (torch, 5824 bytes, 4 tensors)

net.0.weight f4 [128, 4]
0	0x3e8bd7a7	0.27312967
1	0x3e55b155	0.20868428
2	0xbedcf7a4	-0.43157685
3	0xbe47b02e	-0.19500801
4	0x3db5b572	0.088724986
5	0xbd384121	-0.044983987
6	0xbf304c53	-0.6886646
7	0xbefd7957	-0.49506637
8	0x3e7c85b2	0.24660376
9	0xbe2e8d7d	-0.17046161
10	0xbe7ce8d1	-0.24698187
11	0x3c713c90	0.014723912
12	0x3e531130	0.20612025
13	0xbe15f500	-0.14644241
14	0x3ec1289e	0.377263
15	0xbe919016	-0.2843024
16	0x3e7d1b26	0.24717388
17	0xbd8ceb1e	-0.068807825
18	0xbeca92b4	-0.3956505
19	0xbf0132ac	-0.50467944
20	0xbeb639ae	-0.3559088
21	0xbe7ca34a	-0.24671665
22	0x3f4d961c	0.80307174
23	0x3f30727a	0.6892468
24	0x3ce38ebd	0.027778024
25	0xbeefe751	-0.46856168
26	0x3ea06b96	0.31332082
27	0x3f1b31ca	0.6062285
28	0x3ebbedf5	0.36704984
29	0xbe3757c5	-0.17904575
30	0x3eafff43	0.34374437
31	0x3e8f38ea	0.2797311
32	0x3ee80b89	0.453213
33	0xbec1f0bd	-0.3787898
34	0xbe2f7814	-0.1713565
35	0xbdff1855	-0.12455813
36	0xbe7d8507	-0.24757777
37	0xbe4c2a1a	-0.19937935
38	0xbeb095ca	-0.3448928
39	0x3df5d0fd	0.12002752
40	0x3dd39dbf	0.10332822
41	0xbec793b1	-0.38979867
42	0x3d90dd08	0.07073408
43	0xbf1c8285	-0.61136657
44	0xbda14780	-0.07874966
45	0xbea5c7e8	-0.3237908
46	0xbbf9f0d4	-0.007627586
47	0x3e92415b	0.28565487
48	0x3de8e81e	0.11372398
49	0x3d86997b	0.06572243
50	0xbd457f89	-0.04821733
51	0xbf079f9d	-0.52977926
52	0xbad5b2d4	-0.0016303905
53	0xbe9abf80	-0.30224228
54	0x3f08a0a3	0.5337011
55	0x3efc86ae	0.49321502
56	0xbf0378d6	-0.51356256
57	0xbe8a032d	-0.26955548
58	0xbebf4f9e	-0.3736543
59	0xbeb94d4f	-0.36191794
60	0x3e5652cb	0.2093002
61	0x3f082359	0.53178936
62	0xbe2c10a8	-0.16803229
63	0x3f23c593	0.6397335
64	0x3db27409	0.08713538
65	0xbdc28515	-0.0949804
66	0xbc0bb7dc	-0.008527722
67	0xbec3a4d2	-0.38211685
68	0x3db874b2	0.09006633
69	0xbf09230f	-0.5356912
70	0xbe2952be	-0.1653547
71	0x3e9bb3e5	0.30410686
72	0x39b721c8	0.0003492965
73	0xbe138085	-0.14404495
74	0xbe10abe9	-0.14128079
75	0xbeb75075	-0.3580357
76	0xbe5a153e	-0.21297166
77	0xbdbc68b9	-0.09199662
78	0x3f642385	0.891167
79	0x3ee7aa0f	0.45246932
80	0xbe0b8c83	-0.1362782
81	0x3dc589d8	0.09645432
82	0xbf109acc	-0.564862
83	0xbf1d2b1d	-0.6139391
84	0xbdc20052	-0.09472717
85	0x3d747be0	0.05968845
86	0xbdd3826f	-0.103276126
87	0xbc87fcdb	-0.016600063
88	0xbf0022ac	-0.50052905
89	0x3df4c1d7	0.119510345
90	0xbe2acbe8	-0.16679347
91	0xbe86e3fc	-0.26345813
92	0xbf126282	-0.5718156
93	0x3d2d8d29	0.04237095
94	0x3d6a0e70	0.057142675
95	0xbf1845b8	-0.5948138
96	0xbe8f53ff	-0.2799377
97	0xbd81f192	-0.06344904
98	0xbed59d06	-0.41721362
99	0xbf021fde	-0.50829875
100	0x3e30afca	0.17254558
101	0x3e807ba9	0.25094345
102	0xbf0959ef	-0.5365285
103	0xbed0ec23	-0.40805158
104	0x3e80fe55	0.2519404
105	0x3e27ce5e	0.16387317
106	0x3f83ad53	1.0287269
107	0x3e9b0822	0.30279642
108	0xbd81c471	-0.06336296
109	0x3c3e3303	0.011608842
110	0xbe074375	-0.13209327
111	0x3eb27ca3	0.34860715
112	0x3eff0b59	0.49813345
113	0x3e79f100	0.2440834
114	0x3d22cf13	0.039748263
115	0x3ecd6bd8	0.4012134
116	0xbebdfdb4	-0.37107623
117	0x3e4dc097	0.20092998
118	0x3c9c6f5a	0.019096065
119	0x3e4f16ef	0.20223592
120	0xbe214b30	-0.15751338
121	0x3df48b4b	0.119406305
122	0xbaacadc8	-0.001317435
123	0xbe94f7ec	-0.290954
124	0xbecb05ce	-0.39652866
125	0xbefdd99b	-0.49580082
126	0xbdd02fcb	-0.10165366
127	0x3f09fe7e	0.5390395
128	0x3df049bf	0.11732816
129	0xbf00bfc2	-0.502926
130	0x3eeec778	0.46636558
131	0x3eca59da	0.39521676
132	0x3ea74174	0.32667124
133	0x3e5fb349	0.21845736
134	0x3f83c9d1	1.0295964
135	0x3f0b9445	0.54523116
136	0xbf2e14b1	-0.6800032
137	0x3e6a213a	0.22864237
138	0xbf2d0f45	-0.67601424
139	0xbf0e18c1	-0.5550652
140	0xbe1c3c6e	-0.15257427
141	0x3efd5639	0.49479845
142	0x3dbb417e	0.09143351
143	0x3ebebcae	0.37253326
144	0x3e305632	0.17220381
145	0x3cdba35b	0.026811292
146	0xbea007f8	-0.3125608
147	0xbf35bf35	-0.70994884
148	0x3e3cb0e9	0.18426861
149	0xbba81065	-0.0051289075
150	0x3f011fe1	0.5043927
151	0x3f1ce202	0.6128236
152	0xbdc10fcb	-0.094268404
153	0x3e4973f0	0.19673133
154	0xbe94abe5	-0.29037395
155	0x3dab82b8	0.08374542
156	0x3bddc5ec	0.006767979
157	0xbe72cd64	-0.23711163
158	0xbdd3d77f	-0.10343837
159	0x3ecd64fd	0.4011611
160	0x3e8e12c8	0.27748704
161	0x3d459dbe	0.048246138
162	0xbe745d40	-0.23863697
163	0xbe7ad0bc	-0.24493688
164	0x3dc68c9b	0.09694787
165	0xbdd7958c	-0.10526571
166	0xbd267020	-0.040634274
167	0x3c80027c	0.015626185
168	0xbdb4963a	-0.08817716
169	0xbe504ed9	-0.20342578
170	0xbf267c8d	-0.650338
171	0xbec0500e	-0.37561077
172	0x3e2dd87d	0.16977115
173	0xbcd8df65	-0.02647371
174	0xbf6f1849	-0.9339643
175	0xbf199fb6	-0.60009325
176	0x3e1695c1	0.14705564
177	0x3dd0df1b	0.10198804
178	0xbebc6dbb	-0.36802468
179	0xbe5ef43a	-0.21772853
180	0x3e9ea488	0.30984902
181	0x3f11a00d	0.56884843
182	0x3f740e30	0.9533415
183	0x3f10ee3c	0.56613517
184	0x3f032b60	0.5123806
185	0xbed3034b	-0.4121345
186	0x3e243136	0.16034397
187	0xbe38fea8	-0.18065894
188	0x3ccdf363	0.02514047
189	0x3cf6d980	0.030133009
190	0x3bb0146a	0.0053735273
191	0xbe19f254	-0.15033847
192	0x3e009cd8	0.12559831
193	0xbe4a5282	-0.19758037
194	0xbf218d44	-0.6310618
195	0xbf00a988	-0.50258684
196	0xbec024ab	-0.37527975
197	0xbe8a2bee	-0.2698664
198	0xbd4a9ac4	-0.049464002
199	0x3eebf4c0	0.46085167
200	0xbd8595c1	-0.06522704
201	0xbe8763ea	-0.26443416
202	0xbead91b4	-0.33900225
203	0xbe1b9fda	-0.15197697
204	0x3ea352d4	0.3189913
205	0x3ea793a9	0.32729843
206	0x3e2c0ee0	0.1680255
207	0x3e97a5f5	0.29618803
208	0x3d36b43e	0.044605486
209	0x3e76e0ec	0.24109238
210	0xbe192fec	-0.14959687
211	0xbe890ccd	-0.2676758
212	0xbdb3a54f	-0.087717645
213	0x3ebae821	0.36505225
214	0x3ed7b09f	0.4212694
215	0x3f494aa3	0.7862951
216	0x3d8514d8	0.06498116
217	0xbebacf4c	-0.3648628
218	0x3dbaa353	0.09113183
219	0x3eb67eb5	0.35643545
220	0xbde42695	-0.111401714
221	0x3dc9d1e4	0.098544866
222	0xbeea1935	-0.45722356
223	0xbf02715e	-0.50954235
224	0x3dfe2f43	0.12411358
225	0xbc038fcb	-0.008029888
226	0xbecc84ac	-0.3994497
227	0xbe938d02	-0.28818518
228	0xbe991586	-0.29899234
229	0x3e325cf1	0.17418267
230	0xbdde8620	-0.10865426
231	0x3deb3fba	0.11486764
232	0xbedd18ac	-0.43182886
233	0x3e4d4a93	0.20047979
234	0xbd77bc3b	-0.060482245
235	0xbeab7c6c	-0.33493364
236	0xbe8f28c7	-0.27960798
237	0xbec3a67b	-0.38212952
238	0x3c319e39	0.010840946
239	0x3f0241ea	0.50881827
240	0x3d8f103d	0.06985519
241	0xbe7a531c	-0.24445766
242	0xbe9e53ea	-0.30923396
243	0x3dcf167c	0.101117104
244	0xbefcae09	-0.49351528
245	0x3d12b249	0.035814557
246	0xbf13652b	-0.57576245
247	0xbf1771b6	-0.59157884
248	0x3e9d30dd	0.30701342
249	0x3e8524be	0.26004595
250	0x3f061e91	0.5239039
251	0x3f176659	0.59140545
252	0xbe7578e7	-0.23971902
253	0x3e669fa6	0.22521839
254	0xbdd7016c	-0.10498318
255	0xbdc7d7a9	-0.09757931

net.0.bias f4 [128]
0	0x3ea8d51b	0.32975087
1	0x3ea5c0bf	0.32373616
2	0xbf06f6a9	-0.52720124
3	0xbee2c0ac	-0.44287622
4	0x3e291611	0.16512324
5	0x3e090b40	0.13383198
6	0xbec27748	-0.3798163
7	0x3e75470e	0.23952886
8	0xbe99f191	-0.30067113
9	0xbe7fe064	-0.24987942
10	0x3e23c72e	0.1599395
11	0xbe9972d8	-0.2997043
12	0x3eb41d4d	0.35178605
13	0xbe8b8511	-0.2724996
14	0x3ea56810	0.32305956
15	0xbc0d1bfc	-0.008612629
16	0xbf0535f4	-0.5203545
17	0xbec05ff7	-0.37573215
18	0xbef38863	-0.47564992
19	0x3ecc15c0	0.39860344
20	0x3d501928	0.05080524
21	0xbe9bd31d	-0.30434504
22	0x3c3a34d2	0.011365132
23	0x3d06af85	0.032882232
24	0x3e3dc657	0.18532692
25	0xbe8769d9	-0.26447943
26	0x3e42cb98	0.19022977
27	0xbeea1c9b	-0.4572495
28	0xbe4404ef	-0.19142507
29	0xbe5d62b7	-0.21619688
30	0xbe9def57	-0.30846664
31	0xbeaa29a1	-0.33234885
32	0xbeb2cb26	-0.34920615
33	0x3eb70c5f	0.35751626
34	0xbe1ce644	-0.15322214
35	0x3e9f4060	0.31103802
36	0x3f0efc5c	0.5585382
37	0x3e5041d4	0.20337611
38	0xbed52b65	-0.4163467
39	0xbe838fa9	-0.25695542
40	0x3d3547e4	0.044258013
41	0xbedf84b2	-0.43655926
42	0x3e3624d1	0.17787482
43	0x3e5f694f	0.21817516
44	0xbf0ac451	-0.54205805
45	0x3ea399b5	0.31953207
46	0xbedc96ed	-0.43083897
47	0xbee00a78	-0.43757987
48	0x3ec12fd9	0.37731817
49	0xbea452c4	-0.32094395
50	0x3ec799dc	0.38984573
51	0x3e466625	0.19374903
52	0xbef8f3ac	-0.48623407
53	0x3ed828e1	0.42218688
54	0xbe95b241	-0.2923756
55	0x3eaff17f	0.34363934
56	0xbf048ef8	-0.51780653
57	0xbe81fd9f	-0.2538881
58	0x3e121e74	0.1426943
59	0xbe9ac400	-0.3022766
60	0xbe9503f3	-0.29104576
61	0x3dadf03d	0.084930874
62	0x3dc25c47	0.09490257
63	0x3eae2cb7	0.3401849
64	0xbf2fc07b	-0.68653077
65	0x3e65b4ec	0.22432297
66	0xbe847d32	-0.25876766
67	0x3e9c64a2	0.30545527
68	0xbeec8a47	-0.46199247
69	0xbe9558ed	-0.29169407
70	0x3defe3cb	0.1171337
71	0x3e7653c8	0.24055398
72	0x3e13e8d0	0.1444428
73	0xbf0b05a5	-0.5430549
74	0x3d807743	0.06272747
75	0xbec8d64e	-0.39226002
76	0xbe8ada68	-0.27119756
77	0x3e8c93a7	0.274564
78	0x3eb236e3	0.348075
79	0xbf07c737	-0.5303835
80	0x3db08630	0.08619344
81	0x3da462ed	0.08026681
82	0x3e153fa3	0.14575057
83	0xbed3f531	-0.41398004
84	0x3e39f312	0.1815913
85	0xbefe39ce	-0.49653476
86	0xbe654849	-0.22390856
87	0xbec4fce3	-0.38474187
88	0xbecaaf46	-0.39586848
89	0x3e9ea72d	0.3098692
90	0xbec603f4	-0.3867489
91	0xbe84c4cd	-0.25931397
92	0x3ef947b8	0.4868753
93	0xbe98c674	-0.29838908
94	0xbd777e22	-0.060423024
95	0x3ead7177	0.3387563
96	0xbf0ada26	-0.5423912
97	0x3ee82776	0.45342606
98	0xbebb9efd	-0.36644736
99	0x3ebef25b	0.37294278
100	0xbe0a4fe8	-0.13507044
101	0xbeb24fae	-0.34826416
102	0x3ea86635	0.32890478
103	0xbac42790	-0.0014965404
104	0x3d090b15	0.033457834
105	0xbe930d30	-0.28721
106	0x3ee583b3	0.4482704
107	0xbe37c7e6	-0.17947349
108	0x3e06b137	0.1315354
109	0xbd3accdc	-0.045605525
110	0x3e8dd24b	0.27699503
111	0xbe799080	-0.24371529
112	0x3de17584	0.110087425
113	0xbed39d0c	-0.41330755
114	0xbd140077	-0.036133256
115	0xbf192e0d	-0.5983589
116	0x3e1579d3	0.14597254
117	0xbe39dba0	-0.18150187
118	0x3e31e825	0.17373712
119	0xbf1dbfef	-0.6162099
120	0xbebc0b54	-0.36727393
121	0xbee982f2	-0.45607716
122	0xbf0071bb	-0.5017354
123	0xbee313bc	-0.44350994
124	0x3e957428	0.29190183
125	0xbee388d8	-0.4444034
126	0x3dffdca1	0.124932535
127	0xbe07ca1c	-0.13260692

net.2.weight f4 [2, 128]
0	0x3c3da2c2	0.011574449
1	0x3e5e3335	0.21699221
2	0x3c7f3a66	0.015577888
3	0xbd7b9d0a	-0.06142906
4	0x3db7d1ae	0.0897554
5	0xbd9d3b29	-0.076772995
6	0xbe0371aa	-0.12836328
7	0xbddea10d	-0.10870562
8	0x3c67c247	0.01414544
9	0xbcd809a7	-0.02637179
10	0x3e3bdf1c	0.18346828
11	0xbe635341	-0.22199728
12	0x3c643c5f	0.013930409
13	0xbdf25e78	-0.11834425
14	0x3df53ea2	0.11974837
15	0xbe436990	-0.19083238
16	0x3d34ce39	0.04414198
17	0xbe61732e	-0.22016594
18	0x3ccbc6fe	0.02487516
19	0xbd86d875	-0.06584255
20	0x3e01c15e	0.1267142
21	0xbd0d3a05	-0.03447916
22	0x3e69d9fb	0.22837059
23	0x3e9c0497	0.30472252
24	0x3e1a41ba	0.15064135
25	0x3db2685e	0.08711313
26	0xbeba3787	-0.3637049
27	0xbdcdefab	-0.10055479
28	0xbd2598a3	-0.04042877
29	0x3daec86f	0.085343234
30	0xbccdd480	-0.025125742
31	0xbdf6c891	-0.12049974
32	0x3b213857	0.0024600232
33	0xbe9a13f6	-0.30093354
34	0x3e49a312	0.19691113
35	0xbd9202d2	-0.07129444
36	0x3d4bd1f5	0.049760778
37	0xbe81033a	-0.25197774
38	0xbdafcd87	-0.08584123
39	0xbe1ede94	-0.15514594
40	0xbc74431a	-0.014908576
41	0xbc99aaf8	-0.018758282
42	0x3e4fa233	0.20276718
43	0x3e7d9129	0.24762405
44	0xbdbc0c21	-0.09182001
45	0xbe5e2488	-0.21693623
46	0x3d8796d9	0.06620569
47	0x3a9f40a3	0.001215
48	0x3e3c65c8	0.18398201
49	0xbe05893b	-0.1304063
50	0x3cdbfb0b	0.026853105
51	0xbd221acd	-0.03957634
52	0xbc81691c	-0.01579719
53	0xbe806721	-0.2507868
54	0xbd8f4207	-0.069950156
55	0x3dd72c04	0.10506442
56	0x3d85fb32	0.06542052
57	0x3dbcf9af	0.09227311
58	0x3e10a9f1	0.14127328
59	0xbe57ed42	-0.210866
60	0xbdb79ba6	-0.089652345
61	0x3e7a6657	0.24453102
62	0xbe95f973	-0.29291877
63	0x3d41a01c	0.047271833
64	0xbca0f240	-0.019646764
65	0x3e080de4	0.13286549
66	0xbe607b89	-0.21922125
67	0xbdd18651	-0.10230697
68	0xbd1fde2e	-0.039030246
69	0xbdd47bd7	-0.10375183
70	0xbcce45d0	-0.025179774
71	0x3e9013a4	0.28139985
72	0x3e4b6826	0.19863948
73	0x3dc21dfb	0.094783746
74	0x3e0b5ab1	0.13608815
75	0xbccb4b0d	-0.02481606
76	0xbd23f0a1	-0.040024403
77	0x3dc4d901	0.09611703
78	0xbe13701d	-0.14398237
79	0x3c12c17c	0.008957263
80	0x3e3364b5	0.17518885
81	0x3e44cf18	0.19219625
82	0xbe9ad3db	-0.30239758
83	0xbc0258d2	-0.007955747
84	0xbe52c3bf	-0.20582484
85	0x3cb65ce8	0.022261098
86	0xbdbcee59	-0.09225149
87	0x3d62ba68	0.055353552
88	0x3d3076e8	0.043082148
89	0xbe06cb76	-0.13163552
90	0xbd833f4e	-0.06408559
91	0x3dd45585	0.10367874
92	0x3dcf0ae8	0.10109502
93	0xbc11befc	-0.008895632
94	0xbd55e010	-0.052215636
95	0x3e96aefe	0.29430383
96	0xbe00793b	-0.12546246
97	0x3e23df51	0.16003157
98	0xbd855556	-0.06510417
99	0x3da211da	0.07913561
100	0xbdfff8d7	-0.12498634
101	0xbe26b26f	-0.16279005
102	0xbdad5549	-0.084635325
103	0x3dc9a2fd	0.09845541
104	0x3e316905	0.17325218
105	0x3e226fda	0.1586298
106	0xbd0bcfcf	-0.03413373
107	0xbe65c971	-0.22440125
108	0x3eac8855	0.33697763
109	0xbe7eaade	-0.24869868
110	0x3d8fb904	0.07017711
111	0xbc3aaf2c	-0.011394303
112	0xbd3fafa2	-0.046798356
113	0xbd7bccfd	-0.06147479
114	0x3e063170	0.13104796
115	0xbc727248	-0.014797755
116	0xbe45d9e9	-0.19321407
117	0xbd769233	-0.06019802
118	0x3df73f9a	0.12072678
119	0x3d55096c	0.05201094
120	0x3dbd7dcf	0.09252512
121	0xbd545c57	-0.051845875
122	0x3c99091d	0.018681103
123	0xbbf4befa	-0.0074690552
124	0xbedb4de4	-0.42832863
125	0x3db8935b	0.09012481
126	0xbe89c0d9	-0.26904944
127	0x3c22f1c5	0.009945338
128	0xbd2e55a9	-0.04256216
129	0xbde41f29	-0.11138756
130	0xbd68df5c	-0.056853637
131	0x3d9ab92c	0.0755485
132	0xbc8dae78	-0.017295107
133	0x3e0ff691	0.14058901
134	0x3e6c2d53	0.23064165
135	0x3da7b2cd	0.081884004
136	0xbe1bb259	-0.15204753
137	0xbda49554	-0.080362946
138	0xbe2136a8	-0.15743506
139	0x3dc40808	0.09571844
140	0xbd3bb336	-0.045825206
141	0x3d191dcf	0.037381943
142	0xbe097c22	-0.13426259
143	0x3e782ef1	0.24236657
144	0xbd3411a4	-0.043962136
145	0x3dcb8647	0.09937721
146	0xbc94686c	-0.018116198
147	0x3e1dd250	0.15412259
148	0xbe634b73	-0.2219675
149	0xbd88c963	-0.066790365
150	0xbe54e5db	-0.20790808
151	0xbeb65855	-0.35614267
152	0xbe7d7658	-0.24752176
153	0xbd161fc9	-0.036651406
154	0x3e833565	0.25626674
155	0x3c33ab42	0.010966124
156	0x3dbbe282	0.09174062
157	0xbe148652	-0.14504364
158	0xbc1c3227	-0.009533442
159	0x3e1a0be8	0.15043604
160	0x3e07fb83	0.13279538
161	0x3e873403	0.2640687
162	0xbdb619f6	-0.088916704
163	0x3c70fff3	0.014709461
164	0xbe31637e	-0.1732311
165	0x3e5e9a0a	0.21738449
166	0x3e034b2c	0.12821645
167	0x3d73849a	0.05945263
168	0xbd06089c	-0.032723054
169	0x3de5c775	0.11219684
170	0xbe80cc79	-0.25156
171	0xbe2c65c2	-0.16835693
172	0xbd83205a	-0.06402655
173	0x3ebf7267	0.3739197
174	0xbdfa88ee	-0.122331485
175	0x3da881f0	0.082279086
176	0xbe05a6db	-0.13051932
177	0x3cba59cf	0.022747902
178	0xbdd0736a	-0.101782635
179	0x3e2f015e	0.17090365
180	0x3d968651	0.073498376
181	0x3e2b428c	0.16724604
182	0x3e079078	0.13238704
183	0xbd949bd9	-0.07256288
184	0xbc17e873	-0.009271729
185	0xbda5e9e9	-0.081012554
186	0xbe01af05	-0.12664421
187	0x3e1bf0e4	0.15228611
188	0xbb96f049	-0.004606281
189	0xbea0d74b	-0.31414255
190	0x3e1a7f48	0.15087616
191	0xbcce94a6	-0.025217365
192	0x3c940e6a	0.01807328
193	0xbe5877ce	-0.21139452
194	0x3e3e9d22	0.18614629
195	0x3db89a8c	0.090138525
196	0xbdc76b39	-0.09737248
197	0xbce4b369	-0.02791758
198	0x3dd1da3d	0.10246704
199	0xbe59121c	-0.21198314
200	0xbe5c8fba	-0.21539202
201	0xbd2c7d95	-0.04211195
202	0x3c55cc3f	0.013049184
203	0x3d5477e8	0.051872164
204	0x3d084e4e	0.033277802
205	0xbe258e07	-0.1616746
206	0x3df55905	0.1197987
207	0xbc9dea08	-0.019276634
208	0xbe41ed44	-0.18938166
209	0xbe987ce7	-0.29782793
210	0x3ea20ab5	0.31648794
211	0x3df92a7e	0.12166308
212	0x3e28ad4c	0.16472358
213	0xbd687e1f	-0.056760903
214	0x3e47445e	0.19459674
215	0xbd7ee463	-0.062229525
216	0xbcf2a32d	-0.029618824
217	0x3df6b2f4	0.12045851
218	0x3e0829b1	0.13297154
219	0xbe31301e	-0.17303512
220	0xbd813226	-0.06308393
221	0xbd6fae9f	-0.05851614
222	0x3d3dcf52	0.046340294
223	0xbe950160	-0.29102612
224	0x3d897de7	0.06713467
225	0xbe32d44b	-0.17463796
226	0x3c2b6a92	0.01046242
227	0xbde2d9d9	-0.110767074
228	0x3de73c86	0.11290841
229	0x3e261a29	0.16220917
230	0x3cbb6464	0.022875018
231	0xbd33d759	-0.043906543
232	0xbda0c306	-0.07849698
233	0xbe3ef76f	-0.18649076
234	0x3d32a974	0.043618634
235	0x3da298e4	0.07939318
236	0xbe596a64	-0.21231991
237	0x3e8b9dad	0.27268735
238	0xbded75d3	-0.11594739
239	0xbd18f742	-0.03734518
240	0x3e420ed1	0.18950965
241	0xbc9905fe	-0.018679615
242	0xbdf6dcfb	-0.120538674
243	0x390fa8cf	0.00013700429
244	0x3e320d4f	0.1738789
245	0x3e09cb1b	0.13456385
246	0xbe18d168	-0.14923632
247	0xbd7a2f58	-0.061080307
248	0xbdf6d69a	-0.12052651
249	0x3c894b9d	0.016759688
250	0xbe0b7096	-0.13617167
251	0x3e0c50ad	0.1370265
252	0x3eb4b2ab	0.35292563
253	0xbc28c7f1	-0.010301576
254	0x3e4f74b6	0.20259365
255	0xbd7a99b3	-0.061181735

net.2.bias f4 [2]
0	0x3d445241	0.047930006
1	0x3bd2c90b	0.0064326576
