Teaching Content/L4T4 - Pytorch/cartpole demo/checkpoints/policy_ep0200.pth (torch, 5824 bytes, 4 tensors)

net.0.weight f4 [128, 4]
0	0x3eb312f3	0.34975395
1	0xbea949bf	-0.33064076
2	0xbf5a7064	-0.85327744
3	0xbf5e6847	-0.86877865
4	0x3e5e5079	0.21710385
5	0x3e0a0ed3	0.13482217
6	0x3f80b623	1.0055584
7	0x3f760dcf	0.9611482
8	0xbe164729	-0.14675583
9	0xbe9c845f	-0.3056974
10	0x3cd366a3	0.025805777
11	0x3e601d59	0.21886195
12	0xbb276f38	-0.002554847
13	0xbd768810	-0.060188353
14	0x3f82cdd5	1.0219065
15	0x3f19d7b9	0.6009479
16	0xbd717dc0	-0.058957815
17	0x3dd9d92e	0.10637127
18	0xbec95dbf	-0.39329335
19	0x3ee1d1dc	0.44105422
20	0x3e5419f0	0.2071302
21	0xbec257e7	-0.3795769
22	0xbc012783	-0.0078829555
23	0x3e7ccee7	0.24688302
24	0x3cf920df	0.030411182
25	0xbea5b496	-0.3236434
26	0xbcf3664d	-0.029711867
27	0x3e266e48	0.16253006
28	0xbc89abab	-0.01680549
29	0xbecc67fc	-0.39923084
30	0xbf82c00b	-1.0214857
31	0xbf4629c2	-0.7740747
32	0xbe5bd59a	-0.21468201
33	0xbddb1c74	-0.106987864
34	0xbe03ecc1	-0.12883283
35	0xbe9eaaa6	-0.3098957
36	0x3eb6689a	0.3562668
37	0xbcdec578	-0.02719377
38	0x3f4a495c	0.7901819
39	0x3f52b27c	0.82303596
40	0xbe744d01	-0.238575
41	0x3ecdd724	0.40203202
42	0xbe9e9cfb	-0.30979142
43	0xbde6c740	-0.11268473
44	0xbdb0f3b4	-0.08640233
45	0xbd626584	-0.055272594
46	0xbf84f363	-1.0386776
47	0xbf566ed8	-0.83762884
48	0x3e397fc3	0.18115143
49	0xbe9e36c1	-0.3090115
50	0xbf7420a8	-0.9536233
51	0xbf3fe82c	-0.7496364
52	0x3ea17a42	0.31538588
53	0x3ec501ec	0.3847803
54	0xbf70be34	-0.94040227
55	0xbefa24f0	-0.48856306
56	0x3ecf1878	0.40448356
57	0x3e822742	0.25420576
58	0x3dde2f58	0.10848874
59	0x3e5f11dd	0.21784158
60	0x3f03de4b	0.5151107
61	0xbdbb4dcf	-0.091457
62	0x3f55776e	0.8338536
63	0x3f043bd4	0.5165379
64	0x3e23ba7a	0.15989104
65	0x3e9833c9	0.2972701
66	0xbe898113	-0.26856288
67	0x3f0d3d73	0.5517189
68	0xbcf98a43	-0.030461436
69	0x3e850782	0.2598229
70	0x3e46a335	0.19398196
71	0xbe9f295d	-0.31086245
72	0xbf4c7028	-0.79858637
73	0xbe6b3055	-0.22967656
74	0x3e4cf4d0	0.20015264
75	0xbe36f5fb	-0.17867272
76	0xbcd5be08	-0.02609159
77	0xbd3007e0	-0.04297626
78	0x3ea401ec	0.32032716
79	0x3e849c1f	0.2590036
80	0x3ad870a1	0.0016513058
81	0xbd1ab506	-0.037770294
82	0xbe89ea5d	-0.26936617
83	0xbcacd467	-0.021097375
84	0x3e37a197	0.17932735
85	0xbdb68751	-0.08912528
86	0x3f4cfc86	0.8007282
87	0x3f329969	0.69765335
88	0xbd5ede53	-0.054411244
89	0xbe321818	-0.17392004
90	0xbf03ab60	-0.5143337
91	0x3e9c1d63	0.3049117
92	0x3e9bc61d	0.30424586
93	0xbee8b178	-0.45447898
94	0xbe7c8220	-0.24659014
95	0xbec3d40f	-0.38247725
96	0xbebd9bdc	-0.37032974
97	0x3e842bab	0.25814566
98	0x3e11e2e7	0.14246713
99	0x3f2fc7ec	0.6866443
100	0xbcdfe1b8	-0.02732931
101	0xbe4885f1	-0.19582345
102	0x3ece0cac	0.40244043
103	0xbd3fb509	-0.046803508
104	0x3e5c43ff	0.21510313
105	0x3def9731	0.11698759
106	0x3f4f01e2	0.8086225
107	0x3f5c46e9	0.860457
108	0x3e92e87e	0.28693002
109	0x3db0bc60	0.0862968
110	0x3f63ad4f	0.8893632
111	0x3f475a9b	0.7787263
112	0xbd8fe26c	-0.070256084
113	0xbd4a268a	-0.04935316
114	0xbbb60522	-0.005554811
115	0xbed63a63	-0.4184142
116	0x3e577b17	0.21043049
117	0x3b08f027	0.0020895095
118	0x3d521add	0.05129515
119	0xbb531cc7	-0.0032213198
120	0x3e36c814	0.17849761
121	0x3e185d47	0.14879332
122	0x3ec3c8a3	0.3823901
123	0x3eec3c2c	0.46139657
124	0x3f08ea4e	0.5348252
125	0xbe61ff2a	-0.22069994
126	0x3e9ba017	0.30395576
127	0x3f6ed164	0.93288255
128	0x3f1dd5b0	0.61654186
129	0xbed95b73	-0.42452583
130	0x3e8479df	0.2587423
131	0x3cd055de	0.02543157
132	0xbe49793f	-0.19675158
133	0x3ea4c9d7	0.32185242
134	0xbf94f5c3	-1.16375
135	0xbf82eeda	-1.0229142
136	0x3edc7ee0	0.43065548
137	0xbeb43710	-0.3519826
138	0x3ebc0f12	0.36730248
139	0x3e3207a6	0.1738573
140	0x3e0c9f64	0.13732678
141	0x3eb1251c	0.34598625
142	0x3f771819	0.96521145
143	0x3f8dfbd5	1.1092478
144	0xbd8bb1fe	-0.06821059
145	0x3cfe4e7a	0.03104328
146	0x3e352c72	0.17692736
147	0x3eb8e3e3	0.36111364
148	0x3e9da3fa	0.30789167
149	0x3e7eefb1	0.24896123
150	0x3e9684a6	0.29398078
151	0xbeb270ab	-0.34851584
152	0x3e2c13c0	0.16804409
153	0x3dacf998	0.08446044
154	0xbf1b6eeb	-0.6071612
155	0xbf3edbd5	-0.7455419
156	0x3eb69772	0.3566242
157	0x3ee106f4	0.43950617
158	0x3f316665	0.69296867
159	0x3f978e5f	1.1840323
160	0xbdbfa237	-0.09357112
161	0xbdc25a74	-0.09489909
162	0x3e720cd3	0.23637705
163	0x3e983a30	0.29731894
164	0xbdfd0d02	-0.12355997
165	0x3ef1b24b	0.4720634
166	0xbf1f5cf5	-0.62251216
167	0xbe9795ed	-0.29606572
168	0x3e1d9cff	0.1539192
169	0xbe28e6df	-0.1649432
170	0x3f049db6	0.5180315
171	0x3e4c2c07	0.1993867
172	0xbe9ce199	-0.30640867
173	0x3e7cdaa2	0.24692777
174	0xbd5e5fe6	-0.054290675
175	0x3e1637a5	0.14669664
176	0x3e6da728	0.23208296
177	0xbef389e8	-0.47566152
178	0x3c86f6eb	0.016475162
179	0xbd8a6bdf	-0.06758856
180	0xbbb863a2	-0.0056271115
181	0xbe922a11	-0.2854772
182	0xbec55ed9	-0.38548926
183	0x3eb4f3be	0.3534221
184	0xbe9baac3	-0.30403718
185	0xbe000e30	-0.12505412
186	0xbd819d85	-0.063288726
187	0xbddca1c5	-0.107730426
188	0xbe27cfc0	-0.16387844
189	0x3e155017	0.14581333
190	0x3ef16ffd	0.47155753
191	0x3ed03ddf	0.40672204
192	0xbea0363f	-0.31291386
193	0x3e6cec5b	0.23137037
194	0xbd94ae82	-0.07259847
195	0xbd895a86	-0.06706719
196	0x3e1d4066	0.15356597
197	0x3e43337f	0.19062613
198	0x3e86fbb2	0.26363903
199	0x3f8187d1	1.0119573
200	0xbda9b526	-0.082865044
201	0x3e416294	0.18885261
202	0x3e8a0c02	0.26962286
203	0xbed5474d	-0.4165596
204	0x3dfc3985	0.123156585
205	0x3e1216c1	0.14266492
206	0x3ea0c80c	0.31402624
207	0xbdfbe295	-0.122990765
208	0xbd30fef8	-0.043211907
209	0x3e0941d0	0.13404012
210	0xbe609b2e	-0.21934196
211	0xbda92c67	-0.08260422
212	0xbf01ab58	-0.50652075
213	0x3e3262d5	0.17420514
214	0x3eab20ba	0.33423406
215	0xbdc39819	-0.09550495
216	0x3e30866c	0.17238778
217	0x3e2dcf7a	0.16973677
218	0x3eca959f	0.39567277
219	0x3f5f8dc5	0.873257
220	0xbd8e3235	-0.0694317
221	0x3b504aef	0.0031782945
222	0x3e202400	0.15638733
223	0x3c99d3c6	0.01877774
224	0x3ea27b94	0.31734908
225	0xbc1106dc	-0.008851733
226	0x3f5e1b65	0.8676055
227	0x3efc3acb	0.49263605
228	0x3ee45f34	0.44603884
229	0xbea16f20	-0.31530094
230	0x3e47e1de	0.19519755
231	0x3f2738ed	0.65321237
232	0xbe40dd84	-0.18834502
233	0xbbdee385	-0.006802025
234	0xbf12316f	-0.5710668
235	0xbf35754f	-0.70882124
236	0xbe395c2b	-0.18101566
237	0x3ddad344	0.10684827
238	0xbdefd0b1	-0.117097266
239	0xbe8cbc2f	-0.27487323
240	0x3eba0861	0.36334518
241	0xbd3c59f9	-0.045984242
242	0xbf22eeb3	-0.63645476
243	0xbf6741a7	-0.9033455
244	0xbee6c0da	-0.4506901
245	0xbf1c58a3	-0.6107275
246	0xbe1a5967	-0.15073167
247	0xbf2b445f	-0.669012
248	0xbeab65fd	-0.33476248
249	0x3e0b3f56	0.1359838
250	0xbe1b85e5	-0.15187795
251	0x3d79a144	0.06094481
252	0x3d19e996	0.03757628
253	0x3b08fd77	0.002090303
254	0x3d613b1b	0.054988008
255	0xbee1e49c	-0.44119728

net.0.bias f4 [128]
0	0x3eb7be5b	0.35887417
1	0x3d063cbe	0.032772772
2	0xbeb4881b	-0.3526009
3	0x3eabe57a	0.33573514
4	0xbf03241d	-0.5122698
5	0xbeb05f68	-0.3444779
6	0xbd7c2bb3	-0.061565112
7	0x3e830111	0.2558675
8	0xbf13d574	-0.5774758
9	0x3d723b18	0.059138387
10	0x3eaf66a8	0.34258008
11	0x3ecd8b12	0.40145165
12	0x3ec48172	0.3838001
13	0x3d663d21	0.05621064
14	0xbea4ce94	-0.32188857
15	0xbd370658	-0.044683784
16	0x3a772078	0.00094271405
17	0xbe42273c	-0.18960279
18	0x3e0d4276	0.13794884
19	0xbefa0658	-0.48832965
20	0xbea0bcec	-0.31394136
21	0x3e3dce85	0.18535812
22	0xbf23f0b5	-0.64039165
23	0xbf339c91	-0.70160776
24	0x3e1627d4	0.1466363
25	0xbdd011da	-0.10159655
26	0x3c067913	0.008207577
27	0xbc9d07a6	-0.019168686
28	0x3e041806	0.12899789
29	0xbf15ba96	-0.5848783
30	0x3c8552c0	0.01627481
31	0x3dd511f0	0.10403812
32	0xbee72878	-0.45148063
33	0x3f0b6c88	0.5446248
34	0xbeb2796d	-0.34858266
35	0x3e3d58b1	0.18490864
36	0xbdb4566b	-0.088055454
37	0xbf2e0fda	-0.6799294
38	0xbe83cd8f	-0.25742766
39	0x3e61ac5f	0.2203841
40	0x3e02f83b	0.12790005
41	0x3e2381f9	0.1596755
42	0xbdca4006	-0.09875493
43	0x3ddd4f58	0.10806149
44	0xbe8d0e17	-0.27549812
45	0xbf277c1c	-0.6542375
46	0x3e481357	0.19538628
47	0x3cd80be4	0.026372857
48	0xbf06faf0	-0.5272665
49	0xbcf9d6f3	-0.030498004
50	0xbe5276da	-0.20553151
51	0xbea623f6	-0.3244931
52	0xbf10c0c5	-0.5654414
53	0xbefba0e2	-0.4914618
54	0xbd6efdee	-0.058347635
55	0xbebf36bf	-0.37346455
56	0xbd068356	-0.032840095
57	0xbed07e55	-0.40721384
58	0x3ebfd492	0.37466866
59	0xbedb7d88	-0.4286921
60	0x3e9623fc	0.2932433
61	0x3ed194a1	0.40933707
62	0xbf08a583	-0.5337755
63	0xbe0eaecb	-0.13933866
64	0xbf11b052	-0.5690967
65	0x3d6125b3	0.054967593
66	0x3e9f3d7f	0.31101605
67	0x3d94c6fe	0.07264517
68	0x3f07692b	0.5289485
69	0x3efee038	0.4978044
70	0x3d8bec75	0.0683221
71	0x3c8de23b	0.01731979
72	0xbdd19ffe	-0.10235594
73	0x3e89f4a7	0.26944467
74	0xbe8cdc45	-0.27511802
75	0x3e85d6f2	0.26140553
76	0xbed9960f	-0.42497298
77	0x3ef95473	0.48697242
78	0xbdbce532	-0.09223403
79	0x3e3adfae	0.1824939
80	0x3e399c0d	0.18125935
81	0xbf058635	-0.5215791
82	0x3d5b883d	0.053596724
83	0xbf018c35	-0.50604564
84	0xbea0aa7b	-0.31380066
85	0x3dd5596c	0.104174465
86	0xbe40f833	-0.1884468
87	0xbe82e78c	-0.2556728
88	0x3dc5f24d	0.09665356
89	0xbee6043a	-0.449251
90	0xbc81903f	-0.015815852
91	0x3e129935	0.14316256
92	0xbe1dbd6d	-0.15404291
93	0xbeaf8784	-0.34283078
94	0xbe1a9744	-0.15096766
95	0xbf0272b6	-0.50956285
96	0x3d256aab	0.04038493
97	0x3cd8d8d1	0.026470574
98	0x3d744573	0.059636544
99	0xbd95b6b3	-0.07310238
100	0xbe86382a	-0.26214725
101	0x3e8518e6	0.25995559
102	0x3e11afdb	0.1422724
103	0xbead2fe1	-0.3382559
104	0xbea6eecb	-0.3260406
105	0x3e3c5866	0.18393096
106	0xbf20ab11	-0.62761027
107	0xbcf7947a	-0.030222166
108	0x3d01d0d9	0.031693313
109	0xbe841e3e	-0.25804323
110	0xbe1e2a4a	-0.1544582
111	0xbbc9cbbd	-0.0061583207
112	0xbeeb7b46	-0.45992488
113	0xbe911ed1	-0.28343824
114	0xbe51a4fa	-0.2047309
115	0x3e0fc411	0.14039637
116	0xbeb904b5	-0.36136404
117	0x3ad37aca	0.0016134616
118	0x3cb2806f	0.021789758
119	0xbe9b6f3b	-0.303583
120	0x3e3c582c	0.1839301
121	0x3e0fb955	0.14035542
122	0x3eb51d09	0.35373715
123	0x3dcde03b	0.10052534
124	0xbd82aa6c	-0.06380162
125	0x3e571017	0.21002232
126	0x3e956227	0.29176447
127	0xbf1162b7	-0.5679125

net.2.weight f4 [2, 128]
0	0x3eb011aa	0.34388477
1	0xbef35ae3	-0.4753028
2	0x3deacb1d	0.11464522
3	0xbdce276c	-0.10066113
4	0x3da14775	0.078749575
5	0xbdb2a5bf	-0.0872302
6	0xbda067c5	-0.078322925
7	0x3ebb7b38	0.36617446
8	0x3dfd6f31	0.12374724
9	0xbed716a0	-0.4200945
10	0x3d9446e0	0.07240081
11	0x3eb434bb	0.3519648
12	0x3e807d48	0.25095582
13	0x3cf76838	0.030201063
14	0xbdba379a	-0.090926364
15	0xbe351286	-0.17682847
16	0xbd688377	-0.056766
17	0x3d831bbd	0.06401775
18	0x3e505930	0.20346522
19	0x3d947f1b	0.07250806
20	0xbd0478c1	-0.032341722
21	0xbdc25262	-0.094883695
22	0xbcc3776c	-0.023860656
23	0xbdae5a16	-0.08513276
24	0xbd0a29cf	-0.033731278
25	0x3d585cb6	0.05282279
26	0xbe77aa77	-0.24186121
27	0xbebf586a	-0.37372142
28	0x3c9adf1d	0.018905217
29	0xbe03b763	-0.12862925
30	0xbdc7b4f3	-0.0975131
31	0xbeaba351	-0.33523038
32	0xbdd40490	-0.10352433
33	0x3ebf21f0	0.3733058
34	0xbe2ada9b	-0.16684954
35	0xbe915fbf	-0.2839336
36	0xbcc88937	-0.024479492
37	0xbdb77cbf	-0.0895934
38	0x3c8a7e45	0.016905913
39	0xbe9f0145	-0.31055656
40	0xbdae765c	-0.08518669
41	0x3e058095	0.13037331
42	0xbdc36ee2	-0.095426336
43	0x3da294f7	0.07938569
44	0xbe08b685	-0.13350876
45	0x3c842e34	0.016135313
46	0x3da01185	0.078158416
47	0x3d0fc09f	0.035095807
48	0xbce21079	-0.027595745
49	0xbe39c7f9	-0.1814269
50	0x3d11f736	0.03563615
51	0xbbc5d3ee	-0.006037227
52	0xbce75b19	-0.028241681
53	0xbdfdb109	-0.123872824
54	0xbe30ae45	-0.17253979
55	0x38f63bab	0.00011741308
56	0xbe9e69d2	-0.3094011
57	0xbe297113	-0.1654704
58	0x3efbf589	0.49210766
59	0xb827987b	-3.995791e-05
60	0x3e119d85	0.14220245
61	0x3ea9f023	0.33191022
62	0x3d85018e	0.06494437
63	0x3c8326f9	0.016009795
64	0x3d196a9e	0.037455194
65	0xbc264f68	-0.010150768
66	0x3e9b88f3	0.3037792
67	0xbdc64f04	-0.0968304
68	0x3f06f473	0.5271675
69	0x3e960f18	0.2930839
70	0xbe45c8e5	-0.19314916
71	0x3dfa2b2d	0.122152664
72	0xbd60102f	-0.054702934
73	0x3ec8dfdc	0.3923329
74	0x3ccf35ce	0.02529421
75	0xbe1dcb59	-0.15409602
76	0x3de70a7d	0.11281297
77	0x3f06b4f1	0.52619845
78	0x3df3710e	0.11886798
79	0xbe836038	-0.25659347
80	0xbe91eff1	-0.28503373
81	0xbdacbb3a	-0.08434148
82	0xbd6e516b	-0.058183115
83	0x3dcb59f2	0.09929265
84	0xbd3b4b30	-0.045726
85	0x3e06bcb0	0.13157916
86	0x3da2a1f0	0.079410434
87	0x3d4bf8b1	0.049797717
88	0x3dbcf4ed	0.092264034
89	0x3cc5d2aa	0.024148304
90	0xbe2f3968	-0.17111742
91	0x3dc89ef2	0.097959414
92	0x3d1cf6b2	0.038321204
93	0xbd61bbcc	-0.055110738
94	0xbd9b5343	-0.0758424
95	0xbcb7efcd	-0.022453213
96	0xbe9f55c1	-0.31120113
97	0xbe5a7b79	-0.21336164
98	0x3e67ad5b	0.22624724
99	0xbe9697c1	-0.29412654
100	0xbd49c52d	-0.049260307
101	0xbe11af0f	-0.14226936
102	0xbe4eead1	-0.20206763
103	0x3b83ef2f	0.0040263156
104	0xbd9ed094	-0.07754627
105	0xbcf72d31	-0.030172916
106	0xbcc0b3b8	-0.023523197
107	0xbec996de	-0.39372915
108	0xbe2e762d	-0.17037268
109	0x3d227cfb	0.039669972
110	0xbda11c3c	-0.078667134
111	0xbe843ad4	-0.25826132
112	0x3e0fda2d	0.14048071
113	0x3dcadd70	0.09905517
114	0x3d669798	0.056296915
115	0x3e397aa9	0.18113197
116	0x3e26edbe	0.16301629
117	0x3e69bdee	0.22826359
118	0xbebbf9da	-0.3671406
119	0x3d9cfbca	0.076652125
120	0x3d0fb783	0.03508712
121	0x3e5eccb9	0.21757783
122	0x3ea48127	0.32129785
123	0x3e7e96fa	0.2486228
124	0x3df38b27	0.118917756
125	0xbe26b462	-0.16279748
126	0x3db04478	0.086068094
127	0xbcd0376e	-0.025417056
128	0xbe6dae62	-0.23211053
129	0x3f0b2554	0.54353833
130	0x3c410ba7	0.011782563
131	0x3d8a0fbc	0.06741282
132	0xbd8e973e	-0.06962441
133	0x3dece81a	0.11567707
134	0x3dc6085b	0.096695624
135	0xbec28022	-0.37988383
136	0xbe0c180f	-0.13681053
137	0x3e90e029	0.2829602
138	0xbd8004f8	-0.06250948
139	0xbedb3584	-0.42814267
140	0xbe859abb	-0.26094612
141	0xbe12f89c	-0.1435265
142	0x3dd5cf56	0.10439937
143	0x3e70937d	0.23493762
144	0x3cf53170	0.0299308
145	0x3d9db132	0.07699813
146	0xbe0d0585	-0.13771637
147	0x3cd26509	0.025682943
148	0x3cd1258e	0.025530603
149	0x3e482550	0.19545484
150	0x3d8e11a6	0.0693696
151	0xbcc68039	-0.024231063
152	0x3ca11261	0.019662084
153	0xbd2ef175	-0.04271074
154	0x3e7ccd71	0.24687745
155	0x3e880a51	0.2657037
156	0xbd32836f	-0.043582376
157	0x3cbfea6b	0.023427209
158	0x3c9b4b9b	0.01895695
159	0x3e9d2826	0.30694693
160	0x3e5b305a	0.21405163
161	0xbe7ba6b2	-0.24575308
162	0x3e14ac69	0.14518894
163	0x3e9d0ce6	0.30673903
164	0x3cef0429	0.029176788
165	0x3d5f32b5	0.054491717
166	0xbdaf0ec2	-0.08547737
167	0x3e5877a4	0.2113939
168	0xbce7bd5b	-0.028288534
169	0xbe09443e	-0.13404939
170	0xbbe753a1	-0.00705953
171	0xbd9078bc	-0.07054278
172	0x3dbd9fcc	0.092589945
173	0xbcefbc58	-0.029264614
174	0xbdce16c3	-0.10062935
175	0x3d9c44a6	0.07630281
176	0xbd89d77b	-0.06730553
177	0x3eae78ad	0.34076443
178	0xbd69bc3e	-0.057064287
179	0x3d40b227	0.0470449
180	0xbd3eaf8d	-0.046554137
181	0x3d8f788a	0.07005413
182	0x3e67eee2	0.2264972
183	0x390274b9	0.00012441249
184	0x3e8d717a	0.27625638
185	0x3e5c0eb8	0.2148999
186	0xbf017c09	-0.5057989
187	0xbdaa49b2	-0.083148375
188	0xbe68296e	-0.22672054
189	0xbe8352d7	-0.2564914
190	0xbc063d58	-0.008193336
191	0x3cb39d97	0.02192573
192	0xbd9ea6a2	-0.077466264
193	0xbe12176b	-0.14266746
194	0xbea60032	-0.32422024
195	0x3da4accd	0.08040772
196	0xbec3c0fe	-0.3823318
197	0xbe7c4a3b	-0.24637692
198	0x3dc5b63e	0.096539006
199	0xbd980135	-0.07422105
200	0x3e4ee72d	0.20205374
201	0xbe8ed6fa	-0.2789839
202	0xbc3c8f4b	-0.011508773
203	0x3e85eb61	0.26156142
204	0xbcde0b2a	-0.027104933
205	0xbef7a70c	-0.48369634
206	0xbe15e66f	-0.14638685
207	0x3e48985c	0.1958937
208	0x3ea10496	0.3144881
209	0xbd998481	-0.07495976
210	0x3ca377ce	0.019954588
211	0xbdb3ac4a	-0.08773096
212	0xbd8f9477	-0.07010739
213	0xbe1a7b30	-0.15086055
214	0xbd89d3ab	-0.067298256
215	0xbbfa44f0	-0.0076376125
216	0xbe51ee53	-0.2050107
217	0x3dc85e87	0.09783655
218	0x3e79c423	0.24391226
219	0xbe267a23	-0.16257529
220	0xbb97e5a7	-0.004635531
221	0x3cd03992	0.025418077
222	0xbc8e06dd	-0.017337257
223	0xbdca5379	-0.098792024
224	0x3ebf1c53	0.37326297
225	0x3e53b63d	0.20674987
226	0xbe237b1c	-0.15964931
227	0x3e8a246b	0.2698091
228	0x3c3f6f2d	0.011684221
229	0x3e7fa669	0.24965824
230	0x3e1d56ee	0.15365192
231	0x3d7cd2ff	0.06172466
232	0xbc626c03	-0.013819697
233	0x3e3f9a67	0.18711244
234	0xbc5d454c	-0.013505291
235	0x3e87e232	0.2653976
236	0x3da24c44	0.07924703
237	0xbd8660b8	-0.065614164
238	0x3d0186f2	0.031622835
239	0x3e2eeadd	0.1708178
240	0xbe3f4dc9	-0.18682016
241	0x3bf208fb	0.0073863245
242	0xbbf286bc	-0.0074013155
243	0xbe1122e1	-0.14173461
244	0xbe19cc77	-0.15019403
245	0xbe09fc71	-0.13475205
246	0x3e965cb0	0.2936759
247	0x3d79ff88	0.06103471
248	0xbcb89c8a	-0.022535581
249	0xbe081fbb	-0.13293354
250	0xbeb6288b	-0.35577807
251	0xbe882902	-0.26593786
252	0xbe718d2e	-0.23589012
253	0x3e8c6515	0.2742087
254	0xbe129a71	-0.14316727
255	0xbd4b4883	-0.0496297

net.2.bias f4 [2]
0	0x3dc31c15	0.095268406
1	0xbda2ab62	-0.07942845
