Teaching Content/L4T4 - Pytorch/cartpole demo/checkpoints/policy_ep0450.pth (torch, 5824 bytes, 4 tensors)

net.0.weight f4 [128, 4]
00000000: 6856 3c3e 0629 f73c 2533 26bf 72aa afbe
00000010: 8368 ccbb 7c0d 89be 1f00 99bf 9bed 19bf
00000020: cc5b 553e 5f10 32be b34e 8bbe 568c 523d
00000030: c978 dc3d 3f54 7bbe 8993 913e 09aa 3ebe
00000040: 1ccc 1f3e a548 b6be 2978 4bbf f5b9 0bbf
00000050: 1565 5cbe b837 a7bd 99db 8f3f 08da 273f
00000060: 6cb6 163d 3c6b cfbe 3bae e53e 2b8f 043f
00000070: 0836 a03e dcb2 1abc ec57 413f bb5e 5d3e
00000080: dd04 d53e 727a 0fbf 9881 00bf e093 a7be
00000090: 3a4d a7be dea3 77be 954b 08bf 45d4 ea3d
000000a0: e52c b23c 66b5 10bf bf03 babe 100d 38bf
000000b0: c0c0 59bc 3c72 95be df5e 37bd 3364 983e
000000c0: 0531 a03d 0065 2cbe 91c7 d0be 1c1c 15bf
000000d0: 9e9b b4bc 0ae4 39be 6f4b 303f 2913 bb3e
000000e0: 03ed ddbe 29f3 b4be a758 5cbf 4721 bdbe
000000f0: bbbf b33e 523a e93e d830 813d ccb1 493f
00000100: 0f71 b23d 4388 c2bd 8f9e 0bbc fca3 c3be
00000110: 25da cd3d cd1c f0be b276 a2bd 8634 493e
00000120: bb1e 8f3c 7ab9 0abe df8f 0bbe 2c47 b2be
00000130: aeac 2f3e 5c49 b43d 8800 af3f 3af6 033f
00000140: e5e6 25be 90d9 68bd 85f1 79bf 07a2 1fbf
00000150: 8834 b7bd 77da 803d 1fc6 cfbd be10 9bbc
00000160: 6025 0dbf f8d5 763d 12d2 26bf 3e66 41be
00000170: 0b79 1dbf eaf2 f43c abd3 f6be 537f 10bf
00000180: 1415 9dbe 1346 4cbe 9e0b 68bf 3731 e0be
00000190: 4f93 d63d 07be 2d3d 68d8 37bf 06b9 eebe
000001a0: 53e5 893e c12a a13e d4fe c13f ed43 ad3e
000001b0: e32a cc3d 6677 033e 3e59 6abe 23e5 723e
000001c0: c1b9 263e 317a 6abc fb7d ec3d 6897 b43e
000001d0: 5aa4 f5be c60a e33d 6e92 d0be 4bcb a13e
000001e0: f638 48bb f7f6 6f3e daf1 37be 2502 02bf
000001f0: 955e b6be 3f20 a8be b359 ce3c 82e5 e03e
00000200: 1060 1a3e a421 b9be 45cf 223f 1290 613e
00000210: 4b5e b13e 9b29 c63e ae56 c83f 457e 133f
00000220: dc5f 49bf ef6b b83d 83dc 9bbf f7c9 d7be
00000230: ff14 423d 9791 163f 2eae 213f 9619 fe3e
00000240: 21ef 013e d807 25be 4636 45bf a8d8 4ebf
00000250: 36a3 7f3e 94b7 7f3e c60d 863f 2b4e 243f
00000260: 31f5 0b3e b422 9f3e cde8 22bf ea3f 74bd
00000270: a66e 833c 80f1 1cbe a76b bfbc f81f 9d3e
00000280: c4d0 013e 664e 52be 6f92 15bf 2566 c9be
00000290: 6594 cf3d c08d cebd 9860 14bd ca21 a43c
000002a0: ce15 01be 832e bfbe c4e7 95bf d0ad dcbe
000002b0: 3f43 c73c 9592 8bbe df82 a8bf 6562 22bf
000002c0: 53eb cf3d cf86 9a3d bb49 bfbe 190b 0abe
000002d0: 3696 a13e 352f 203f 37e8 c03f 3206 343f
000002e0: 85f2 dc3e 555a 0abf 45e0 18be 4aee 03bf
000002f0: 2deb cd3c 4ad1 f63c 4535 b03b 51f1 19be
00000300: baf4 c63c 4062 cabe 78b0 96bf 65ab 20bf
00000310: d959 f3be 5a0d c6bd c2f3 89bd 5ec4 883e
00000320: a785 6ebd 1876 e8be 990f 6fbf b6c3 9dbe
00000330: 5e2e 693e 225b a63e 826c 2d3f cc12 a83e
00000340: 3128 f3bd dff0 763e 2a07 26be bcb4 98be
00000350: bdfb 023e 7cbd 113f 8d38 763f ac31 523f
00000360: e23d 933d 173d 9dbe ecc6 3a3e 8903 8d3e
00000370: 93ed 95bd e30d d5bd 4565 76bf bee5 10bf
00000380: 020e f43d 3cdd 4abc d73c cbbe fc06 8ebe
00000390: a6f1 f3be e444 b53d 06f0 fbbe d096 873e
000003a0: c0c8 d4be f7bf cd3d 6b02 0bbf b49c 73be
000003b0: 71ed 82be 018a 65be 35d7 263e 3d99 e63e
000003c0: 6ef5 a53d 8ece 7ebe 71c0 b3be 050a ee3d
000003d0: 3426 15bf 1125 96bd ac50 83bf 307f fabe
000003e0: 2821 993e 83d9 193e 023f 6f3f e143 453f
000003f0: 34ee 023e 76cb 9e3d 7dd5 dbbd 4763 8cbd
0.18392336 0.030170929 -0.6492179 -0.34309727 -0.0062380447 -0.267681 -1.1953162 -0.6012818
0.20835799 -0.17389058 -0.2720848 0.051403366 0.107652254 -0.24543856 0.28432873 -0.18619551
0.15605205 -0.35602298 -0.79480225 -0.5458062 -0.21522935 -0.081649244 1.1238891 0.65567064
0.036795065 -0.405115 0.4485949 0.51780957 0.31291223 -0.009442057 0.75524783 0.21618168
0.41605273 -0.5604621 -0.50197744 -0.32730007 -0.32676107 -0.24183604 -0.5324033 0.114662685
0.021749923 -0.5652679 -0.36330983 -0.7189493 -0.013290584 -0.29188716 -0.04476821 0.29763946
0.0782185 -0.16835403 -0.40777257 -0.58246017 -0.02204686 -0.18153396 0.688651 0.36538056
-0.43344888 -0.35341766 -0.8607277 -0.3693945 0.35107216 0.45552307 0.06308144 0.7878692
0.087129705 -0.09498646 -0.00852169 -0.38211048 0.100513734 -0.46896973 -0.079327956 0.19648942
0.017470708 -0.13547316 -0.13629101 -0.34819925 0.17155716 0.08803055 1.3672037 0.51547587
-0.1620136 -0.05684811 -0.97634155 -0.6235661 -0.089455664 0.06291669 -0.101452105 -0.018928882
-0.55135155 0.06026265 -0.6516429 -0.18886659 -0.6151282 0.029900987 -0.48208365 -0.5644428
-0.30680144 -0.19948606 -0.90642726 -0.43787548 0.10477316 0.042417552 -0.71814585 -0.46625537
0.26932773 0.3147793 1.5155892 0.33840886 0.099691175 0.12838516 -0.22885606 0.23720221
0.16281797 -0.014311359 0.11547466 0.35271764 -0.47976953 0.11086039 -0.40736717 0.31600413
-0.003055153 0.23434053 -0.17963353 -0.5078452 -0.35619035 -0.32837102 0.025189256 0.439251
0.15075707 -0.36158478 0.6359752 0.22027615 0.34642252 0.38703617 1.5651453 0.57614547
-0.78661895 0.09004962 -1.217667 -0.42146274 0.047383305 0.588159 0.631564 0.49628896
0.12688877 -0.16116273 -0.7703594 -0.8079934 0.24964604 0.24972373 1.0472953 0.64181775
0.13667752 0.31081164 -0.63636476 -0.059631266 0.016043972 -0.153265 -0.023366762 0.30688453
0.12677294 -0.20537719 -0.58426565 -0.39335743 0.10135726 -0.100856304 -0.03622493 0.020035643
-0.12605974 -0.37340173 -1.1711354 -0.43101358 0.024324058 -0.2726027 -1.3164939 -0.6343139
0.101523064 0.07545244 -0.3736094 -0.13480796 0.31559914 0.6257203 1.5070866 0.70321953
0.43153778 -0.54044086 -0.14929302 -0.51535475 0.025136555 0.030129094 0.005377444 -0.15033461
0.024286617 -0.39528084 -1.1772604 -0.6276153 -0.47529486 -0.09670515 -0.06735946 0.26712316
-0.05823293 -0.45402598 -0.93383175 -0.30813378 0.22771594 0.32491404 0.67743695 0.3282684
-0.118729 0.24115323 -0.1621367 -0.2982539 0.12791343 0.56929755 0.9618004 0.82107043
0.071895376 -0.3071067 0.18239945 0.2754176 -0.07320704 -0.10403039 -0.96248275 -0.5660056
0.11916734 -0.012381848 -0.39694855 -0.27739704 -0.476453 0.088510305 -0.4920656 0.26482248
-0.4155941 0.1004638 -0.54300565 -0.23790246 -0.25571778 -0.22415926 0.16293032 0.45038787
0.081034526 -0.24883482 -0.3510776 0.11623005 -0.5826142 -0.073312886 -1.0258994 -0.4892516
0.2990811 0.1502438 0.9345552 0.770567 0.1278618 0.07753651 -0.10734079 -0.06854873

net.0.bias f4 [128]
00000000: d798 083e 60ef 093e aafb 10bf 43da 0abf
00000010: 3d17 973c d4db 1f3e 838a d8be ed94 323e
00000020: a9b5 99be a537 5bbe ad3a d23d 6fd1 a5be
00000030: 4be2 7f3d ce2b b3be 4f16 063e 1e5a b3bd
00000040: 5636 05bf 49e5 e1be 84da f7be 80e2 fb3e
00000050: 6d10 a3bc 5da0 9dbe bb52 28be f6ac 27be
00000060: cc1c 453d 39b1 bcbe ae5e cf3e 9cb0 14bf
00000070: 75c9 d8be 0f2a 57be 5208 a2be 37ec d3be
00000080: b2f0 ebbe 7003 043f 3a20 3cbe 1b4c aa3e
00000090: 3313 b43e d5bd b73e b38a d8be e818 a5be
000000a0: 2384 08be a4c6 e1be 8442 753d f504 1b3e
000000b0: 8a03 17bf 5d41 093f 5a91 05bf f80a e0be
000000c0: 93fb 413e 87f6 8fbe 99dd 933d d02d 9d3e
000000d0: 1ea0 f2be ded0 053f b265 adbe 1138 e53d
000000e0: 28ee 05bf d166 3bbe 3743 93bd d867 9fbe
000000f0: 8f7f 91be 6248 b9bd 9c5d 523e 7d0d 5b3e
00000100: 1018 06bf 3d93 603d 562e a8be 43e0 c63e
00000110: 5f0a edbe 2ca2 cebe 185b 5abd 9a0b b63d
00000120: a60a 5dbc 9fc4 31bf 89d1 ebbd 176d d6be
00000130: 4a09 98be 634c d63b 2738 e43e 64ca 07bf
00000140: 1719 28bd 2c64 033a b301 b53e e5fc f0be
00000150: 58c0 b13e 8ab5 0cbf 40b3 94be 3010 c5be
00000160: e8ca cabe fd8e d63e 6596 b0be a5df b7be
00000170: a504 8f3e 06ab a3be fd3a 4cbe 8d14 473e
00000180: 43a5 5dbe 8712 823e 1f1d e3be ea04 0c3e
00000190: 9acb 71be 36f7 babe 71a8 b33e c78c 34be
000001a0: 4b18 d7bd 650e 97be b122 f73e eebe 49be
000001b0: 6bdc c73c 4b86 cebd e078 083e 1e7b c2be
000001c0: 5f10 fe3d c493 d4be 8c68 efbd 7a05 45bf
000001d0: 0280 933e 4e68 83be 1e9e 22be b094 0fbf
000001e0: 155a ccbe 6473 2abf ebd6 13bf ce74 23bf
000001f0: 873d f73e ef75 0ebf 3bd3 a73e c2e9 69be
0.13339554 0.1347022 -0.5663401 -0.5423929 0.018443698 0.15611202 -0.42293176 0.17439623
-0.30021408 -0.21407945 0.10265098 -0.32386348 0.06247167 -0.34994358 0.13094448 -0.08757423
-0.52036035 -0.44120243 -0.48408902 0.49196243 -0.019905293 -0.3078641 -0.16437809 -0.16374573
0.048123166 -0.3685396 0.40501922 -0.58081985 -0.423412 -0.21012138 -0.31646973 -0.41391155
-0.46082073 0.51567745 -0.18371668 0.3326119 0.35170898 0.35887018 -0.4229332 -0.32245564
-0.13331656 -0.44096863 0.059877887 0.1513861 -0.58989775 0.5361536 -0.52174914 -0.43758368
0.18943624 -0.28117773 0.07220001 0.30699015 -0.47387785 0.5227183 -0.3386665 0.111923344
-0.5231652 -0.1830094 -0.071905546 -0.31133914 -0.28417632 -0.09047009 0.20543522 0.21391864
-0.52380466 0.054827917 -0.32847852 0.38842973 -0.46296975 -0.40358102 -0.05330953 0.088889316
-0.013491308 -0.69440645 -0.11514575 -0.41880104 -0.29694587 0.0065398677 0.4457409 -0.530432
-0.041039553 0.000501218 0.3535286 -0.47067943 0.3471706 -0.54964507 -0.29043007 -0.38488913
-0.3960793 0.41905966 -0.34489742 -0.35912815 0.2793323 -0.31966418 -0.19944377 0.19441433
-0.21645074 0.2540476 -0.44358155 0.1367375 -0.23612824 -0.36516732 0.35089448 -0.17631827
-0.105026804 -0.2950317 0.48268655 -0.1970174 0.024397096 -0.10084208 0.1332736 -0.37984556
0.12405466 -0.41518986 -0.116898626 -0.7696148 0.288086 -0.25665516 -0.1588063 -0.56086254
-0.39912477 -0.6658232 -0.57749814 -0.63850105 0.4828913 -0.556487 0.32778344 -0.22843078

net.2.weight f4 [2, 128]
00000000: ed80 dfbc e674 433e 5070 603d ed41 353d
00000010: 8dad c33d 6c34 82bd 0902 32bc 6539 cebd
00000020: 20ce d3bc 122c 063d e7c3 5a3e cbea c8bd
00000030: 8df2 85bc f07d 17bd c9c4 f83d 1355 84be
00000040: a8d2 343d 7cce f8bd 215e 9d3c 909a 42be
00000050: 1338 f63d 6768 0dbd e29c 933e db34 b03e
00000060: 45be 1c3e 5f1a 313d 6333 21bf 08bd b6bd
00000070: 7764 41bc 25cd 263e aae6 03bd 57f1 7c3d
00000080: c158 b43d f350 0bbf 6073 b43e 50fd 2bbe
00000090: 040f e1bc 8179 d2be 6580 71be 7ed1 64bd
000000a0: cb14 003c e7c6 bdbc 6687 613e 2d6f 603e
000000b0: 2d11 b8bd 9c94 e9be 7fd3 793d 26bd 9e3a
000000c0: 3153 2e3e 87bd 463d 8b0a 9d3c e4d2 d9bd
000000d0: 308a e0ba c08a e6be df98 493c f45f 5d3d
000000e0: eb09 813d b5d8 5c3e 8a2f fb3d bdce c03b
000000f0: c314 d7bc 0162 9e3e 222b c5be c9e5 86bc
00000100: 24cd dbbd 1eca ff3d deb6 cabd 08e9 7bbe
00000110: acbe 20bd 0e03 97bd 8594 903d d3ec 883e
00000120: f921 853e 1515 55bc 02bc ed3d 48b3 bb3c
00000130: 1688 7e3d 4c62 0a3e e8c1 69be e3f5 113c
00000140: 620e 7e3e 9eb5 8b3e 4044 0ebf c6ef e43d
00000150: 3351 debe 8a21 88bc 3dce 21be c773 633d
00000160: 18e1 303d e7d2 9ebe 100e 26be 6e62 603e
00000170: 3e24 883c 09eb 423c c47c 283d 0efc 9c3e
00000180: 436c dabe a117 2c3e 1176 c4ba 0ed0 083d
00000190: 159a 003b 8ad7 85be ee12 5abe 1b44 bf3d
000001a0: c845 253e f933 a83e 11de 04be cdd8 a2be
000001b0: f691 b73e 23f8 a4be a9d6 373d 6c5e 04bc
000001c0: 5b4b edbc bd76 7fbd 4685 033e c840 a33d
000001d0: 8f28 95be 2679 4ebd 14e2 fc3d 240f d93e
000001e0: ed18 013e 8f02 213d 50c1 9fbd cd0d f63d
000001f0: 5175 3cbf 08c5 c5ba 961d c2be 15bb 1d3d
00000200: 13c8 72bb 97a2 aebd 88c0 c4bd 3dd9 f6bc
00000210: ec1d bdbc 3673 023e 96b7 e73d 244b 973d
00000220: e178 e5bd e9d6 0ebe 731b 40be 00cf e6bc
00000230: 34ab 7ebc 2521 34bd 363f 0bbe c3b7 9e3e
00000240: 1316 34bd 5e3c 373a 16ff 4bbc 4980 8e3e
00000250: 23a6 5cbe 35b2 88bd d522 89be 9688 cabe
00000260: d1f2 7fbe 02b5 ec3b 59b2 053f 2138 bdb9
00000270: bd42 813d 3eef 63be 3d03 21bb cc52 02bd
00000280: 2850 413d fde0 013f bc50 7abe d117 e43d
00000290: 449a c4bd 49c3 c03e 6572 8e3e 3224 23bd
000002a0: 951e 63bd 69ce ee3d 1dbf 89be bb43 0fbe
000002b0: 4e1b 87bd 53fa 1c3f e1db efbd f883 a83d
000002c0: 8328 efbd 5ded 1fbe 45b7 c0bd 2364 733e
000002d0: 655c 733d dfc4 bb3e a957 4d3d 0c7f b0bc
000002e0: 23bc e0bb d250 51be af39 ddbd a805 84bd
000002f0: 7645 8bbd 2206 c2be a6e2 783e b7c8 1d3d
00000300: 2d94 d83d f14e 50be 10fa 863d 2373 6f3e
00000310: 00fb c6bd 3b4b 6dbd a344 db3b 69c4 4abe
00000320: c3b5 8dbe d581 863d ce65 073d f3c5 873b
00000330: 2815 8dbd d683 4dbe 4dfe 503e 3b84 9dbc
00000340: 784b 86be faca c1be b0df 113f 6de9 fb3a
00000350: fd45 c93e d47d 92bc ad4d 853e c29d 7fbd
00000360: 9877 f3bc e719 993e 1998 6c3e ddb3 93be
00000370: ee3e af3c 8b6c a2bd 868d 40bd 724e 9bbe
00000380: 1f8f bc3e 9c0c 3bbe 48ac 59bd 0530 85bd
00000390: 0809 66bc 648b 853e d7d4 1a3e 8619 1fbd
000003a0: 927c 88bd c777 b6be 8194 0e3e 9c34 313e
000003b0: b27d 6fbe 6440 b13e 20a8 b9bd 768b 26bd
000003c0: 57cc 2f3e 79b2 91bc ac84 f1bd 3e47 c1bd
000003d0: 4842 8b3e ae89 ff3d a8a2 1bbe e4b3 ddbe
000003e0: 54c5 1dbe 865c 98bd 22bb 21bd c93c 1a3c
000003f0: b827 293f 6c91 a63d 1817 a03e 26cc b7bd
-0.027283156 0.19087562 0.05479461 0.044252325 0.095545866 -0.06357655 -0.010864743 -0.10069541
-0.025855124 0.032756872 0.21363793 -0.09810408 -0.016351009 -0.036985338 0.12146909 -0.25846156
0.04414621 -0.12148759 0.019209923 -0.19004273 0.12022414 -0.034523394 0.2883063 0.34415326
0.15306957 0.04323804 -0.62969035 -0.089227736 -0.011803738 0.16289194 -0.0322024 0.061753597
0.08805991 -0.54420394 0.35244274 -0.1679585 -0.02747298 -0.41108325 -0.23584135 -0.05586385
0.007817457 -0.023166133 0.22024307 0.2191741 -0.08987651 -0.45621192 0.060992714 0.0012110814
0.17023923 0.04852059 0.019170066 -0.10635927 -0.0017131027 -0.45027733 0.012304514 0.054046586
0.0630072 0.21567042 0.12264927 0.00588402 -0.026255017 0.30934146 -0.3850947 -0.016466992
-0.10732487 0.12489723 -0.098981604 -0.24600613 -0.03924434 -0.073736295 0.07059578 0.26743183
0.26002482 -0.013005515 0.11608125 0.022912636 0.0621415 0.1351406 -0.22827876 0.008908722
0.24810174 0.27287 -0.5557289 0.11178546 -0.43421325 -0.016617555 -0.1580133 0.055530336
0.043183416 -0.3102028 -0.16216302 0.21912548 0.016618844 0.011896857 0.04113461 0.30661052
-0.42660722 0.16805889 -0.00149888 0.03340154 0.001962309 -0.26141006 -0.21296284 0.09339162
0.161399 0.32852152 -0.12975337 -0.3180603 0.35853547 -0.32220563 0.04488245 -0.008079153
-0.028966596 -0.062369097 0.12843809 0.079713404 -0.29132506 -0.050408505 0.123478085 0.42394364
0.12607165 0.03930908 -0.07800543 0.12014351 -0.7361651 -0.0015088627 -0.37913197 0.038508493
-0.0037045523 -0.08527105 -0.09607035 -0.030132884 -0.023085557 0.12739262 0.11314313 0.07387379
-0.112046964 -0.13949169 -0.18760471 -0.028174877 -0.015543748 -0.04397692 -0.13598332 0.30999574
-0.043966364 0.00069898914 -0.012450954 0.2783225 -0.21547751 -0.06674615 -0.26784387 -0.39557332
-0.24994971 0.0072237263 0.5222526 -0.00036090708 0.063115574 -0.22259232 -0.002456858 -0.031817243
0.047195584 0.5073393 -0.2444486 0.11137355 -0.09599736 0.3764899 0.2782165 -0.03982944
-0.055449087 0.11660463 -0.2690362 -0.13990681 -0.06597005 0.61319464 -0.117118604 0.08228296
-0.11677649 -0.1561789 -0.09409956 0.23768668 0.059414286 0.36673638 0.050132427 -0.021544956
-0.006858365 -0.20440987 -0.10802018 -0.06446391 -0.06800358 -0.37895304 0.2430521 0.038521495
0.10575137 -0.20342614 0.065906644 0.23383765 -0.09715843 -0.057933073 0.0066915317 -0.19801487
-0.27677736 0.06567732 0.033056073 0.0041434704 -0.06888801 -0.20069823 0.20409508 -0.019228091
-0.26229453 -0.3785017 0.56981945 0.0019219347 0.3931121 -0.017882265 0.26035824 -0.06240631
-0.029720113 0.29902574 0.23104896 -0.28848162 0.021392312 -0.07930859 -0.047009967 -0.30333287
0.36827943 -0.18266529 -0.053142816 -0.065032996 -0.014040239 0.2608291 0.15120254 -0.0388427
-0.06664385 -0.35638258 0.13923837 0.17305225 -0.23387793 0.3461944 -0.090652704 -0.040660344
0.17167793 -0.017785298 -0.11792883 -0.094374165 0.27199006 0.12477432 -0.15198767 -0.43301308
-0.15407306 -0.074395224 -0.039485104 0.009413906 0.6607623 0.08133206 0.3126762 -0.08974485

net.2.bias f4 [2]
00000000: 4eef 6fbd 554d e73d
-0.058577828 0.11294047
