Teaching Content/L4T4 - Pytorch/cartpole demo/checkpoints/policy_ep0400.pth (torch, 5824 bytes, 4 tensors)

net.0.weight f4 [128, 4]
00000000: 9058 c23e 0de0 a9be db0f 97bf cbc3 84bf
00000010: e456 513e caf1 423e a236 b33f 9d1e 8e3f
00000020: 4f69 0fbe b3b6 93be fe17 2c3d f074 823e
00000030: 0c96 453d dff8 d83d ea90 af3f 55ae 323f
00000040: fcbc 72bd 1029 d93d 2374 c9be 14cc e13e
00000050: b3b8 513e 22b9 c6be 7d8a a73c 8ed7 733e
00000060: f671 6c3d 53a5 cabe 12fc 41bd d9eb bd3d
00000070: 818d 043e da9a 48be 4560 b2bf 36fc 87bf
00000080: 87ce 5bbe 6312 dbbd 46e8 03be 56a9 9ebe
00000090: 5c30 a33e cc39 fc3b c822 963f d854 7c3f
000000a0: 653d 26be 9395 ba3e fb3a 24bf 7f6c 86be
000000b0: f49c 0fbd afb6 a1bd d839 c0bf ff3e 88bf
000000c0: dd23 693e 4cfa 96be e5e3 a6bf 784a 6ebf
000000d0: 6648 973e 2011 873e 59f8 a8bf 8d21 27bf
000000e0: 0f00 643e 1b88 a53d 1c9d 1c3e fc86 bb3e
000000f0: 11cd d13e 6e7c 4fbe a7b2 693f 86c6 253f
00000100: 985f 413d 2bff 143e 190b 8bbe dfa3 1f3f
00000110: a7e9 1dbe 4487 cd3d cea2 923d 57b5 99be
00000120: dd81 49bf 9b9b 71be 7f85 9a3d cd97 68be
00000130: 062c d7bc 309d 30bd 74f6 a33e 3e99 843e
00000140: bfbd d93a aba7 1abd 22e9 89be 21cd acbc
00000150: 621e 423e 5f60 853c 465a 963f 68aa 563f
00000160: 332c 6abd 15fb 1bbe 7603 04bf b83c 963e
00000170: 5d80 753e 38c9 bdbe 53f8 42be 8680 d6be
00000180: 0539 b8be 1f5a c33e 2f4c db3e e189 4a3f
00000190: 8521 b5bc c11c 8abe dfd0 cb3e 5ae9 e4bc
000001a0: 936f 3b3e 5b12 1f3e 5366 9b3f a087 813f
000001b0: 31f3 6a3e b950 ec3d 35db 9d3f 90cb 733f
000001c0: d157 95bc ba98 45bd d75c 8abe 4129 07bf
000001d0: 907a 573e a1cd 083b b918 523d 4d3f 53bb
000001e0: d8f2 033e 0db9 f33d 8f74 123f 7f1c 103f
000001f0: 9c84 dd3e b1e5 afbe dcf3 df3e 655f 8f3f
00000200: bb6f 0d3f 1077 e2be e353 ae3e 10b5 ed3d
00000210: 7277 fdbd b1c1 8e3e d514 d0bf 2d70 a0bf
00000220: bc48 d93e 2b7e a7be 3e58 c13e 131e 3f3e
00000230: c210 d53d 0b47 be3e 27a3 ab3f ac3c a63f
00000240: 2bb2 01be a443 a03e 0bca 083f 4705 f43e
00000250: 6fca 523e 1d96 183e c3bc bc3e 0f54 4fbe
00000260: 575b c13d 8f04 963c 16b8 4cbf eafe 59bf
00000270: 8c49 a53e b779 f13e 28b5 803f b389 ab3f
00000280: 4bda 1e3d 2b90 963e 2e25 3c3f 1d96 d03e
00000290: d1a6 e9bd 0e9e c13e 197e 83bf 0967 e0be
000002a0: cdc7 83bb 29a2 46be 29ff 0e3f 2f5b 173e
000002b0: 5dfe c3be 79c9 d13d 1626 13be 8247 293e
000002c0: d301 443e ca30 f8be b468 603d efe2 3ebd
000002d0: 9441 fdbb ae1e 8ebe 0f15 c6be 0d35 b33e
000002e0: 4adf 85be 0914 2bbe 744f 45be 172c 20be
000002f0: a7ed 58be 567b 233e 61e3 403f c2ae 073f
00000300: 32ab a0be 63fe 6b3e fef5 95bd 9670 89bd
00000310: a316 0e3e ee5b 693e 3ce1 0e3f fbb5 933f
00000320: 6408 4bbe e8ee ee3d a964 953e 0746 c4be
00000330: 2f3f 0d3d e42c 723d 7d39 be3e 0b3a b5bc
00000340: e13c 32bd b3e1 083e b809 61be 4772 a9bd
00000350: 9787 0ebf 3f9d 1e3e 96c3 bc3e da97 c3bd
00000360: 09d6 273e a25f 2c3e a633 393f 6b39 833f
00000370: 722a 8ebd 5174 513b 5128 203e 26f3 993c
00000380: c890 733e eaba 9ebc e90d 933f b0ca 2c3f
00000390: 6a18 fb3e 7490 8ebe 4775 3f3e 3139 293f
000003a0: b91d c2bd 1cf0 bdbb b61c 80bf 0990 6cbf
000003b0: 3fdd 39be b058 d03d 3ffa f1bd d373 8abe
000003c0: d946 c03e 7b01 edbd 40ee 84bf 5574 8bbf
000003d0: 697c d2be eb8e 27bf c100 92be 91a9 3abf
000003e0: 5a65 abbe 3a46 0b3e 4697 1bbe 1b95 793d
000003f0: f942 0fbb 194d 023c a54f 603d 0b9b e7be
0.37958193 -0.3317875 -1.1801714 -1.0372251 0.20443302 0.19037548 1.4001048 1.1103092
-0.14005016 -0.28850326 0.04201507 0.2547984 0.0482388 0.105943434 1.3716099 0.6979726
-0.05926226 0.10603535 -0.39346418 0.44101012 0.20480613 -0.3881312 0.020451779 0.23812696
0.05772587 -0.39579257 -0.047359534 0.092735 0.12944604 -0.19590321 -1.3935629 -1.0623844
-0.21465503 -0.10696866 -0.12881574 -0.30988568 0.31872833 0.0076973196 1.1729364 0.9856696
-0.16234358 0.3644224 -0.641525 -0.2625465 -0.03506179 -0.07896172 -1.5017653 -1.0644225
0.22767587 -0.29487836 -1.3038298 -0.9308238 0.29547423 0.26380253 -1.320079 -0.6528557
0.22265647 0.08082601 0.15294307 0.36626422 0.40976766 -0.2026231 0.91288227 0.6475605
0.047210306 0.14550464 -0.27156904 0.6235942 -0.15421163 0.100355655 0.07159959 -0.30021164
-0.7871378 -0.23594515 0.075449936 -0.22714157 -0.02626611 -0.043118656 0.32023966 0.25898165
0.0016612335 -0.037757557 -0.2693568 -0.021093907 0.18956903 0.016281305 1.1746299 0.8385377
-0.057171058 -0.15232499 -0.5156778 0.293432 0.23974748 -0.3706758 -0.1904004 -0.4189493
-0.35981002 0.38154694 0.4283156 0.79116637 -0.02211071 -0.26975062 0.39807793 -0.027943302
0.18304281 0.15534346 1.2140602 1.0119514 0.22944333 0.11538834 1.2332522 0.95232487
-0.01823035 -0.048241355 -0.27023956 -0.52797323 0.21042848 0.0020874518 0.05129311 -0.0032233775
0.12885606 0.1190053 0.57209104 0.5629348 0.43265235 -0.34354928 0.43740737 1.1200987
0.5524861 -0.44231462 0.34048375 0.116068006 -0.12376298 0.2788215 -1.6256357 -1.2534233
0.42438304 -0.32713446 0.37762636 0.18663816 0.10403587 0.37163576 1.3409165 1.2987266
-0.12665622 0.31301606 0.53433293 0.47660276 0.20585035 0.14901014 0.36862764 -0.2024691
0.0944125 0.01831272 -0.7996839 -0.85154593 0.32282674 0.47163174 1.0055285 1.3401397
0.0387824 0.29406866 0.7349423 0.40739527 -0.11408771 0.378159 -1.0272857 -0.4382861
-0.004021621 -0.19397797 0.55858094 0.14780878 -0.3828 0.10243506 -0.14369997 0.16531184
0.19141321 -0.48474723 0.054787353 -0.04660314 -0.007728765 -0.27757782 -0.3868794 0.35001412
-0.2614692 -0.16706862 -0.1926859 -0.15641819 -0.21184407 0.15965018 0.7534695 0.53001034
-0.31380612 0.2304626 -0.0732231 -0.06710927 0.13875823 0.22788975 0.5581243 1.1539911
-0.1982742 0.116666615 0.2917836 -0.38334677 0.034484085 0.059124842 0.37153235 -0.022122404
-0.04351509 0.13367347 -0.21976364 -0.0827375 -0.55675644 0.15489672 0.3686797 -0.09550448
0.16390242 0.16833356 0.72344434 1.0251898 -0.069416896 0.00319602 0.1564038 0.0187927
0.23785698 -0.019376237 1.148862 0.67496777 0.49042064 -0.27844584 0.18697082 0.6610289
-0.094783254 -0.0057964455 -1.0008762 -0.9240728 -0.18150805 0.10173166 -0.11815309 -0.27041492
0.37554052 -0.11572548 -1.0385208 -1.0894877 -0.41110542 -0.6545245 -0.285162 -0.7291499
-0.33475763 0.13601008 -0.15194425 0.060933214 -0.0021859987 0.007952952 0.054763455 -0.45235476

net.0.bias f4 [128]
00000000: 295d 993e 01b1 053e dc64 b6be 30aa d93e
00000010: 6430 03bf dc69 afbe a816 15bd e560 813e
00000020: cfd6 13bf 524c 063e f863 403e deae 903e
00000030: e40c 9b3e 50c9 a93c a2db 00bf 7785 42be
00000040: d198 e8bd 2721 a2be 02e1 c73c ee15 fabe
00000050: c1bd a0be 4723 8d3e 5c19 27bf e2b0 4dbf
00000060: 4083 2f3e c7e8 e9bc adb7 b13d b58e 623d
00000070: 2a4d 003d b4ba 15bf b6bd 653d 7c39 3fbc
00000080: ca89 03bf 14de db3e a445 c4be 148f 7a3e
00000090: 942f a1bd 911d 46bf 25f1 c2be c953 7a3e
000000a0: d544 6a3e 5fd4 543d 3919 4bbe 3753 0e3d
000000b0: 20dd a2be 22ff 28bf c7b8 ee3d aa3b 0c3e
000000c0: aa31 07bf 47b4 3c3d 9ca3 86be 2070 c3be
000000d0: ffd9 10bf 494e f2be aa7d fe3c b138 bfbe
000000e0: d8b8 b73d c6f2 b8be bfe3 8d3e 6598 ddbe
000000f0: b8a5 343e 3906 bb3e 83a5 08bf ade8 14be
00000100: b5c6 11bf 201d 053b dff3 3c3e 45b2 813e
00000110: de90 0b3f cbd0 c63e 7046 4e3e a3c6 40be
00000120: edbb 5cbe 828f 903e 91e5 aabe 5e22 a63e
00000130: 7f9a d9be f095 c13e 6bfa 69be 37bc 803e
00000140: e523 813e c186 05bf 2d70 70bd 968d 01bf
00000150: 9b91 06bf 4424 253d 4684 3dbe 0e83 85be
00000160: 5a67 bb3c d329 f5be eed1 8d3d 9aa1 ae3d
00000170: 20e5 1fbe 4269 c3be 295c 1dbe 5f1f 06bf
00000180: a3bf ec3d 1faa a83e 2bba 45bd 3183 46be
00000190: 5940 86be 47ef a23e 3246 353e 6155 adbe
000001a0: 8db4 debe 1b31 8f3e 53ac 20bf 77b3 7e3d
000001b0: b3e5 eb3d 841e 84be a86f 96be 5c03 babd
000001c0: 8d96 f5be e770 a7be dbbd 47be 40b9 af3d
000001d0: 31d5 b5be d1cb 10be 944a be3d a994 9bbe
000001e0: 2e39 043d bda7 823d df91 773e 4e94 803c
000001f0: aabe bdbd 274e 8c3e 5e71 103e abd5 11bf
0.29953888 0.13055803 -0.35623825 0.42512655 -0.51245713 -0.34260452 -0.03639856 0.25269237
-0.57749647 0.13115051 0.18788135 0.28258413 0.30283272 0.020725876 -0.50335133 -0.18996225
-0.113572724 -0.31665918 0.024399284 -0.48844856 -0.3139477 0.27565977 -0.6527307 -0.80348027
0.17139912 -0.02855338 0.086776115 0.055311877 0.03132359 -0.5848801 0.056089126 -0.01167142
-0.51382124 0.4294287 -0.38334382 0.24468642 -0.07870403 -0.77388865 -0.38074604 0.24446024
0.2287782 0.051960345 -0.1983384 0.03474733 -0.3180933 -0.660143 0.11656337 0.13694635
-0.52810156 0.046070363 -0.262967 -0.38171482 -0.56582636 -0.47325352 0.03106578 -0.3734794
0.08970803 -0.3612272 0.2771282 -0.4328033 0.17641342 0.36528185 -0.5337755 -0.14541884
-0.5694383 0.002031155 0.18452404 0.2533132 0.54517925 0.3883117 0.20144057 -0.18825774
-0.21556063 0.28234488 -0.3337827 0.32448095 -0.42500684 0.37809706 -0.22849433 0.25143597
0.25222698 -0.52158743 -0.05870073 -0.5060667 -0.52565926 0.04031779 -0.1850749 -0.2607655
0.02287643 -0.47883472 0.069248065 0.08526917 -0.15614748 -0.38166243 -0.15367188 -0.5239162
0.11559989 0.32942292 -0.048273247 -0.19385983 -0.26220968 0.3182318 0.17702559 -0.338542
-0.43497124 0.27967152 -0.62762946 0.06218287 0.11518421 -0.25804532 -0.29382062 -0.09082672
-0.47966424 -0.32703325 -0.19506018 0.085802555 -0.35514215 -0.1414025 0.092915684 -0.30386856
0.032281093 0.0637965 0.24176739 0.015695717 -0.09264882 0.27403376 0.14105746 -0.56966656

net.2.weight f4 [2, 128]
00000000: c867 cf3e ac3d 1fbf 987b cf3c e64f 67be
00000010: 62e5 a03d d3f7 afbd e465 a2bd b136 d63e
00000020: 5984 fd3d d89a f6be 78c5 d5bb be90 d03e
00000030: 1508 983e 1299 613d 02c4 933c 9105 fabd
00000040: 1bc5 0cbd 0142 a13d cd1b 253e 8180 943d
00000050: 7b78 04bd b57e 3abe 98f6 aebc c1d9 9dbd
00000060: 25c0 37be e36e 45bc c36e b0be 8d12 e0be
00000070: 333c 58bb eab7 03be 1dd4 ecbd e3b2 a5be
00000080: 6462 9dbc 0427 c63e 8f60 27be 69fc d3be
00000090: b2e2 c0bd 7e2a a03c e858 693d 124a c5be
000000a0: c2a9 1bbe e268 cd3d 9b73 a1bd 0651 3f3c
000000b0: 7d81 08be 221e b83c 9288 b23c 15f8 a8bd
000000c0: 991a e6bc 1ef3 86be 80dc 143b 383c 2d3d
000000d0: ba6a e8bc 47db 00be c146 67be 97fc 0339
000000e0: 766d 97be 8033 3ebe 7fef e03e f6ec e4b9
000000f0: 4e88 3f3e fb51 9e3e ec12 853d 5e99 373d
00000100: b4d5 183d 5b48 153c 2327 873e 957f 71be
00000110: 07da 093f b64e 8d3e 12e9 bdbe ce96 163e
00000120: 1ed6 43bd 47b7 c63e 1303 013c 7c5f 6cbe
00000130: cd26 e73d f11b 0a3f c078 db3d 6796 b0be
00000140: 79a3 d2be 57bb acbd 8bc7 0dbd 666c cb3d
00000150: 459a 4fba 6af3 153e 01fe 3a3d 1cde 4a3d
00000160: 056e b13d 4c95 aa3d 3408 81be 1ad9 093e
00000170: 4402 1b3d 943b 523c 1e25 9bbd 0919 20bd
00000180: 8010 adbe d36a eebe 16b3 2d3e 25ec 81be
00000190: bf03 4abd 58f8 7abe f94e 8fbe ffe7 773b
000001a0: 4431 36bc 8864 1dbe 06c7 c0bc b0ad dfbe
000001b0: dfdf 95be fd51 14be 518c 4dbe 46b3 32be
000001c0: 86f9 0b3d 75e5 473d 2940 453d 79f2 653e
000001d0: 9f2a 413e f236 233e 3545 e5be ff24 9d3d
000001e0: f32d 07bd 9e98 5d3e 2635 ca3e 9685 603e
000001f0: 3869 d53d b544 67be 7fb1 db3d 58db d1bc
00000200: 4e2d 96be 8ab5 303f aa0d cf3d 0c44 453e
00000210: 2b35 8ebd 2e3a ea3d 7a06 c83d 9d3b ddbe
00000220: a022 0cbe 6064 b03e ff78 863c 8791 f7be
00000230: 8825 9dbe e371 2cbe 1094 95bb c083 383e
00000240: ecd2 f63b e215 7f3d 4290 c3bd 665f d23c
00000250: fc24 d13c 67bd 903e 71f1 883d b440 04bd
00000260: f857 293e f18d b53c 3e00 b33e 79c4 a83e
00000270: 3a20 afbc b7ee bf3c 2de4 173d bb37 973e
00000280: 62da 043e 6ad8 84be 5e32 113e 91a9 df3e
00000290: 6781 ca3d 22dc 5fbd d28d 00be 9f84 923e
000002a0: a9db 1d3d 2ef0 d4bd 17c2 c1bc 08bc 39bb
000002b0: c635 bd3d 24d6 11bd bf4e 35bd 878e 463e
000002c0: f5d4 88bd cd87 d83e 9e25 c2bc c692 a8ba
000002d0: be27 3ebd 077e 933d b143 8f3e e92b f338
000002e0: 2175 863e 22d1 703e 09f2 e7be bd79 a9bd
000002f0: 1c0a 8bbe 6069 6fbe 52c8 06bc aeb8 e1bb
00000300: 315c 9ebd dcd0 25be 639e 91be 78ae 603e
00000310: 198c c9be 88c9 6abe 2c72 8c3e 9803 cbbd
00000320: 9dd8 473e 62ae 8cbe 84b2 c13b 7435 ad3e
00000330: 7d7c debc 1375 febe 49ea 09be 5a82 913e
00000340: 1bb8 e13e 6484 99bd 7edf 6cbb bebe b3bd
00000350: d39a ebbd e9b1 29be 7861 09bd 3270 f1bb
00000360: e32a 4cbe bf7b 1e3d 914d a63e ca03 4cbe
00000370: 0142 88bb dc2d 2ebd 83bf 8ebc ee42 a8bd
00000380: 12d7 cc3e 3908 eb3e b601 d3bd 95f1 6a3e
00000390: 8a69 403c e177 b43e 1a0a 6d3e 64d2 7d3d
000003a0: ea57 a4bd a80c 9f3e a81e 5dbc 04f9 9d3e
000003b0: a86f 4e3e bc81 f33d ef5f 1d3e f050 b23d
000003c0: 01e4 a4bd 8e16 6c3d 79a6 413a b59a 3dbe
000003d0: 5709 34be ddea 86bd 09a8 bf3e 18ad 793d
000003e0: 3897 3a3d a2eb 06be 8ddc dbbe a140 72be
000003f0: 327c 62be 43ad ac3e f650 28be 9376 4abd
0.40508866 -0.6220348 0.025327489 -0.22589073 0.07856251 -0.085921906 -0.0792959 0.418386
0.12378759 -0.4816501 -0.0065237843 0.4073543 0.29693666 0.05507762 0.0180378 -0.12208093
-0.034367662 0.07873917 0.16123886 0.07251073 -0.03234146 -0.18212397 -0.02135782 -0.07707549
-0.17944391 -0.012050363 -0.34459504 -0.43764153 -0.0032994866 -0.12863126 -0.11563895 -0.32363042
-0.019211955 0.38701642 -0.16345428 -0.4140351 -0.09418239 0.019551512 0.056969553 -0.38533074
-0.15201476 0.100297704 -0.07883378 0.011677032 -0.13330646 0.022475306 0.021793637 -0.08250443
-0.028088855 -0.2635736 0.0022714436 0.042293757 -0.028371204 -0.12583648 -0.22585584 0.0001258723
-0.295757 -0.18574333 0.4393272 -0.00043664098 0.1870434 0.3092192 0.0649775 0.044823997
0.03731318 0.009111489 0.26397046 -0.23583825 0.5384831 0.27599114 -0.3709188 0.14705965
-0.04781162 0.38811705 0.007874268 -0.230833 0.112866975 0.53948885 0.107163906 -0.34489748
-0.41140345 -0.0843417 -0.034614127 0.09932785 -0.00079194113 0.14643636 0.045652393 0.049528226
0.08663563 0.08329257 -0.2520157 0.13461724 0.037843958 0.012831587 -0.07575439 -0.039086375
-0.3380165 -0.46565875 0.16962847 -0.25375476 -0.04931998 -0.24508798 -0.2798994 0.003782749
-0.011120144 -0.15370381 -0.023532402 -0.436872 -0.29272363 -0.14484401 -0.20073058 -0.174512
0.03417351 0.04880281 0.04815689 0.22455777 0.18863915 0.15938929 -0.44779363 0.07673072
-0.033002805 0.2164025 0.39493674 0.21925959 0.104204595 -0.22584803 0.10727214 -0.025617287
-0.2933144 0.69027007 0.10110028 0.19264239 -0.06943735 0.11436878 0.0976686 -0.43209544
-0.13685083 0.3445158 0.016415117 -0.48353216 -0.30692697 -0.1684032 -0.0045647696 0.18019009
0.007532468 0.06227673 -0.09548999 0.025680255 0.02553033 0.28269503 0.06686676 -0.03228827
0.16537464 0.02216241 0.34961122 0.32962397 -0.021377672 0.023429258 0.03708284 0.29534706
0.12973931 -0.2594636 0.1417937 0.43684056 0.09887963 -0.054653294 -0.125541 0.28616807
0.038539562 -0.10397373 -0.02365212 -0.0028340835 0.09238772 -0.03560461 -0.04426455 0.19390307
-0.06681243 0.42291108 -0.023699578 -0.0012861125 -0.04642462 0.07201772 0.27981332 0.00011595322
0.26261237 0.23517278 -0.45301846 -0.08275173 -0.2715615 -0.23380041 -0.008226471 -0.0068884706
-0.07732428 -0.16192955 -0.28441152 0.21941555 -0.393647 -0.2292844 0.27430856 -0.09912795
0.19516225 -0.27476794 0.0059111733 0.33829844 -0.02715897 -0.49698696 -0.13468279 0.28419763
0.44085774 -0.07495955 -0.0036143954 -0.087766156 -0.1150414 -0.16571774 -0.03354022 -0.007368111
-0.19938235 0.038692232 0.32481053 -0.1992332 -0.004158259 -0.042524204 -0.017425304 -0.08215891
0.40007836 0.4590471 -0.10303061 0.22943719 0.0117439125 0.3524771 0.23148385 0.061968222
-0.08024581 0.31064343 -0.013496079 0.30854046 0.20159781 0.11889979 0.15368627 0.08706844
-0.08051301 0.057638697 0.0007387172 -0.18516047 -0.17581688 -0.06587765 0.37432888 0.06095609
0.04555437 -0.13175824 -0.42941704 -0.23657466 -0.22117689 0.33725938 -0.16437134 -0.049429487

net.2.bias f4 [2]
00000000: 0c0f ec3c a698 54bc
0.028815769 -0.012975847
