Teaching Content/L4T4 - Pytorch/cartpole demo/checkpoints/policy_ep0300.pth (torch, 5824 bytes, 4 tensors)

net.0.weight f4 [128, 4]
00000000: b014 f93e df72 35be af14 6bbf 64f4 77bf
00000010: 32f9 b73d bea5 033d d59c 913f 69d0 893f
00000020: 9bdb 38be ea2e 9abe 4e42 713d c551 6e3e
00000030: 4859 a7bd 1a84 05be d8bc 863f 5ccf 1f3f
00000040: fcbc 72bd 1029 d93d 2374 c9be 14cc e13e
00000050: 09fe 4f3e 80ce bfbe f9cc bdbc b680 723e
00000060: 9feb 1b3d f760 8ebe 1c72 65bd 0ac9 5d3d
00000070: 1be6 783e e59c 9fbc 5c75 8fbf 4094 7dbf
00000080: 87ce 5bbe 6312 dbbd 46e8 03be 56a9 9ebe
00000090: 5b95 5a3e 9e13 19be 8f18 6b3f abe8 753f
000000a0: 6da0 bfbd 5414 f23e 5dfd 04bf 80d2 76be
000000b0: 6507 8c3d 129c 893d a980 9dbf 7e90 7dbf
000000c0: bc61 a63e 6bc7 19be 40a5 83bf 1051 5cbf
000000d0: 8db2 df3e 8646 f23e 502c 86bf a52d 0fbf
000000e0: ef3f 903e 82f1 143e 46c5 5b3e e925 be3e
000000f0: 7023 bc3e 842e 80be 6d40 5c3f d8ca 233f
00000100: a2b8 a63d 70d6 563e 7f0a 51be 3185 213f
00000110: a88a dc3a f17e 8f3e 223f 6f3e fec8 8cbe
00000120: 09a2 4abf da47 7cbe afc8 053e f3af 69be
00000130: 062c d7bc 309d 30bd 74f6 a33e 3e99 843e
00000140: bfbd d93a aba7 1abd 22e9 89be 21cd acbc
00000150: dee1 a03d 4f9e 2dbe e584 603f e07d 423f
00000160: 1e2c 6abd 42fb 1bbe 7603 04bf c13c 963e
00000170: 80a5 953e 7ec1 edbe 72dd 6ebe 63cd c2be
00000180: 45bc d4be 2814 5a3e 6470 113e f33d 323f
00000190: 2d30 26bd a405 52be 9d10 d93e 6589 1bbd
000001a0: c91f 9d3d 7e01 773b ac4e 713f 482a 7b3f
000001b0: f60d 123e a0e6 0ebd 6881 813f 6d2f 693f
000001c0: a118 b13d 16a9 8f3d ec10 23be 01c7 03bf
000001d0: 907a 573e a1cd 083b b918 523d 4d3f 53bb
000001e0: db26 8f3d 06b7 273d a489 f43e c844 0d3f
000001f0: 467f cf3e 617b cfbe 9501 a13e 50fb 8a3f
00000200: a7ff 183f bbcd e2be b295 ad3e 4430 fe3d
00000210: 4680 f8bc 6a79 e03e 9ab6 aebf 9cad 97bf
00000220: dccc d53e 8cb2 bebe 281b bd3e ea86 483e
00000230: 49ba 833b 4062 713e 9fff 8b3f 57db 9c3f
00000240: ebad 02be 41cc 933c 2336 683e 4f1b d03e
00000250: 4807 7e3e 74ff 453e ffc7 d13e 9b1d 4bbe
00000260: 0925 8e3e 9b44 553e 4070 17bf 98f6 4abf
00000270: ff06 6a3e 0fc6 a83e 927d 4f3f eeff a53f
00000280: 86ad b7bd 73c4 6dbd 249f 963e 2ee5 9c3e
00000290: df5c f33c 2af0 0f3f 73c9 48bf 72c5 ccbe
000002a0: 4be4 083e f893 1cbe 97b7 053f e341 1b3e
000002b0: 849d cebe 4380 de3d ce84 2cbe e47e 283e
000002c0: 7a9d 5b3e 0f75 f6be 9c6d 1e3c f328 96bd
000002d0: 0141 fdbb b41e 8ebe 0f15 c6be 0d35 b33e
000002e0: 4766 9abe 73ab 18be 6f87 26be 6c5d 24be
000002f0: 5155 8cbe 0281 543d 5f50 f03e f4de db3e
00000300: 32ab a0be 63fe 6b3e fef5 95bd 9670 89bd
00000310: b61e 123d 7d1a b73d 577c ba3e dc6a 8f3f
00000320: aa38 4bbe b9c7 ee3d c3a1 953e 534b c4be
00000330: 344f 0e3d 7168 733d 7239 be3e e460 b6bc
00000340: e13c 32bd b3e1 083e b809 61be 4772 a9bd
00000350: 422e 01bf 048b 273e 7a77 a53e c465 aebd
00000360: 5ad7 0e3d b83d 633d 8a03 063f a5e0 7e3f
00000370: 722a 8ebd 5174 513b 5128 203e 26f3 993c
00000380: bbf0 2f3e 27e1 13be eba2 783f 9ba5 213f
00000390: ee07 db3e bf5f a9be 0972 4a3e 231a 2d3f
000003a0: 1950 52bc c3ac f33d 0a2d 44bf 7dd8 5dbf
000003b0: 3fdd 39be c358 d03d 3ffa f1bd d373 8abe
000003c0: 3632 fd3e 7261 873d 3f32 44bf df8b 80bf
000003d0: 4484 e5be 5ff1 17bf 5e30 45be 68ff 39bf
000003e0: 5a65 abbe 3a46 0b3e 4697 1bbe 1b95 793d
000003f0: b695 2b3d 338b 2b3a 7f8b 393d 636c e1be
0.48648596 -0.17719601 -0.91828436 -0.96857285 0.08983077 0.032140486 1.1375986 1.0766727
-0.18052523 -0.30113918 0.058901124 0.2327338 -0.08171326 -0.13038674 1.052638 0.6242578
-0.05926226 0.10603535 -0.39346418 0.44101012 0.2031175 -0.37462234 -0.023169028 0.23681912
0.038066503 -0.27808353 -0.056017026 0.054146804 0.24306528 -0.019483993 -1.120769 -0.99054337
-0.21465503 -0.10696866 -0.12881574 -0.30988568 0.21346037 -0.1494889 0.9183435 0.9605815
-0.09356771 0.47281134 -0.519491 -0.24103737 0.06837348 0.06719221 -1.2304889 -0.990486
0.3249644 -0.15017478 -1.0284805 -0.8606119 0.4369091 0.4731943 -1.0482273 -0.55929023
0.28173777 0.14545253 0.21461973 0.37138298 0.36745787 -0.2503549 0.86035806 0.6398139
0.08140685 0.20980239 -0.2041416 0.6309386 0.0016825991 0.28026536 0.23363927 -0.27497095
-0.79153496 -0.24636784 0.13064836 -0.22821026 -0.02626611 -0.043118656 0.32023966 0.25898165
0.0016612335 -0.037757557 -0.2693568 -0.021093907 0.07855581 -0.16954921 0.8770278 0.7597332
-0.05717098 -0.15232566 -0.5156778 0.29343227 0.2922783 -0.46436685 -0.23326662 -0.38047323
-0.41549888 0.21296751 0.1420303 0.69625777 -0.040573288 -0.20509964 0.42395487 -0.037972827
0.07672078 0.0037690098 0.9426067 0.9811139 0.14263138 -0.03488791 1.0117617 0.9108799
0.08647276 0.070146725 -0.15924424 -0.5147553 0.21042848 0.0020874518 0.05129311 -0.0032233775
0.06989833 0.04094603 0.4776126 0.55183077 0.4052679 -0.40523818 0.3144652 1.0857944
0.59765095 -0.44297585 0.3390327 0.1241155 -0.030334603 0.43842632 -1.3649476 -1.1849856
0.41757858 -0.37245595 0.3693478 0.19582716 0.0040200097 0.23572636 1.0937384 1.2254437
-0.12761657 0.018041732 0.22676902 0.40645835 0.24807465 0.19335729 0.40972897 -0.19835512
0.2776263 0.20826952 -0.59155655 -0.7928252 0.22854231 0.32963607 0.8105098 1.2968729
-0.08968644 -0.058048677 0.2941829 0.306436 0.02970737 0.56225836 -0.7843239 -0.3999439
0.13368337 -0.1529082 0.5223326 0.15161853 -0.4035455 0.10864308 -0.16847536 0.16454655
0.21446791 -0.48136184 0.009669688 -0.07332029 -0.0077286963 -0.277578 -0.3868794 0.35001412
-0.30156156 -0.14909153 -0.16262601 -0.16051263 -0.2740884 0.051880844 0.46936318 0.42943537
-0.31380612 0.2304626 -0.0732231 -0.06710927 0.03567382 0.08940599 0.3642299 1.1204486
-0.19845834 0.11659188 0.29224977 -0.38338718 0.034743503 0.059425775 0.37153202 -0.022262998
-0.04351509 0.13367347 -0.21976364 -0.0827375 -0.5046121 0.16361624 0.32317716 -0.08515504
0.034873344 0.05547878 0.5234915 0.9956153 -0.069416896 0.00319602 0.1564038 0.0187927
0.17181675 -0.14441358 0.97123593 0.6314332 0.42779487 -0.3308086 0.19770063 0.67618006
-0.01283648 0.11898186 -0.76631224 -0.8665846 -0.18150805 0.1017318 -0.11815309 -0.27041492
0.4945237 0.06610383 -0.7663917 -1.0042685 -0.44827473 -0.5935268 -0.19256732 -0.72655344
-0.33475763 0.13601008 -0.15194425 0.060933214 0.041890822 0.00065438746 0.04529905 -0.44028005

net.0.bias f4 [128]
00000000: afca ce3e 5469 6c3c 8389 b3be 6be9 ae3e
00000010: 6430 03bf 6776 b8be 74ed 43be 76e0 b83e
00000020: cfd6 13bf d14e a63c 89b8 a23e 900a ce3e
00000030: 0e39 d73e b44e 353d f491 e4be e175 39be
00000040: 8ecd 96bd 9aca 4abe f921 ac3d ee15 fabe
00000050: c1bd a0be ed57 403e 5919 27bf dd12 35bf
00000060: f2a6 173e 6659 c3bd 001c 8ebc 958c 8abd
00000070: 074d 033e b4ba 15bf b226 fdbc dd10 d93b
00000080: 1e6d f6be 5c3e 0a3f 3d08 babe 87e8 263e
00000090: 9e07 cabc e765 3dbf 4c11 42be b02e 433e
000000a0: 09f4 183e f164 233e 699d 1bbe 3483 2e3d
000000b0: 120a 98be 22ff 28bf fad6 173e e7ee 0e3d
000000c0: aa31 07bf 2c80 6bbd 968f 86be 785d c3be
000000d0: ffd9 10bf 4d1f 01bf faac c8bd b138 bfbe
000000e0: b5d3 ccbd 25a4 dabe 9e6a c33e 6598 ddbe
000000f0: cf0e 9c3e 50b7 c03e 83a5 08bf 3427 0fbe
00000100: b5c6 11bf a5f3 1e3d 6efc 7f3e d862 083e
00000110: 3554 003f ae21 003f a2b6 873d 4750 9cbb
00000120: 87b5 56be 76f1 693e f4f3 8abe 7293 753e
00000130: 7f9a d9be 9744 fb3e 7a7f 6dbd 37f8 293e
00000140: 0ad6 253e c186 05bf cd27 d7bc 968d 01bf
00000150: d137 a0be 53fb c63d 15f0 42be 0c83 85be
00000160: db9b cd3d 2492 e6be c91b 7cbd ad88 523e
00000170: cde3 1fbe 7857 c3be 275c 1dbe 0c85 04bf
00000180: e073 27bb f302 633d b4f7 443d f8e7 3ebe
00000190: 5940 86be 8215 783e 1734 d93d 6155 adbe
000001a0: a3ac debe 74b6 3d3e 53ac 20bf 6fac a5bd
000001b0: b47a 4b3c 5683 6dbe d52f 09be bb03 a8bd
000001c0: 53dc c5be 375b a7be d695 54be 6b6b 423e
000001d0: d7b9 84be 6024 d73b 4466 1ebc a994 9bbe
000001e0: c673 123e 1139 103e 9497 ba3e 7e74 983d
000001f0: 7b6f 95bd e984 3d3e 6d40 8d3e abd5 11bf
0.4038901 0.014429409 -0.3506585 0.3416246 -0.51245713 -0.36027834 -0.1913355 0.3610875
-0.57749647 0.020301254 0.31781414 0.40242434 0.42035717 0.04426451 -0.44642603 -0.18111373
-0.07363425 -0.19803849 0.08404917 -0.48844856 -0.3139477 0.18783541 -0.6527305 -0.7073191
0.14809778 -0.09538536 -0.017347336 -0.06765095 0.12822352 -0.5848801 -0.03090224 0.0066243247
-0.48130125 0.540014 -0.3633441 0.1629964 -0.024661835 -0.73983616 -0.1895191 0.19060779
0.14936842 0.15956475 -0.15196766 0.042605594 -0.29695183 -0.660143 0.14828101 0.034895804
-0.52810156 -0.05749528 -0.26281422 -0.38157248 -0.56582636 -0.50438386 -0.09798618 -0.3734794
-0.100013174 -0.42703357 0.3816728 -0.4328033 0.30480048 0.37639856 -0.5337755 -0.13979799
-0.5694383 0.038806576 0.24998638 0.13318956 0.5012849 0.5005139 0.06626631 -0.004770312
-0.20967685 0.22846016 -0.27139246 0.23982027 -0.42500684 0.49075767 -0.0579829 0.16598593
0.1619493 -0.52158743 -0.026264096 -0.5060667 -0.31292585 0.09715905 -0.19036897 -0.26076543
0.10039493 -0.4503337 -0.061549935 0.2055995 -0.15614243 -0.3815267 -0.15367185 -0.51765513
-0.0025551245 0.055422734 0.04808779 -0.18643177 -0.26220968 0.24226955 0.106056385 -0.338542
-0.43491086 0.18526632 -0.62762946 -0.0808953 0.012419391 -0.23194632 -0.13397153 -0.082038365
-0.38644657 -0.3268678 -0.20760283 0.18986289 -0.25923035 0.0065656155 -0.009667937 -0.30386856
0.14301977 0.14084269 0.3644377 0.07444094 -0.07296654 0.18507732 0.27588215 -0.56966656

net.2.weight f4 [2, 128]
00000000: 3ee2 db3e 267f e0be 0c3a e13d 163c 1bbe
00000010: 62e5 a03d e404 bdbd e8fb 9bbd 559b e13e
00000020: 5984 fd3d 7ee0 c1be 96a8 b03d 7057 d63e
00000030: 4ed9 9c3e 827a 1b3e 64c0 623d 16b3 b8bd
00000040: 445e 4d3c 6de1 033e 4863 393e 8180 943d
00000050: 7b78 04bd eacd d9bd c1f6 aebc 5a43 b7bd
00000060: 1c35 e6bd b453 5e3d c622 5dbe 5ce1 9dbe
00000070: 3e08 d33c eab7 03be 8ec9 57bd 5c1e a8be
00000080: ce01 ac3c 01cc e83e 6813 2ebe be35 87be
00000090: 1168 4bbd 5fd6 073d c683 f33d 4f8c 7dbe
000000a0: c81e dcbd 9a81 5e3e 81df bbbd dece c9bb
000000b0: 500a 0ebe b51d b83c 9102 263d 6693 16bd
000000c0: 931a e6bc 0c31 09be 23f8 1c3b e91c 2d3d
000000d0: ba6a e8bc 0a50 fdbd 6261 00be 87fc 0339
000000e0: 762c 71be 388a 20be faf7 013f 37eb e4b9
000000f0: cc90 7f3e 3cc4 9c3e ec12 853d aa01 693d
00000100: b4d5 183d 3df5 d53d 98ed 933e 6879 fabd
00000110: 7d3b 033f b7af b23e 8a29 62be 044b 663e
00000120: 5d32 52bd 66dd c33e ac7c bd3c 6d71 09be
00000130: cd26 e73d 0ce6 1a3f 0648 563e 6b18 84be
00000140: 3ec7 81be 57bb acbd 1906 44bd 666c cb3d
00000150: 6928 993d b1f4 7e3e 5d1c 943d 1cde 4a3d
00000160: 0e25 413e a43f c23d cead dfbd 0ded 2a3e
00000170: ab02 1b3d ce1f 513c 1e25 9bbd e58f fabc
00000180: ede7 8ebe 5b31 99be d83e 7a3e 1e29 4abe
00000190: bf03 4abd 92ab 0abe 710b 11be 1de8 773b
000001a0: 720a 39bc ff2d 89bd 06c7 c0bc 23ab b4be
000001b0: d276 24be 2518 a43c c42f a7bd 2e76 2fbe
000001c0: 26d2 c33d c607 493d 7530 693d 96c8 773e
000001d0: 833c 9f3e ce69 833e 9d85 98be ff24 9d3d
000001e0: 5388 bdbc a9eb a13e 1868 c33e 6747 783e
000001f0: d10a f53d d333 13be 8a1f 203e 58db d1bc
00000200: c4a7 a2be 71b7 013f 13ca 863c 7b60 f23d
00000210: 2b35 8ebd 3f47 f73d 7e9c c13d 3ea0 e8be
00000220: a022 0cbe 0d54 773e ac66 9cbd 3958 fdbe
00000230: c0f6 a1be 0ec3 87be e790 2bbd 85da 173e
00000240: 4f42 21bd ad50 483c 391f ecbd 665f d23c
00000250: fc24 d13c 11e3 533e 79f1 883d 1edb a2bc
00000260: cc64 c93d 73e8 34bd c045 623e 8a26 4d3e
00000270: 0398 4ebd b7ee bf3c 04f5 d3bc 31a3 993e
00000280: b45b b73d 677d a7be 36e5 173e e5e2 923e
00000290: 89a5 5e3d 9cce 8bbd 7bf9 3fbe 7001 183e
000002a0: 946e c4bb 4145 62be f424 30bc 61c9 753c
000002b0: 6247 c83d eed5 11bd 8406 81bd 59b7 173e
000002c0: f5d4 88bd 382d 963e 1029 c3bc 07a8 a4ba
000002d0: be27 3ebd 8b17 8f3d fea1 373e 0c2c f338
000002e0: c73b 4f3e dd27 533e 3e79 05bf bd79 a9bd
000002f0: 5b0e abbe e04d 6cbe 52c8 06bc cc3e 9bbc
00000300: 315c 9ebd 7fbb 83be d764 9ebe 31d7 d83d
00000310: 154f bcbe bdc5 9abe 8b77 fe3d 0636 35be
00000320: b26f 4b3e 84d4 89be 081d 19bc d67c 773e
00000330: 7d7c debc a304 10bf eb75 72be c008 4a3e
00000340: e3db 903e 6484 99bd 49c2 1d3c bebe b3bd
00000350: 3931 43be 9859 89be 349c 76bd 4270 f1bb
00000360: 764c 9abe 284e de3c a061 3a3e ba17 6dbe
00000370: 6445 88bb f3e6 2dbd 83bf 8ebc 77ab b9bd
00000380: 7fae ae3e bdce 953e 990c 36be 7242 313e
00000390: 8a69 403c eda2 783e 23ef be3d 64d2 7d3d
000003a0: c4fc a3bd c14b 653e a81e 5dbc edec 653e
000003b0: 8e4d 8e3d 8f50 3cbd 07ae 0d3d c1d6 ab3d
000003c0: ae5c 11be 3df4 6a3d cfa6 03bc d070 4fbe
000003d0: e0ab 98be 1a12 27be e1d0 653e 18ad 793d
000003e0: 682d 123d 5b2a 6dbe 7c0f d5be 3b01 85be
000003f0: fc4c 72be d5a4 823e bf97 5abe 9376 4abd
0.42946047 -0.43847007 0.109974 -0.1515964 0.07856251 -0.092294484 -0.07616407 0.4406382
0.12378759 -0.37866586 0.08625905 0.41863585 0.3063454 0.15183452 0.05535926 -0.09018533
0.012534682 0.12878962 0.18104279 0.07251073 -0.03234146 -0.10634978 -0.021357896 -0.08948393
-0.112405986 0.054279044 -0.21595296 -0.30835998 0.025760766 -0.12863126 -0.052682452 -0.32835662
0.020996954 0.45468143 -0.1699959 -0.2640819 -0.049659792 0.033163425 0.11890368 -0.24760555
-0.107480586 0.21729127 -0.09173489 -0.0061586937 -0.13871121 0.022475103 0.04052979 -0.036761664
-0.028088843 -0.13397616 0.0023951612 0.0422639 -0.028371204 -0.12368782 -0.12537149 0.00012587207
-0.23552117 -0.15677726 0.5076901 -0.00043662798 0.2495758 0.30618465 0.0649775 0.056886353
0.03731318 0.10447166 0.28892207 -0.12230188 0.51262647 0.34899685 -0.22086158 0.22489554
-0.05131756 0.3825485 0.023130737 -0.13422175 0.112866975 0.60507274 0.20925912 -0.2579988
-0.25347322 -0.0843417 -0.047857378 0.09932785 0.07478411 0.2489803 0.07231972 0.049528226
0.18861791 0.09484795 -0.109218225 0.1669199 0.03784434 0.0127639305 -0.07575439 -0.030586192
-0.2791132 -0.29920468 0.24438035 -0.19742247 -0.04931998 -0.13542011 -0.14164521 0.003782756
-0.011293994 -0.06698226 -0.023532402 -0.35286817 -0.16060951 0.020031044 -0.081634074 -0.17134926
0.09561567 0.04907968 0.056930978 0.24197611 0.31100854 0.2566666 -0.2978944 0.07673072
-0.023136294 0.31625107 0.38165355 0.24245988 0.11964954 -0.14375238 0.15637031 -0.025617287
-0.3176862 0.50670534 0.016453778 0.118348084 -0.06943735 0.12074136 0.09453677 -0.45434755
-0.13685083 0.24153157 -0.076367706 -0.4948137 -0.31633568 -0.26516002 -0.041886237 0.14829452
-0.039369877 0.012226266 -0.11529393 0.025680255 0.02553033 0.20692088 0.06686682 -0.019879874
0.098336786 -0.044166993 0.2209692 0.20034233 -0.05043794 0.023429258 -0.025873668 0.30007318
0.08953038 -0.32712862 0.14833531 0.28688732 0.054357085 -0.06826517 -0.18747513 0.14844298
-0.0059946273 -0.22096731 -0.010750998 0.015001626 0.0977924 -0.03560441 -0.06300071 0.14816035
-0.06681243 0.29331374 -0.023823291 -0.0012562283 -0.04642462 0.06986912 0.17932889 0.00011595347
0.20237647 0.20620675 -0.52138126 -0.08275173 -0.3340939 -0.23076582 -0.008226471 -0.018950842
-0.07732428 -0.25728986 -0.3093631 0.105879195 -0.36779085 -0.30228987 0.12425145 -0.1769639
0.19866827 -0.2691995 -0.0093453005 0.24168715 -0.02715897 -0.56257075 -0.23677795 0.197299
0.2829276 -0.07495955 0.009628841 -0.087766156 -0.19061746 -0.26826167 -0.06020756 -0.0073681185
-0.3013646 0.027136877 0.18201303 -0.23153582 -0.0041586626 -0.04245658 -0.017425304 -0.090659074
0.34117505 0.2925929 -0.17778243 0.17310503 0.0117439125 0.24280901 0.093229555 0.061968222
-0.080071956 0.22392179 -0.013496079 0.22453661 0.06948386 -0.045975264 0.034589794 0.083905704
-0.1419551 0.05736183 -0.008035376 -0.20257878 -0.2981863 -0.16315499 0.22442962 0.06095609
0.035687834 -0.23160689 -0.41613376 -0.259775 -0.2366218 0.25516382 -0.21346949 -0.049429487

net.2.bias f4 [2]
00000000: 6ce4 ce3d bd73 aebd
0.10102162 -0.08518169
