Teaching Content/L4T4 - Pytorch/cartpole demo/checkpoints/policy_ep0300.pth (torch, 5824 bytes, 4 tensors)

net.0.weight f4 [128, 4]
0.18764591 0.025819568 -0.6746486 -0.3493849 0.021140404 -0.2537785 -1.1979338 -0.56504273
0.20835799 -0.17389058 -0.2720848 0.051403366 0.107652254 -0.24543856 0.28432873 -0.18619551
0.15916689 -0.3618418 -0.8302443 -0.517286 -0.35110652 -0.12648614 1.1725389 0.66739875
0.039251685 -0.35449046 0.42091706 0.48336577 0.116334915 -0.050708335 0.73152757 0.22142752
0.41517 -0.6265631 -0.60421723 -0.1977246 -0.21011494 -0.35349947 -0.52778304 0.2857217
0.09541247 -0.5352809 -0.39070934 -0.6911891 -0.045339756 -0.24459016 0.04367799 0.19204737
0.0486339 -0.15325767 -0.42331973 -0.63136256 -0.02697363 -0.19531102 0.6877555 0.38281003
-0.40159824 -0.31976485 -0.84161025 -0.35894668 0.34532052 0.46167186 0.048767142 0.7853243
0.087129705 -0.09498646 -0.00852169 -0.38211048 0.10035624 -0.436537 -0.07670093 0.16062434
0.017470708 -0.13547316 -0.13629101 -0.34819925 0.043366686 0.039676104 1.3965341 0.49677444
-0.13626848 0.036696352 -0.9124902 -0.6779352 -0.089455664 0.06291669 -0.101452105 -0.018928882
-0.47802752 0.25166205 -0.56604666 -0.3456715 -0.55064106 0.19025394 -0.38861907 -0.65519565
-0.24923688 -0.14952677 -0.8941593 -0.45066828 0.103024185 0.042429592 -0.7026793 -0.46017513
0.1885432 0.29309663 1.5724915 0.31597018 -0.06369012 0.011552847 -0.13210365 0.3485708
0.16309252 -0.009614806 0.11657907 0.34492382 -0.4300591 0.30256635 -0.3355601 0.13059065
-0.018533926 0.21025226 -0.11219238 -0.3324355 -0.39328468 -0.3810208 0.023400122 0.5340626
0.13027073 -0.4631587 0.5615467 0.36269608 0.27552795 0.33594528 1.6020906 0.5904961
-0.70508564 0.31658491 -1.1020637 -0.6041259 -0.07201228 0.5535842 0.6048531 0.49856013
0.13675426 -0.14054245 -0.76992387 -0.82288253 0.13534996 0.2192907 1.1184777 0.6197865
0.13687225 0.3130132 -0.63716745 -0.06799969 0.0068786694 -0.18609796 -0.03452911 0.34805077
0.123246916 -0.20296624 -0.5225709 -0.37503734 0.10135726 -0.100856304 -0.03622493 0.020035643
-0.05992322 -0.3430727 -1.1800072 -0.41797417 0.052506022 -0.23762201 -1.3502948 -0.61614245
0.101523064 0.07545244 -0.3736094 -0.13480796 0.22730327 0.59940773 1.5244924 0.6935805
0.43153778 -0.54044086 -0.14929302 -0.51535475 0.025136555 0.030129094 0.005377444 -0.15033461
0.05883491 -0.38166296 -1.1631896 -0.59243953 -0.31766284 -0.20825048 -0.0032681427 0.45395222
-0.035964288 -0.45668977 -0.92226845 -0.278884 0.1174136 0.30930164 0.6922526 0.29496786
-0.11754306 0.23247288 -0.15415424 -0.27554274 0.017399296 0.52129036 0.97910017 0.81556356
0.07250669 -0.30877993 0.16163434 0.29209492 -0.06237872 -0.0523912 -0.9512506 -0.6170872
0.11916734 -0.012381848 -0.39694855 -0.27739704 -0.4134503 0.2966808 -0.4403432 0.073622234
-0.3623845 0.26651916 -0.4517248 -0.38601443 -0.29106435 -0.26628715 0.17029293 0.52017367
0.049046837 -0.22913146 -0.30884027 0.08111954 -0.4925523 0.13937442 -0.94396406 -0.6547906
0.28826076 0.30153084 0.91401047 0.6688181 0.016040856 0.07275521 -0.1129285 -0.12143747
00000000: 4026 403e 8f83 d33c c5b5 2cbf 94e2 b2be
00000010: a42e ad3c 41ef 81be e555 99bf a4a6 10bf
00000020: cc5b 553e 5f10 32be b34e 8bbe 568c 523d
00000030: c978 dc3d 3f54 7bbe 8993 913e 09aa 3ebe
00000040: a5fc 223e 5443 b9be e48a 54bf db6c 04bf
00000050: 3cc4 b3be 9585 01be c115 963f a5da 2a3f
00000060: 60c6 203d c67f b5be 7182 d73e b87b f73e
00000070: 0041 ee3d 8bb3 4fbd 6445 3b3f e5bd 623e
00000080: 2a91 d43e 7066 20bf fbad 1abf 5178 4abe
00000090: 5f28 57be e2fd b4be ca1c 07bf 1d4a 923e
000000a0: 9d67 c33d 2b08 09bf 0e0b c8be c5f1 30bf
000000b0: 2eb6 39bd d875 7abe b1e7 323d 11a8 443e
000000c0: 5734 473d 94ef 1cbe 5dbd d8be faa0 21bf
000000d0: cdf7 dcbc 9dff 47be bf10 303f adff c33e
000000e0: 499e cdbe 38b8 a3be c573 57bf dcc7 b7be
000000f0: dacd b03e 4160 ec3e 0ec0 473d 030b 493f
00000100: 0f71 b23d 4388 c2bd 8f9e 0bbc fca3 c3be
00000110: 9387 cd3d c781 dfbe 6115 9dbd b57a 243e
00000120: bb1e 8f3c 7ab9 0abe df8f 0bbe 2c47 b2be
00000130: 44a1 313d 6983 223d a1c1 b23f 3859 fe3e
00000140: f789 0bbe ea4e 163d f598 69bf 298d 2dbf
00000150: 8834 b7bd 77da 803d 1fc6 cfbd be10 9bbc
00000160: 06c0 f4be d9d9 803e 6fe8 10bf dbfb b0be
00000170: d0f6 0cbf eed1 423e 14f9 c6be e7ba 27bf
00000180: f437 7fbe 8c1d 19be a0e7 64bf febd e6be
00000190: 58fe d23d a7ca 2d3d cae2 33bf 139c ebbe
000001a0: 7811 413e c310 963e 6747 c93f d8c6 a13e
000001b0: f76f 82bd 2748 3d3c 2e46 07be df77 b23e
000001c0: ba01 273e 6b87 1dbc 02c1 ee3d db99 b03e
000001d0: b530 dcbe fae9 9a3e 89ce abbe 8eb9 053e
000001e0: 76d4 97bc 5e4c 573e 1ec5 e5bd fc34 aabe
000001f0: 9c5c c9be 2915 c3be 9db1 bf3c 54b8 083f
00000200: b165 053e 2323 edbe 86c1 0f3f 4db3 b93e
00000210: 0012 8d3e 0501 ac3e 4e11 cd3f c12a 173f
00000220: 7e80 34bf 6b17 a23e 6c10 8dbf ffa7 1abf
00000230: 2d7b 93bd b2b7 0d3f a7d7 1a3f 4643 ff3e
00000240: 4f09 0c3e 5cea 0fbe bb19 45bf 6ea8 52bf
00000250: 2e99 0a3e be8d 603e 472a 8f3f 54aa 1e3f
00000260: 3d28 0c3e 4443 a03e 681d 23bf 6c43 8bbd
00000270: 7666 e13b 7790 3ebe 656e 0dbd b633 b23e
00000280: e168 fc3d 62d6 4fbe 35c7 05bf e504 c0be
00000290: 6594 cf3d c08d cebd 9860 14bd ca21 a43c
000002a0: 0d72 75bd 3aa7 afbe 7a0a 97bf b600 d6be
000002b0: 8e10 573d 2f53 73be 76d6 acbf 83bb 1dbf
000002c0: 53eb cf3d cf86 9a3d bb49 bfbe 190b 0abe
000002d0: 30c2 683e c972 193f 9122 c33f 7e8e 313f
000002e0: 85f2 dc3e 555a 0abf 45e0 18be 4aee 03bf
000002f0: 2deb cd3c 4ad1 f63c 4535 b03b 51f1 19be
00000300: e0fc 703d 5469 c3be 66e3 94bf 1eaa 17bf
00000310: b4a4 a2be 9d3f 55be 562e 56bb 6d6c e83e
00000320: 4a4f 13bd 3ed3 e9be c919 6cbf e2c9 8ebe
00000330: 8b76 f03d c95c 9e3e 7737 313f 0706 973e
00000340: 6aba f0bd 5f0d 6e3e 9cda 1dbe f013 8dbe
00000350: f888 8e3c 4973 053f 4fa6 7a3f c6c8 503f
00000360: 637e 943d 6718 9ebe 7983 253e 778d 953e
00000370: d480 7fbd 2898 56bd 2985 73bf 6df9 1dbf
00000380: 020e f43d 3cdd 4abc d73c cbbe fc06 8ebe
00000390: c2af d3be 8ce6 973e aa74 e1be 41c7 963d
000003a0: 768a b9be 3375 883e 7948 e7be afa3 c5be
000003b0: 6306 95be ca56 88be 4561 2e3e 1a2a 053f
000003c0: 56e5 483d 70a1 6abe 5020 9ebe 0022 a63d
000003d0: d12f fcbe 2bb8 0e3e a1a7 71bf 5ba0 27bf
000003e0: ea96 933e 4062 9a3e 97fc 693f aa37 2b3f
000003f0: 1d68 833c af00 953d 0f47 e7bd 35b4 f8bd

net.0.bias f4 [128]
0.13504623 0.20541842 -0.5663401 -0.5423929 0.09340557 0.16762887 -0.4710176 0.2275179
-0.21774274 -0.16786128 0.121736564 -0.37402326 0.11751596 -0.3433834 0.22264422 -0.08585996
-0.52036035 -0.47292495 -0.48408902 0.47692436 0.0025760944 -0.3078641 -0.18976624 -0.18369818
0.110703476 -0.37515864 0.3359378 -0.45730487 -0.42565522 -0.2063479 -0.30337325 -0.3479506
-0.37655014 0.4477716 -0.2154723 0.32087576 0.40274602 0.328025 -0.42029142 -0.3006114
-0.1523816 -0.44096863 0.11985604 0.20952255 -0.58989775 0.47788972 -0.52174914 -0.43758368
0.26269236 -0.3634949 0.1700862 0.2591845 -0.48489422 0.4932117 -0.3410263 0.16592658
-0.5231652 -0.19374081 -0.08196146 -0.2731338 -0.3059384 -0.12006962 0.070677914 0.23618552
-0.52693313 0.117684945 -0.33419606 0.35442996 -0.46296975 -0.25977403 -0.012375255 0.15031108
0.0563614 -0.69440645 -0.028841581 -0.4255883 -0.27439618 0.1053269 0.4579845 -0.530432
0.012718828 0.08319969 0.28271058 -0.44928265 0.27219442 -0.54953104 -0.29966998 -0.38488913
-0.3960793 0.39751047 -0.34394774 -0.37865457 0.32015884 -0.31966418 -0.18959084 0.2477356
-0.21645188 0.3192892 -0.40041614 0.24402499 -0.19550195 -0.36709243 0.32877302 -0.07348987
-0.051750585 -0.3337538 0.48205745 -0.19702005 0.09241692 -0.07046557 0.20563129 -0.37975684
0.14371298 -0.41518986 -0.09313644 -0.7696148 0.25417286 -0.25665414 -0.16069262 -0.5710254
-0.39912477 -0.6658232 -0.57749814 -0.63850105 0.45733744 -0.5489142 0.2828873 -0.20042777
00000000: 8f49 0a3e 3559 523e aafb 10bf 43da 0abf
00000010: 6b4b bf3d e7a6 2b3e 3829 f1be 74fa 683e
00000020: f4f7 5ebe d4e3 2bbe 0551 f93d fa7f bfbe
00000030: 35ac f03d f3cf afbe d9fc 633e 59d7 afbd
00000040: 5636 05bf 3823 f2be 84da f7be 6e2f f43e
00000050: b1d3 283b 5da0 9dbe 1552 42be 601b 3cbe
00000060: 81b8 e23d cb14 c0be 0a00 ac3e dd23 eabe
00000070: 7bef d9be dd4c 53be bd53 9bbe 9526 b2be
00000080: 2ecb c0be 5242 e53e c5a4 5cbe d449 a43e
00000090: ba34 ce3e e5f2 a73e 7030 d7be bde9 99be
000000a0: ec09 1cbe a4c6 e1be 1577 f53d 148d 563e
000000b0: 8a03 17bf f6ad f43e 5a91 05bf f80a e0be
000000c0: 9d7f 863e 011c babe 142b 2e3e d5b3 843e
000000d0: 0e44 f8be 3e86 fc3e 009b aebe a8e8 293e
000000e0: 28ee 05bf fe63 46be 69db a7bd 32d8 8bbe
000000f0: f5a3 9cbe 10e7 f5bd 95bf 903d 9eda 713e
00000100: 17e5 06bf ce04 f13d bf1b abbe d877 b53e
00000110: 5f0a edbe 1a01 85be 95c1 4abc 26eb 193e
00000120: 36db 663d 9fc4 31bf 2e45 ecbc b6e6 d9be
00000130: a87d 8cbe a1b5 d73d f27c ea3e 64ca 07bf
00000140: a262 503c 9964 aa3d 71bf 903e 6008 e6be
00000150: 115d 8b3e 11ae 0cbf 586e 99be 3010 c5be
00000160: e8ca cabe 7e86 cb3e eb19 b0be 03df c1be
00000170: dceb a33e 06ab a3be 1a24 42be 67ae 7d3e
00000180: 90a5 5dbe e079 a33e 5803 cdbe b0e1 793e
00000190: aa31 48be 8af3 bbbe f054 a83e db81 96bd
000001a0: 6cf8 53bd c7e1 aabe 3cd0 f63e a0bf 49be
000001b0: 1545 bd3d 4150 90bd 0291 523e 7d6f c2be
000001c0: 7f29 133e c493 d4be 51be bebd 7a05 45bf
000001d0: f222 823e 2c68 83be 9b8c 24be b82e 12bf
000001e0: 155a ccbe 6473 2abf ebd6 13bf ce74 23bf
000001f0: 2228 ea3e a485 0cbf 9bd6 903e f03c 4dbe

net.2.weight f4 [2, 128]
-0.014047033 0.23462959 0.05479461 0.044252325 0.12359035 -0.13765587 0.018062528 -0.075944506
0.04034016 0.031828772 0.2344757 -0.15948693 -0.0047145113 -0.037696715 0.104196444 -0.25980198
0.04414621 -0.12584662 0.019209923 -0.17196454 0.15394856 -0.034523394 0.29090375 0.33958808
0.14511096 0.04382824 -0.5627112 -0.10055666 -0.011675777 0.140341 0.03621503 -0.010919714
0.1267543 -0.46464586 0.3311641 -0.1592922 0.013944589 -0.36288345 -0.23632616 -0.021419281
-0.00833767 -0.023166133 0.25828755 0.27006868 -0.08987651 -0.384403 0.060992714 0.0012110814
0.22077224 -0.038272277 0.046615656 -0.08123906 -0.0014682721 -0.4163583 0.039878912 0.07609019
0.0630072 0.20100057 0.14318417 -0.079711534 -0.07501648 0.2902701 -0.36215165 -0.016646007
-0.10722726 0.15753253 -0.113374524 -0.21732144 -0.03924434 0.025427815 0.07155406 0.26141083
0.297725 -0.013005515 0.18191725 0.0026252798 0.030363351 0.16222045 -0.17618859 0.008908722
0.2793923 0.3123938 -0.50011617 0.08639289 -0.3933779 -0.017178625 -0.15589608 0.055530336
0.043183416 -0.26326442 -0.16219829 0.1916613 0.05079148 0.011896857 0.041225094 0.3273137
-0.42660692 0.18156944 0.017484736 0.04565086 -0.06478837 -0.2614523 -0.1896959 0.1958044
0.17922294 0.19584239 -0.12252707 -0.31806016 0.4264964 -0.3242255 0.07800182 -0.008062353
-0.111892246 -0.062369097 0.10564241 0.079713404 -0.2537475 -0.050409254 0.12309916 0.36210608
0.12607165 0.03930908 -0.07800543 0.12014351 -0.701138 -0.001345074 -0.3422611 0.016018553
-0.016940676 -0.12902501 -0.09607035 -0.030132884 -0.05113003 0.20147192 0.084215835 0.049122848
-0.17824227 -0.13856351 -0.2084425 0.033207998 -0.02718025 -0.04326555 -0.11871063 0.31133616
-0.043966364 0.005057928 -0.012450954 0.26024434 -0.24920192 -0.06674615 -0.27044138 -0.39100826
-0.24199125 0.0066335527 0.45527318 0.010968034 0.062987626 -0.20004144 -0.070874214 0.040856067
0.008501132 0.42778102 -0.22316979 0.102707274 -0.13741495 0.32829013 0.27870125 -0.07427403
-0.039293963 0.11660463 -0.30708048 -0.19080144 -0.06597005 0.54138625 -0.117118604 0.08228296
-0.16730951 -0.069386095 -0.12154517 0.21256644 0.059169453 0.33281747 0.022558004 -0.04358857
-0.006858365 -0.18974005 -0.12855507 0.021131663 -0.019242145 -0.35988164 0.2201091 0.038700506
0.10565376 -0.23606144 0.08029954 0.20515297 -0.09715843 -0.15709724 0.0057332236 -0.1919938
-0.31447753 0.06567732 -0.032779872 0.02443083 -0.03710996 -0.22777812 0.15200487 -0.019228091
-0.29358503 -0.41802567 0.5142067 0.027314475 0.35227665 -0.017321195 0.25824112 -0.06240631
-0.029720113 0.25208735 0.23108423 -0.26101756 -0.012780333 -0.07930859 -0.04710045 -0.32403594
0.36827913 -0.19617586 -0.072126456 -0.077282265 0.052710436 0.26087132 0.12793566 -0.14125547
-0.084467754 -0.22370338 0.13201198 0.17305206 -0.30183873 0.34821424 -0.1237721 -0.040677145
0.25460356 -0.017785298 -0.095133156 -0.094374165 0.23441236 0.12477506 -0.1516087 -0.37117553
-0.15407306 -0.074395224 -0.039485104 0.009413906 0.6257351 0.0811683 0.27580532 -0.06725495
00000000: 8725 66bc bd42 703e 5070 603d ed41 353d
00000010: f01c fd3d a9f5 0cbe def7 933c cb88 9bbd
00000020: b93b 253d e35e 023d 661a 703e 8b50 23be
00000030: 307c 9abb df67 1abd f264 d53d c404 85be
00000040: a8d2 343d f0dd 00be 215e 9d3c 7917 30be
00000050: b1a4 1d3e 6768 0dbd 56f1 943e 7dde ad3e
00000060: f897 143e 3e85 333d d70d 10bf a6f0 cdbd
00000070: c24b 3fbc 8db5 0f3e 3656 143d 9ae8 32bc
00000080: e1cb 013e 10e6 edbe 578e a93e 7f1d 23be
00000090: d877 643c dccb b9be 7cff 71be 7d77 afbc
000000a0: b99a 08bc e7c6 bdbc 443e 843e 7146 8a3e
000000b0: 2d11 b8bd 78d0 c4be 7fd3 793d 26bd 9e3a
000000c0: 1e12 623e 64c3 1cbd 0ff0 3e3d aa60 a6bd
000000d0: 0973 c0ba ea2c d5be 1258 233d 2cd5 9b3d
000000e0: eb09 813d 18d3 4d3e df9e 123e cd3f a3bd
000000f0: 3ea2 99bd 489e 943e f16b b9be 355d 88bc
00000100: f799 dbbd 3550 213e e730 e8bd 8389 5ebe
00000110: acbe 20bd fe4d d03c ef8a 923d a4d7 853e
00000120: 696f 983e 1515 55bc 8448 3a3e e30c 2c3b
00000130: 90bc f83c 1e1d 263e c86a 34be e3f5 113c
00000140: 820c 8f3e 15f2 9f3e 9d07 00bf c1ee b03d
00000150: d468 c9be 30ba 8cbc 39a3 1fbe c773 633d
00000160: 18e1 303d 98ca 86be 4f17 26be dc42 443e
00000170: ba0a 503d 09eb 423c a5db 283d a995 a73e
00000180: 396c dabe 57ed 393e 263c 8f3c 65fc 3a3d
00000190: c4af 84bd 13dd 85be a43f 42be f380 483e
000001a0: 3886 373e e88a 483e 79ef fabd c8d8 a2be
000001b0: bc5d da3e e200 a6be 6bbf 9f3d f617 04bc
000001c0: c327 e5bd bd76 7fbd 0c5b d83d c840 a33d
000001d0: 31eb 81be ef79 4ebd 6a1b fc3d f865 b93e
000001e0: ed18 013e 8f02 213d 50c1 9fbd cd0d f63d
000001f0: c87d 33bf 324d b0ba d93c afbe 5739 833c
00000200: 2cc7 8abc 221f 04be 88c0 c4bd 3dd9 f6bc
00000210: b96d 51bd a84e 4e3e 5a79 ac3d 0a35 493d
00000220: 2485 36be 98e3 0dbe f371 55be 1c05 083d
00000230: 1ea9 debc 3837 31bd 8f1e f3bd 7467 9f3e
00000240: 1316 34bd fabc a53b 16ff 4bbc bf3e 853e
00000250: ca2e 7fbe 35b2 88bd 4b77 8abe 3c32 c8be
00000260: 8ecc 77be 465e d93b 9119 e93e 45b3 333c
00000270: a8ff 803d aad7 4cbe 8026 91bd b158 273d
00000280: 5548 0b3c 1d06 db3e 9f86 64be 3158 d23d
00000290: 81b6 0cbe a515 a83e eeb1 8e3e fc1c 98bd
000002a0: b5f2 20bd 69ce ee3d a739 9dbe 7461 43be
000002b0: 4e1b 87bd 4a98 0a3f e1db efbd f883 a83d
000002c0: 2f53 2bbe 4c1a 8ebd adec f8bd 04ab 593e
000002d0: ab5b 723d 0d67 aa3e 90cb b83c ee89 32bd
000002e0: 23bc e0bb 374b 42be f1a3 03be 4f1c ad3c
000002f0: b4a1 9dbc 6842 b8be 4864 613e 6c84 1e3d
00000300: 0061 d83d 17ba 71be 1674 a43d 9f13 523e
00000310: 00fb c6bd 19de 20be c4dd bb3b 069a 44be
00000320: 3303 a1be d581 863d 3044 06bd 2a23 c83c
00000330: 9d00 18bd ab3e 69be 2aa7 1b3e 3b84 9dbc
00000340: c750 96be 7607 d6be 0da3 033f 9bc2 df3c
00000350: 9b5d b43e 2ee5 8dbc 2e38 843e c29d 7fbd
00000360: 9877 f3bc 9811 813e 58a1 6c3e 18a4 85be
00000370: 9a64 51bc 8b6c a2bd 67ec 40bd 0ae8 a5be
00000380: 158f bc3e 53e2 48be 09b7 93bd 2a46 9ebd
00000390: e6e6 573d ed90 853e 9101 033e 46a5 10be
000003a0: 6efd acbd 8012 65be 262e 073e 8f34 313e
000003b0: 9b8a 9abe 2349 b23e 3a7c fdbd 149d 26bd
000003c0: 665b 823e 79b2 91bc 2cd5 c2bd 3e47 c1bd
000003d0: cb09 703e 118a ff3d 503f 1bbe b80a bebe
000003e0: 54c5 1dbe 865c 98bd 22bb 21bd c93c 1a3c
000003f0: 2d30 203f 913b a63d 5b36 8d3e f7bc 89bd

net.2.bias f4 [2]
-0.021150839 0.07551351
00000000: 8644 adbc d4a6 9a3d
