Teaching Content/L4T4 - Pytorch/cartpole demo/checkpoints/policy_ep0150.pth (torch, 5824 bytes, 4 tensors)

net.0.weight f4 [128, 4]
000000 c6 da 8f 3e 1e 18 b2 3d fc a4 2b bf e2 73 8c be
       0.28096598 0.08696006 -0.6704862 -0.27432162
000010 fe 95 0c 3e 9f e0 03 be 51 04 71 bf ae 14 0e bf
       0.13729092 -0.12878655 -0.9414721 -0.55500305
000020 03 14 57 3e 84 ed 31 be 9e 79 8a be 16 e9 4a 3d
       0.21003728 -0.17375761 -0.27045912 0.049538694
000030 7e 08 e4 3d 3f 84 77 be 8e 4e 93 3e 89 6e 42 be
       0.11134432 -0.24171542 0.2877087 -0.18987478
000040 ef ee 8d 3e bc dc 40 be 57 a2 30 bf 16 c2 0f bf
       0.27721354 -0.18834203 -0.6899771 -0.56155527
000050 9b fa bd be d1 94 6d be eb 05 6d 3f 70 bd 31 3f
       -0.3710526 -0.232013 0.92587155 0.69429684
000060 f6 8c 5b 3c cb 27 d2 be 7e 3b d4 3e 2c 3e 09 3f
       0.013400307 -0.41045985 0.4145164 0.5361049
000070 f8 42 28 3e 58 6c 6f be 50 de 03 3f 3d f9 95 3e
       0.16431797 -0.23381174 0.51511097 0.29291716
000080 5d 16 06 3f 34 aa fb be fb 9c 07 bf 17 3c 2f be
       0.52377874 -0.49153292 -0.5297391 -0.17112766
000090 c9 0d 61 be f7 3c 3f be 7b c3 ae be e6 3a fd 3d
       -0.21977915 -0.186756 -0.34133515 0.123647496
0000a0 c9 db 53 3e 4f 82 ce be 3f 5d 39 be 2d c1 2d bf
       0.2068931 -0.40333793 -0.18101977 -0.6787289
0000b0 13 b4 71 bd b9 61 8e be c5 0a bc 3c aa 0c 7e 3e
       -0.059009623 -0.2780893 0.022954354 0.24809518
0000c0 58 be ea 3d f8 83 85 bd aa 25 a9 be 58 b1 1a bf
       0.114620864 -0.06519312 -0.33036548 -0.60426855
0000d0 fd 19 23 bd 5e 21 7f be 1d df 25 3f 9c d2 dd 3e
       -0.039819706 -0.24915072 0.6479357 0.43324745
0000e0 b3 41 d8 be 5b 1a 8f be 3a 2a 10 bf 22 fd c1 be
       -0.42237625 -0.27949795 -0.5631443 -0.37888438
0000f0 64 3e d2 3d f7 ca 09 3f cf 27 b7 3b 40 aa 36 3f
       0.10265806 0.53825325 0.0055894624 0.7135353
000100 0f 71 b2 3d 43 88 c2 bd b5 9e 0b bc fc a3 c3 be
       0.087129705 -0.09498646 -0.008521725 -0.38211048
000110 db 1f b3 3d af d2 f4 be 07 2f c3 bd c1 02 65 3e
       0.0874631 -0.4781699 -0.09530454 0.22364332
000120 9b 3c 8e 3c 9d c7 0a be 1c 98 0b be 46 4f b2 be
       0.017362883 -0.13552709 -0.13632244 -0.34826106
000130 05 fd f5 bd 03 d9 87 bc d3 11 87 3f 1f 0f f4 3e
       -0.1201115 -0.016582971 1.0552315 0.47667786
000140 b1 6b b0 bd 30 f8 5c 3d 5c 76 2a bf 45 41 2d bf
       -0.086142905 0.053947628 -0.6658685 -0.6767772
000150 eb 45 b7 bd d1 cf 80 3d 23 cc cf bd fe f1 9a bc
       -0.08948883 0.06289638 -0.10146358 -0.018914219
000160 51 12 ff be 6c 96 f9 3d 40 f4 8e be 49 00 94 be
       -0.49818662 0.12186894 -0.27920723 -0.28906468
000170 bb dc 15 bf 52 53 1e 3d 71 90 9b bd 65 9f 1b bf
       -0.5853993 0.03865368 -0.075959094 -0.6079009
000180 ea ab 84 be 1e b4 a9 bd ce 4d 15 bf 9e ff 04 bf
       -0.2591241 -0.08286308 -0.58321846 -0.5195254
000190 07 c7 3c 3e ce 99 06 3e b9 98 2a bf 71 d3 ea be
       0.18435298 0.1314461 -0.66639286 -0.45864442
0001a0 66 62 ee 3d 36 32 49 3e c9 a2 a4 3f b4 bc b7 3e
       0.11639862 0.1964806 1.2862178 0.35886157
0001b0 e5 6e 82 bd 9f 49 3d 3c 2e 46 07 be e3 77 b2 3e
       -0.06368808 0.011553197 -0.13210365 0.3485709
0001c0 23 10 6d 3e bb cf 4c 3d 77 b7 0a 3e 00 c8 ba 3e
       0.23150687 0.050002795 0.13546549 0.36480713
0001d0 a5 96 cb be 48 b4 1d 3e d5 10 0c 3d 29 97 66 3e
       -0.3976337 0.15400803 0.03419574 0.225186
0001e0 80 05 04 be 26 d4 01 3e aa 2b 75 3c 42 84 8d be
       -0.12892723 0.12678584 0.014964024 -0.27639967
0001f0 06 3d ca be 26 1e ec be dc 5e 19 bd 0d 5b 06 3f
       -0.39499682 -0.4611675 -0.03744398 0.5248268
000200 03 3c fb 3d 8f e5 eb be b2 67 12 3f 4b 79 b6 3e
       0.12267306 -0.46073577 0.57189476 0.35639414
000210 f9 65 48 3e 2a 0f 80 3e 5b c9 a3 3f 14 8a 19 3f
       0.1957015 0.2501157 1.2795824 0.59976315
000220 a5 13 38 bf 54 81 4c 3e 20 54 43 bf bb ed 0d bf
       -0.71904975 0.1997121 -0.7630024 -0.5544087
000230 85 26 78 be 62 87 06 3f ba bb 86 3e 1c c5 da 3e
       -0.24233444 0.5255033 0.263151 0.42728508
000240 ad 2d 5d 3e 45 62 6e bd 4a 2d 11 bf 3e 14 48 bf
       0.21599455 -0.058199186 -0.5670973 -0.7815589
000250 fa 00 9d 3d 84 8c 33 3d d5 18 43 3f 49 2f 28 3f
       0.07666202 0.043835178 0.76209766 0.6569715
000260 b6 81 7f bd 8f 0e 6d 3e 13 18 86 be 49 82 79 3d
       -0.06237956 0.23150085 -0.26190242 0.060915265
000270 31 0f c9 3b d7 f5 45 be 5a 2f 29 bd 4f 43 b6 3e
       0.006135844 -0.19332062 -0.041304924 0.35598227
000280 4b 2f 69 3e d9 56 cf bd 24 78 e5 be b0 3f b1 be
       0.22771947 -0.10123987 -0.44818223 -0.34618902
000290 de 85 cf 3d 47 9c ce bd b4 7d 14 bd 8b e7 a3 3c
       0.10132955 -0.10088401 -0.036252692 0.02000787
0002a0 79 10 42 3d 29 5c 66 be de 21 64 bf e0 20 d3 be
       0.04737899 -0.22496094 -0.8911418 -0.4123602
0002b0 30 80 6a 3e 37 c4 d2 bd 93 c8 90 bf 53 4d 22 bf
       0.22900462 -0.10291331 -1.131121 -0.6339924
0002c0 0e 30 d4 3d 24 0b 9d 3d 48 3f bf be 9f e2 0d be
       0.10360728 0.076681405 -0.37352967 -0.1385598
0002d0 16 32 39 3e 91 ea 19 3f fe ec 99 3f 67 85 1f 3f
       0.18085513 0.60123545 1.2025449 0.6231293
0002e0 8f 7f 08 3f d4 d7 e9 be 09 a4 9f bd 8b d4 d8 be
       0.5331964 -0.45672476 -0.07794959 -0.42349657
0002f0 37 eb cd 3c 54 d1 f6 3c 13 35 b0 3b 51 f1 19 be
       0.025136573 0.030129112 0.0053774207 -0.15033461
000300 9d 0a 33 3e 8e 5b 8e be 8f ec 65 bf d1 13 13 bf
       0.17484517 -0.27804226 -0.89814085 -0.5745211
000310 96 00 b8 be 57 c2 7e be 88 10 ea bb 05 90 eb 3e
       -0.35937947 -0.24878822 -0.007143084 0.46008316
000320 74 c1 96 3b b2 5b b0 be 04 f7 24 bf 6f e4 76 be
       0.004600698 -0.34444958 -0.64439416 -0.24110578
000330 36 f8 05 3e 8b 32 9d 3e ef b1 b0 3e 60 49 a1 3e
       0.13082966 0.30702624 0.34510753 0.31501293
000340 e7 6b bf bd a8 05 78 3e 57 34 19 be 0c d4 9e be
       -0.093467526 0.24220908 -0.14961372 -0.31021154
000350 61 bf f6 bd b9 e9 db 3e 0e a8 23 3f 1a ea 51 3f
       -0.120482214 0.42951754 0.63928306 0.81997836
000360 33 ae a7 3d 9b fc a2 be bf 89 1d 3e a5 3a 9d 3e
       0.08187523 -0.31833348 0.15384577 0.30708805
000370 d8 10 ab ba 34 cc ec 3c b2 48 38 bf 19 22 17 bf
       -0.0013051284 0.028905965 -0.71985924 -0.59036404
000380 d2 5a f4 3d 55 6f 49 bc 78 3f cb be 9c 2a 8e be
       0.11931385 -0.01229461 -0.3969686 -0.27766883
000390 2a 18 a8 be e3 3c 23 3e f9 f0 aa bd 16 b2 e7 3d
       -0.32830936 0.15941195 -0.08346743 0.11313264
0003a0 ea 94 c6 be 92 7c 63 3e 74 6d 31 be d5 4b c9 be
       -0.38785487 0.22215489 -0.1732691 -0.39315668
0003b0 c0 9c 8a be 86 0e b3 be 48 77 bb 3d 33 ae 01 3f
       -0.27072716 -0.34972018 0.091536105 0.5065643
0003c0 a3 e8 5e 3d 6d 63 65 be 61 a1 9c be 2b 94 8d 3d
       0.05442108 -0.22401209 -0.30591872 0.069130264
0003d0 05 2f 08 bf 66 e6 ea 3c c3 34 20 bf c7 59 16 bf
       -0.53196746 0.028674316 -0.6258051 -0.5873074
0003e0 d0 80 20 3e a0 c2 9c 3e 64 f7 42 3f 58 25 1c 3f
       0.15674138 0.30617237 0.7615874 0.6099448
0003f0 e8 f2 8e bd f8 ff 06 3e b6 c4 b2 be 62 98 04 be
       -0.069799244 0.13183582 -0.34915704 -0.12948754

net.0.bias f4 [128]
000000 e7 26 8b 3e 55 06 a9 3e 53 89 10 bf d9 e4 09 bf
       0.27178118 0.33012643 -0.5645954 -0.5386482
000010 2b 6c 1f 3e d7 54 f5 3d 99 bf db be 49 c9 1e 3e
       0.15568607 0.119790725 -0.42919615 0.15506472
000020 43 6b 49 be ff 9f 85 be 15 b2 37 3e 97 bb af be
       -0.19669823 -0.2609863 0.17939027 -0.34322807
000030 84 1f 9b 3e 8d 0b 9e be 94 fa ba 3e a0 75 97 bd
       0.30297482 -0.30868188 0.365193 -0.07395482
000040 56 36 05 bf da 3e e0 be 90 d3 f7 be d6 e0 d8 3e
       -0.52036035 -0.43797952 -0.48403597 0.42359036
000050 dd 24 d2 3d 7a 9d 9d be 0c ee 8c bd eb 4f ac 3b
       0.10260937 -0.30784208 -0.06881341 0.0052585504
000060 4b 4d 3b 3e 3f 31 94 be 65 51 2b 3e d4 23 ea be
       0.18291204 -0.28943822 0.16730268 -0.4573046
000070 5d 37 c4 be f3 a0 62 be 9b 81 ac be 2a 9f af be
       -0.3832349 -0.2213171 -0.3369263 -0.3430112
000080 4f 27 bf be 3b 6a a9 3e b6 cc 10 be 6e cd 89 3e
       -0.37334678 0.3308886 -0.14140591 0.26914543
000090 02 74 0c 3f c0 01 36 3e 01 c5 e5 be 74 62 97 be
       0.54864514 0.17774105 -0.44876865 -0.295673
0000a0 07 d3 5c bd 01 c3 e1 be 72 1a 71 3e ed dd 83 3e
       -0.05391219 -0.4409409 0.23545244 0.25755253
0000b0 d7 73 16 bf 4c 3a 98 3e 74 7d df be f8 0a e0 be
       -0.5877051 0.29731977 -0.436504 -0.43758368
0000c0 35 52 c0 3e 52 e4 a5 be 5c 5b c5 3e 61 ae f3 3d
       0.3756272 -0.32400757 0.38546264 0.118984945
0000d0 ed f8 f5 be 5f 3c cf 3e e7 73 aa be d2 19 b0 3e
       -0.48041478 0.40475747 -0.3329155 0.343947
0000e0 12 e6 05 bf 35 4c 80 be 1a 82 b2 3d b3 f2 9d be
       -0.52304184 -0.2505814 0.08716221 -0.30849227
0000f0 bb 31 9e be d0 75 6c 3d a5 e8 63 3d 79 4a b8 3e
       -0.30897316 0.057729542 0.05564179 0.35994318
000100 fb 8f 1d bf cf 71 86 3e 2e 4c 91 be b7 35 8e 3e
       -0.6154782 0.26258704 -0.28378433 0.27775356
000110 18 bf ec be 63 9d 9d be d9 81 1b 3d ee e1 73 3e
       -0.46239543 -0.3078414 0.03796563 0.23816654
000120 d8 75 42 3e 9b 36 30 bf 09 72 0a 3e 16 6d d5 be
       0.18990266 -0.6883332 0.13520063 -0.41684788
000130 f0 e5 9a be 74 7d 99 3e bd cb 8d 3e 64 ca 07 bf
       -0.30253553 0.29978526 0.27694502 -0.530432
000140 7a c5 02 3e 4b 25 d3 3d c1 a0 22 3e 9e 65 e0 be
       0.12770644 0.103098474 0.15881635 -0.43827528
000150 57 21 3c 3e 39 9f fe be 25 b9 a4 be 15 10 c5 be
       0.18372093 -0.49730852 -0.32172504 -0.38488832
000160 be ca ca be b4 3e 90 3e 4d 64 b8 be 8a 5d 69 be
       -0.39607805 0.2817284 -0.36014023 -0.22789589
000170 ac 9f ee 3e 77 99 a3 be 5c 49 2d be 21 29 ba 3e
       0.46606195 -0.31953022 -0.16922516 0.36359504
000180 d9 34 99 be d2 46 ea 3e 2b c5 cc be b7 c7 c6 3e
       -0.29923132 0.45757157 -0.39994177 0.38824245
000190 14 da ff bd eb a4 c6 be b2 17 8c 3e 2e fd 23 3c
       -0.12492767 -0.38797697 0.27361828 0.010009093
0001a0 28 22 48 3d 15 2e a3 be 4b f8 eb 3e 90 94 63 be
       0.0488607 -0.31871095 0.4608787 -0.22224641
0001b0 2c f0 2a 3e e1 8b e3 bd 26 3d 8a 3e e2 6d 96 be
       0.16693181 -0.11110664 0.26999778 -0.2938071
0001c0 30 eb 99 3d 3a 92 d4 be 8c 95 51 3c cb 84 3a bf
       0.075155616 -0.41517812 0.012792002 -0.72858876
0001d0 b5 3e e0 3d 55 a7 76 be ce a4 e6 3d 6d b7 42 bf
       0.109494604 -0.2408727 0.11261903 -0.76061136
0001e0 ce 3f cc be b9 2a 26 bf 9a 6b 0a bf 25 ef 20 bf
       -0.3989243 -0.6490894 -0.54070437 -0.62864906
0001f0 91 de 9f 3e 1b 9c ed be 4b af e6 3d aa 25 2d be
       0.31224492 -0.46408162 0.11263903 -0.16908899

net.2.weight f4 [2, 128]
000000 20 bd 4a 3d c1 f3 8c 3e f9 9e 57 3d 53 ae 24 3d
       0.04949677 0.2752972 0.052641843 0.04020531
000010 d1 8d 1d 3e 6e a5 d5 bd 19 1c 5b bd 38 0a 0b bd
       0.1538613 -0.10431944 -0.053493593 -0.033945292
000020 b3 17 cf 3d 84 ac d9 ba 8a 9e 77 3e fd 29 39 be
       0.10111942 -0.00166072 0.24181572 -0.18082424
000030 2f d5 29 3d 77 d6 9d bd a8 ea fb 3d 58 98 42 be
       0.041463073 -0.077069215 0.123006165 -0.19003427
000040 a4 d2 34 3d b8 8c 22 be ef a8 9d 3c 1f c4 c2 bd
       0.044146195 -0.15873992 0.019245593 -0.095100634
000050 e2 d5 0e 3e 1f 68 0d bd 79 d0 75 3e 37 bf 9f 3e
       0.13948777 -0.034523126 0.24005307 0.31200573
000060 ba 97 22 3e 5b 13 bb 3d be 21 c3 be a6 f0 cd bd
       0.15878192 0.09134551 -0.3811168 -0.10055666
000070 ee aa 02 3d 6c d0 f4 3d c2 e6 93 bc 6a d1 b7 bd
       0.031901293 0.11953816 -0.01805437 -0.089754894
000080 d6 cf 45 3d 17 67 9f be 26 5d 5f 3e e5 5d ef bd
       0.04829391 -0.3113334 0.21812877 -0.11687831
000090 ed 72 b2 3d 7c 95 78 be 8f 61 cc bd aa b6 94 bd
       0.087133266 -0.24275774 -0.09979545 -0.07261403
0000a0 b0 ca 21 3d ae 8c bd bc 0f 11 7d 3e 3f c2 a2 3e
       0.03949994 -0.02313837 0.24713539 0.31788823
0000b0 c8 3a b8 bd 20 80 74 be e7 6e 0a 3e f6 bd 9e 3a
       -0.08995587 -0.23877001 0.13518868 0.0012111056
0000c0 1e 3a 81 3e 31 eb c9 bd 82 30 70 3d 50 69 ac ba
       0.25239652 -0.09859312 0.05864001 -0.0013153944
0000d0 88 45 7f 3d 5b 78 9b be 79 7c 35 bc 5a c6 f3 3d
       0.06232217 -0.3036526 -0.01107704 0.11903067
0000e0 d8 1c 81 3d 3c 69 fe 3d ec 02 08 3e 5f 7d 34 be
       0.0630433 0.124224156 0.13282365 -0.1762595
0000f0 51 62 99 bd af c5 86 3e 0a 38 8a be 06 e3 9e 3b
       -0.074894555 0.26322696 -0.2699588 0.0048488406
000100 41 0b 4a bd 29 24 24 3e 20 bd 2e be 26 f7 12 be
       -0.04932714 0.16029419 -0.17064333 -0.14352092
000110 d3 77 20 bd 01 5e 82 bd 46 8f 7c 3b 53 a6 96 3e
       -0.039176773 -0.06365586 0.0038537546 0.2942377
000120 cb 60 87 3e ee 35 0c bc 82 9b 1b 3e 85 fd c6 ba
       0.26441035 -0.00855778 0.1519604 -0.0015181756
000130 3f 51 29 bc 2c b8 1e 3e 5c 11 b5 bd 26 f7 11 3c
       -0.010334312 0.15499943 -0.08841202 0.008909022
000140 38 a8 94 3e 5a 20 99 3e b6 7c b2 be 01 13 df 3c
       0.2903459 0.29907495 -0.34860772 0.027230741
000150 f4 0a 8d be 72 41 f3 3c a7 b4 9f bd 9f 72 63 3d
       -0.2754742 0.029694293 -0.077981286 0.055529233
000160 70 e0 30 3d 5a 9b 15 be 90 19 a6 bd 45 ab 00 3e
       0.04318279 -0.14610043 -0.081103444 0.12565334
000170 e4 cd ff 3d c6 c5 40 3c 07 d5 21 3d e6 60 b2 3e
       0.124904424 0.011765903 0.0395098 0.34839553
000180 7b ab 98 be 10 ec 51 3e 81 9e d1 bc 65 28 a2 3d
       -0.2981833 0.20500207 -0.025588276 0.07917861
000190 52 08 e6 bd ea 73 32 be 3f ed d7 bd da cc 4a 3e
       -0.11232056 -0.1742703 -0.10543298 0.19804707
0001a0 26 ee 2e 3e e8 83 37 3e f8 ca 7f bd 7e c1 6b be
       0.17083034 0.17921412 -0.062449425 -0.2302303
0001b0 d2 a3 e5 3e 0b e5 69 be 5d a7 03 3e ba 6a 7c bc
       0.44851547 -0.22841279 0.12856813 -0.015406305
0001c0 0a bc a8 bd d7 70 7f bd a3 21 3e 3e 93 15 a4 3d
       -0.082389906 -0.06236347 0.18567519 0.080119275
0001d0 d5 fc 41 be 04 20 22 bd b1 5e de 3d 55 cc 9d 3d
       -0.18944104 -0.039581314 0.10857905 0.07704989
0001e0 8f e1 00 3e 57 09 14 3d 22 42 26 bd 1e 01 ea 3d
       0.12586044 0.03614172 -0.040590413 0.11425994
0001f0 05 0d 10 bf dc 25 8c 3d 05 aa 93 be 42 81 03 3d
       -0.56269866 0.068431586 -0.28840652 0.03210569
000200 0a d5 a4 bd e0 c3 2d be dd 57 c0 bd 09 b2 d5 bc
       -0.080484465 -0.16969252 -0.093917586 -0.02608587
000210 90 b5 a6 bd b4 2b 2c 3e b2 82 1f 3e d3 6d e9 3b
       -0.08140099 0.16813546 0.155772 0.007123688
000220 13 c2 74 be 0e 31 d7 bd 17 f6 5c be f2 6a 5f 3d
       -0.23902158 -0.10507403 -0.21578251 0.05454535
000230 a6 3c 96 bd eb 22 7f bb 25 d2 0c be b7 5d 77 3e
       -0.073357865 -0.0038930725 -0.13752039 0.24156843
000240 0f 16 34 bd b7 72 1b 3d ba 94 4c bc 21 c8 3b 3e
       -0.04396635 0.037951197 -0.012486631 0.18338062
000250 f6 5f 70 be 57 b2 88 bd 59 dc 60 be f5 12 ba be
       -0.23474106 -0.066746406 -0.21959056 -0.36342588
000260 2d e6 82 be ba 75 27 bd a0 1f 8c 3e 3b b3 33 3c
       -0.25566235 -0.040883757 0.27367878 0.010968025
000270 e4 02 9f 3c 50 8a 37 be ce 06 88 bc aa 20 f5 3d
       0.019410558 -0.17923856 -0.016604807 0.11969121
000280 e0 18 b2 3d 24 87 8c 3e 1c 8e e1 bd 22 f6 76 3d
       0.08696151 0.27446854 -0.11013433 0.060293324
000290 74 a8 57 be 14 29 55 3e 28 95 11 3e c6 10 bd bc
       -0.21060354 0.20816451 0.14217055 -0.023079287
0002a0 09 72 b2 bd e2 bf ee 3d e9 83 97 be 15 59 74 be
       -0.08713157 0.116576925 -0.29592827 -0.23862107
0002b0 b3 f1 86 bd 32 a0 ca 3e f4 e7 43 be f8 83 a8 3d
       -0.06589069 0.39575344 -0.19131452 0.08228296
0002c0 4d b5 4b be 8d 86 14 bc 74 c6 08 be 7b d3 07 3e
       -0.1989338 -0.0090652825 -0.13356954 0.13264267
0002d0 9d 6b 97 bb fb 64 61 3e 7b 8e 96 3d 27 36 b1 bd
       -0.004620983 0.22011177 0.07351395 -0.08652907
0002e0 29 eb e1 bb 76 59 e7 bd fc 0f f2 bd 05 02 f1 3d
       -0.0068944884 -0.1129636 -0.11819455 0.11767963
0002f0 5f a1 9e bc cf 69 aa be 78 fc 02 3e ec f2 8c 3c
       -0.019364057 -0.3328385 0.12791622 0.017205678
000300 52 99 43 3d 0b 8e 74 be ba de 0c 3e 42 81 06 3e
       0.04775364 -0.2388231 0.13756838 0.13135245
000310 6c 1e c7 bd b1 4a 8b bd 52 64 96 3d 74 37 66 be
       -0.097225994 -0.06801356 0.07343353 -0.22482091
000320 95 f4 8f be e0 cb 7a 3d dc 02 39 bb 9f 14 ea 3c
       -0.2811629 0.061229587 -0.0028230464 0.028574286
000330 c1 1f 6b 3b b6 d9 61 be 20 8a 83 3d dd 84 9d bc
       0.003587708 -0.22055706 0.0642283 -0.019228393
000340 80 ec 9b be ba 35 cf be 91 b3 b9 3e a3 1a b1 3d
       -0.30453873 -0.40470678 0.3626981 0.08647659
000350 76 ff 6f 3e 35 78 83 bd 87 a7 38 3e 9a 9c 7f bd
       0.23437294 -0.06419412 0.18032657 -0.062405206
000360 45 76 f3 bc 5e 29 0a 3e d2 96 19 3e 9e b0 47 be
       -0.029719481 0.13492343 0.1499894 -0.19500968
000370 1d f5 b1 bd e7 27 a2 bd c9 e5 39 bd 48 b3 b0 be
       -0.0868933 -0.07917767 -0.045385156 -0.3451178
000380 ad 9c 75 3e 0a e1 60 be 8d 01 ee bc 63 f0 e2 bd
       0.23985548 -0.21960846 -0.029053474 -0.110810064
000390 fd 4b cd 3d a0 db 31 3e 26 e2 32 3d 30 f1 12 be
       0.10024259 0.17368937 0.043672703 -0.14349818
0003a0 45 cd 9b bd 7d 0b 54 be 50 52 93 3d fd 88 ae 3d
       -0.076075114 -0.20707507 0.07193434 0.08522222
0003b0 b0 d0 a5 be c7 3a 81 3e c3 85 32 be 5b 88 08 bd
       -0.32385778 0.25240156 -0.17433839 -0.033333164
0003c0 ee 80 66 3e 44 be 91 bc b2 5e 33 be 09 1c c2 bd
       0.2251012 -0.017790921 -0.17516592 -0.094780035
0003d0 3b 30 2e 3e 1f 5d e9 3d f4 60 0c be 4a 5f b0 bd
       0.17010586 0.113947146 -0.1370886 -0.08611925
0003e0 f6 8d 1d be ef df 91 bd d0 7d 9d bd 5d a2 7a 3c
       -0.15386185 -0.0712279 -0.076900125 0.0152974995
0003f0 d1 7e f9 3e fc a3 3a 3c 0c 47 63 3e 42 af aa bd
       0.48729566 0.011391636 0.22195071 -0.08334209

net.2.bias f4 [2]
000000 2c 10 86 3d c6 d3 35 bc
       0.06546053 -0.011097854
