Teaching Content/L4T4 - Pytorch/cartpole demo/checkpoints/policy_ep0500.pth (torch, 5824 bytes, 4 tensors)

net.0.weight f4 [128, 4]
0.33814254 -0.57234216 -1.2687987 -0.79190403 0.22605482 0.45421633 1.4776973 0.8784548
-0.17371151 -0.22376554 0.037566803 0.23367845 0.059821587 0.3828941 1.4138012 0.52515477
-0.05917706 0.109551296 -0.39412868 0.43411997 0.26214245 -0.18071917 -0.10546474 0.10816841
0.117221355 -0.23519765 -0.19458385 0.061672393 0.086220935 -0.46742925 -1.492411 -0.81627774
-0.21465503 -0.10696866 -0.12881574 -0.30988568 0.33595836 0.26033765 1.2417943 0.75204813
-0.20903783 0.3586312 -0.58320457 -0.23633076 -0.081248015 -0.3206809 -1.5822846 -0.8138961
0.18510371 -0.5523186 -1.3951732 -0.66694355 0.2291497 0.16764276 -1.3738297 -0.5635615
0.22284433 0.08189333 0.15166534 0.36395624 0.43132165 -0.047227025 0.8365855 0.4754201
0.05048387 0.1782907 -0.2763058 0.5820939 -0.15421765 0.100479126 0.07167381 -0.3004864
-0.7972902 -0.4646459 0.15061946 -0.14851926 -0.02626611 -0.043118656 0.32023966 0.25898165
0.0016612335 -0.037757557 -0.2693568 -0.021093907 0.20159383 0.2791275 1.2193544 0.6330089
-0.057171058 -0.15232499 -0.5156778 0.293432 0.2397232 -0.37063247 -0.19038057 -0.418967
-0.3463495 0.55610955 0.5394245 0.6747667 0.25448093 -0.61219966 0.22594753 0.3214649
0.2049153 0.4459975 1.2982168 0.744967 0.24591732 0.39572567 1.3289105 0.6732364
-0.11490359 -0.13597281 -0.31327108 -0.4796107 0.21042848 0.0020874518 0.05129311 -0.0032233775
0.102434635 0.34967563 0.7250529 0.3817881 0.44276342 -0.15265909 0.39103132 0.91827154
0.50996864 -0.3659581 0.34326887 0.0058101043 -0.20152317 0.12253116 -1.6974473 -1.0897129
0.38546798 -0.118091896 0.41464776 -0.0534714 0.13618211 0.63119346 1.4258449 1.0705762
-0.1228316 0.4484441 0.76088244 0.3945854 0.20583892 0.14899811 0.3686169 -0.20246984
0.09559167 0.004354388 -0.8038548 -0.8359492 0.33835983 0.7105903 1.133192 1.1236527
0.013376995 0.55207855 0.89901435 0.23474078 -0.17027849 0.316843 -1.094131 -0.40942752
-0.018831199 -0.12419073 0.52258307 0.13173741 -0.3867874 0.05689351 -0.17285796 0.19169693
0.23440373 -0.34567574 -0.070700526 -0.102287784 -0.0076040397 -0.27536985 -0.38854522 0.34346664
0.021353759 -0.62197715 -0.5463457 0.18230145 -0.2661564 0.3070304 0.8146158 0.42380646
-0.31380612 0.2304626 -0.0732231 -0.06710927 0.16476144 0.48678058 0.70705956 0.86372507
-0.20096451 0.10338031 0.2781329 -0.36948624 0.034484085 0.059124842 0.37153235 -0.022122404
-0.04351509 0.13367347 -0.21976364 -0.0827375 -0.55678034 0.1548927 0.36870068 -0.09550925
0.17896727 0.4171049 0.88181263 0.7417343 -0.069416896 0.00319602 0.1564038 0.0187927
0.24137813 0.17268929 1.177266 0.51783484 0.56609404 0.11587712 0.13712938 0.32733515
-0.09395277 -0.21088761 -1.0820245 -0.6945092 -0.18150805 0.10173166 -0.11815309 -0.27041492
0.32955283 -0.3172376 -1.1531088 -0.8942373 -0.26673603 -1.1876682 -0.38519558 -0.4122818
-0.33475763 0.13601008 -0.15194425 0.060933214 0.0003742069 -0.0025841803 0.049168367 -0.44398814
00000000: 0521 ad3e 0485 12bf ff67 a2bf 39ba 4abf
00000010: ea7a 673e 0b8f e83e 2f25 bd3f 6ae2 603f
00000020: 6ee1 31be cb22 65be a6df 193d 6749 6f3e
00000030: 7b07 753d b20a c43e 70f7 b43f 8b70 063f
00000040: a563 72bd 6e5c e03d 3ccb c9be f944 de3e
00000050: 8937 863e 720e 39be e6fd d7bd 6687 dd3d
00000060: c011 f03d a7d7 70be fd40 47be 319c 7c3d
00000070: 9a94 b03d e352 efbe 5307 bfbf 94f7 50bf
00000080: 87ce 5bbe 6312 dbbd 46e8 03be 56a9 9ebe
00000090: bc02 ac3e fa4a 853e 1ef3 9e3f 3a86 403f
000000a0: 030e 56be 829e b73e e54c 15bf b100 72be
000000b0: 5c65 a6bd 4930 a4be 4d88 cabf 7f5b 50bf
000000c0: d48b 3d3e c064 0dbf 0995 b2bf d0bc 2abf
000000d0: 38a6 6a3e 8baa 2b3e a7d9 afbf 9145 10bf
000000e0: 4e31 643e b1b7 a73d 294e 1b3e 7958 ba3e
000000f0: 31d6 dc3e 2071 41bd 782a 563f 436a f33e
00000100: 2dc8 4e3d d691 363e f477 8dbe 1b04 153f
00000110: 3beb 1dbe 00c8 cd3d b8c9 923d 5ad9 99be
00000120: 361b 4cbf 11e6 edbe fd3b 1a3e 6f15 18be
00000130: 062c d7bc 309d 30bd 74f6 a33e 3e99 843e
00000140: bfbd d93a aba7 1abd 22e9 89be 21cd acbc
00000150: 9d6e 4e3e cde9 8e3e ce13 9c3f df0c 223f
00000160: 332c 6abd 15fb 1bbe 7603 04bf b83c 963e
00000170: 007a 753e 8ac3 bdbe 20f3 42be d882 d6be
00000180: b954 b1be 325d 0e3f b917 0a3f 83bd 2c3f
00000190: 534b 823e 1eb9 1cbf ca5e 673e 0c97 a43e
000001a0: 51d5 513e c959 e43e f82b a63f 28b6 3e3f
000001b0: c0d1 7b3e 8e9c ca3e bd19 aa3f 3959 2c3f
000001c0: 9352 ebbd 753c 0bbe 1165 a0be 898f f5be
000001d0: 907a 573e a1cd 083b b918 523d 4d3f 53bb
000001e0: 40c9 d13d af08 b33e 119d 393f bb79 c33e
000001f0: e3b1 e23e aa52 1cbe 4235 c83e d813 6b3f
00000200: 4e8d 023f dc5e bbbe f0c0 af3e b062 be3b
00000210: 175c 4ebe 9ef1 fa3d f445 d9bf b67b 8bbf
00000220: 0f5c c53e 2ada f1bd b64c d43e d404 5bbd
00000230: 5373 0b3e e595 213f 1682 b63f a408 893f
00000240: 228f fbbd 779a e53e 31c9 423f 1907 ca3e
00000250: 70c7 523e f692 183e 5bbb bc3e 4154 4fbe
00000260: 91c5 c33d 41af 8e3b 6ec9 4dbf c400 56bf
00000270: 803d ad3e 3fe9 353f 6f0c 913f dad3 8f3f
00000280: 2f2b 5b3c 0555 0d3f ce25 663f e35f 703e
00000290: 7c5d 2ebe 3f39 a23e 7c0c 8cbf 7ca0 d1be
000002a0: e343 9abc b657 febd 01c8 053f 2ce6 063e
000002b0: 0009 c6be 2b09 693d ad01 31be 334c 443e
000002c0: 8807 703e 69fc b0be 70cb 90bd 427c d1bd
000002d0: 4f2b f9bb 47fd 8cbe 66ef c6be dcda af3e
000002e0: 14ee ae3c e539 1fbf 50dd 0bbf 3bad 3a3e
000002f0: a745 88be 1733 9d3e a98a 503f 29fd d83e
00000300: 32ab a0be 63fe 6b3e fef5 95bd 9670 89bd
00000310: 39b7 283e 4e3b f93e db01 353f 161d 5d3f
00000320: a4c9 4dbe 0eb9 d33d 6f67 8e3e 4d2d bdbe
00000330: 2f3f 0d3d e42c 723d 7d39 be3e 0b3a b5bc
00000340: e13c 32bd b3e1 083e b809 61be 4772 a9bd
00000350: 2889 0ebf 319c 1e3e 56c6 bc3e 5b9a c3bd
00000360: 3243 373e c68e d53e 79be 613f 4de2 3d3f
00000370: 722a 8ebd 5174 513b 5128 203e 26f3 993c
00000380: d42b 773e 76d5 303e a7b0 963f d390 043f
00000390: 8aeb 103f fc50 ed3d a56b 0c3e 7998 a73e
000003a0: 4f6a c0bd ecf2 57be c77f 8abf 5bcb 31bf
000003b0: 3fdd 39be b058 d03d 3ffa f1bd d373 8abe
000003c0: 26bb a83e f76c a2be 1299 93bf bcec 64bf
000003d0: a091 88be 8305 98bf 5b38 c5be 9a16 d3be
000003e0: 5a65 abbe 3a46 0b3e 4697 1bbe 1b95 793d
000003f0: 3331 c439 5a5b 29bb c564 493d 6a52 e3be

net.0.bias f4 [128]
0.4487689 -0.07911135 -0.41366678 0.22830045 -0.51701343 -0.41990128 -0.20832609 0.39964485
-0.57749647 -0.06895743 0.08765435 0.4416697 0.4600306 0.032029327 -0.50356185 -0.33958992
-0.13381507 -0.31656012 0.15809883 -0.48844856 -0.3139477 0.07209669 -0.6527307 -0.8035247
0.11447955 0.32498 -0.10960456 -0.13478057 -0.014066389 -0.5848801 -0.17238306 -0.27064428
-0.61711186 0.522842 -0.5035518 0.053116385 0.00402074 -0.7738976 -0.3902192 0.054000508
-0.01808719 -0.008522823 -0.23802948 -0.0027895428 -0.35532868 -0.662545 0.5439564 0.011141624
-0.52810156 -0.10856208 -0.2795203 -0.38171482 -0.56582636 -0.47323918 -0.12345481 -0.3734794
-0.10407893 -0.4126309 0.43946597 -0.4328033 0.26114812 0.69056326 -0.5337755 -0.15157145
-0.5694383 -0.029979007 0.72475964 -0.004695928 0.73983747 0.4329858 0.111273974 -0.19036104
-0.30227298 0.68462765 -0.33381572 0.12157739 -0.42500684 0.49161023 -0.25195304 0.051913545
0.08533064 -0.52158743 -0.069651246 -0.5060667 -0.53033787 0.07470769 0.015620994 -0.2607655
-0.033345405 -0.4788706 -0.13731931 0.2443691 -0.15582956 -0.38166243 -0.15367188 -0.5205411
-0.06869808 0.15643837 -0.093729965 -0.3048204 -0.26220968 0.11648261 -0.012974551 -0.338542
-0.43559313 0.069739416 -0.62762946 -0.102509506 0.053876296 -0.34770742 -0.2941494 -0.22886992
-0.50370485 -0.29757708 -0.22139508 0.23938367 -0.3746006 -0.24380088 -0.096838936 -0.30386856
-0.044201113 -0.0017591487 0.4015731 0.4175634 0.04700299 0.06611417 0.2463826 -0.56966656
00000000: 0ac5 e53e 2205 a2bd 22cc d3be 98c7 693e
00000010: fe5a 04bf 4dfd d6be 6f53 55be 409e cc3e
00000020: cfd6 13bf 8e39 8dbd 2084 b33d 8822 e23e
00000030: 2189 eb3e 2f31 033d 6ee9 00bf bbde adbe
00000040: d106 09be 2b14 a2be a9e4 213e ee15 fabe
00000050: c1bd a0be 6ea7 933d 5c19 27bf cbb3 4dbf
00000060: 4174 ea3d c763 a63e 5b78 e0bd eb03 0abe
00000070: b676 66bc b4ba 15bf 2f85 30be e391 8abe
00000080: 0bfb 1dbf f9d8 053f c5e8 00bf 9190 593d
00000090: 69c0 833b 271e 46bf d0ca c7be a32f 5d3d
000000a0: 962b 94bc 50a3 0bbc 00be 73be c3d0 36bb
000000b0: a4ed b5be 8d9c 29bf ba40 0b3f 5c8b 363c
000000c0: aa31 07bf cc55 debd 491d 8fbe 2070 c3be
000000d0: ffd9 10bf 684c f2be e0d5 fcbd b138 bfbe
000000e0: 5627 d5bd 5b44 d3be af01 e13e 6598 ddbe
000000f0: 35b5 853e c1c8 303f 83a5 08bf 8c35 1bbe
00000100: b5c6 11bf 8996 f5bc d989 393f 4de0 99bb
00000110: fd65 3d3f 51b0 dd3e 9ce3 e33d 01ee 42be
00000120: 86c3 9abe c243 2f3f e5e9 aabe 91fd f83d
00000130: 7f9a d9be 56b4 fb3e fdff 80be 4ca3 543d
00000140: d5c1 ae3d c186 05bf 50a5 8ebd 968d 01bf
00000150: 39c4 07bf 5800 993d 33ef 7f3c 0e83 85be
00000160: 3195 08bd 872e f5be 6f9d 0cbe e53b 7a3e
00000170: c991 1fbe 4269 c3be 295c 1dbe 2e42 05bf
00000180: 94b1 8cbd 6131 203e 7ff5 bfbd 6b11 9cbe
00000190: 5940 86be 6f8e ee3d 3693 54bc 6155 adbe
000001a0: 1006 dfbe 8ad3 8e3d 53ac 20bf 81f0 d1bd
000001b0: 64ad 5c3d b506 b2be c09a 96be e05c 6abe
000001c0: cdf2 00bf 065c 98be 64b5 62be fe20 753e
000001d0: a6cb bfbe f0a6 79be 7e53 c6bd a994 9bbe
000001e0: 3a0c 35bd 3c93 e6ba fd9a cd3e dfca d53e
000001f0: 3586 403d de66 873d b84b 7c3e abd5 11bf

net.2.weight f4 [2, 128]
0.5182117 -0.57897514 0.046597492 -0.10686705 0.077722065 -0.00026296626 0.02313784 0.54419607
0.12378759 -0.37614456 -0.026937533 0.500716 0.43997133 -0.011834052 0.0167659 -0.07222139
-0.017346436 0.07875637 0.25271666 0.07251073 -0.03234146 -0.049084973 -0.02135782 -0.07706975
-0.2028095 0.3460656 -0.3122028 -0.40785548 0.013030216 -0.12863126 -0.10362654 -0.19361901
0.008602522 0.3816377 -0.096777745 -0.38168988 -0.18280044 0.019547444 0.055739507 -0.3812308
-0.1623445 0.052386574 -0.05950967 0.03460079 -0.02173117 0.020835532 0.4023289 -0.060008954
-0.028088855 -0.21355276 0.003673143 0.042293757 -0.028371204 -0.12583743 -0.16796525 0.0001258723
-0.17509204 -0.10266555 0.5115352 -0.00043664098 0.19521026 0.72697294 0.0649775 0.038561784
0.03731318 -0.052905295 0.64721596 -0.25902322 0.8356065 0.29152355 -0.41280627 0.13987006
0.02904769 0.8608055 0.0091375355 -0.11923996 0.112866975 0.5683008 0.08372228 -0.20398466
-0.39184257 -0.0843417 0.0054963985 0.09932785 -0.0015844657 0.07256548 0.20292298 0.049528226
0.04836863 0.08328802 -0.27357775 0.21846077 0.037946057 0.012831587 -0.07575439 -0.034936704
-0.19740787 -0.44768962 0.145656 -0.24249798 -0.04931998 -0.14565027 -0.3038487 0.003782749
-0.0114053665 -0.055324942 -0.023532402 -0.35345054 -0.33427513 0.010262099 -0.2007714 -0.08813512
-0.012136722 0.018415105 0.036699962 0.29964373 0.08593051 0.12422044 -0.47920537 0.07673072
-0.0075874412 0.16665374 0.5139162 0.39162478 0.11055682 -0.09087922 0.12733221 -0.025617287
-0.40643743 0.6472104 0.07983026 0.07361881 -0.0685969 0.02870981 -0.0047651473 -0.55790544
-0.13685083 0.23901027 0.036828853 -0.5768938 -0.44996166 -0.10149151 -0.0032928577 0.13033056
-0.009488759 0.06225956 -0.18696769 0.025680255 0.02553033 0.14965607 0.06686676 -0.032294005
0.18874024 -0.3359535 0.31721902 0.29983807 -0.03770735 0.023429258 0.025070442 0.16533563
0.10192486 -0.25408486 0.075117186 0.40449527 0.18749768 -0.054649234 -0.124310955 0.28206816
0.048869234 -0.0560626 -0.042976245 -0.025757834 -0.019187592 -0.033964843 -0.42479977 0.17140768
-0.06681243 0.37289017 -0.02510127 -0.001286113 -0.04642462 0.0720187 0.2219227 0.00011595322
0.14194733 0.1520951 -0.5252266 -0.08275173 -0.27972844 -0.65155417 -0.008226471 -0.00062625436
-0.07732428 -0.09991272 -0.66765696 0.24260058 -0.69077045 -0.24481685 0.31619602 -0.09193831
0.11830289 -0.7474563 0.0046479045 0.22670531 -0.02715897 -0.52579874 -0.111241184 0.14328478
0.4212969 -0.07495955 -0.043724928 -0.087766156 -0.11424887 -0.09184686 -0.19081078 -0.007368111
-0.1611154 0.03869679 0.34637254 -0.28307673 -0.004260354 -0.042524204 -0.017425304 -0.086308576
0.25946975 0.44107804 -0.07905819 0.21818045 0.0117439125 0.25303933 0.25543314 0.061968222
-0.07996061 0.2122645 -0.013496079 0.22511894 0.24314944 -0.03620633 0.1537271 0.000691565
-0.03420278 0.0880264 0.012195638 -0.2602464 -0.073108226 -0.030708771 0.40574053 0.06095609
0.020139016 -0.08200954 -0.5483966 -0.40893984 -0.22752911 0.20229048 -0.18443134 -0.049429487
00000000: 86a9 043f b737 14bf 03dd 3e3d 1ddd dabd
00000010: bf2c 9f3d bcde 89b9 918b bd3c 6f50 0b3f
00000020: 5984 fd3d 0596 c0be 1aac dcbc ec2e 003f
00000030: ec43 e13e 9de3 41bc a458 893c cfe8 93bd
00000040: 1d1a 8ebc 054b a13d 1464 813e 8180 943d
00000050: 7b78 04bd 530d 49bd 98f6 aebc bfd6 9dbd
00000060: 4bad 4fbe 832f b13e 0cd9 9fbe 6fd2 d0be
00000070: b07c 553c eab7 03be 273a d4bd 1044 46be
00000080: 98f1 0c3c 0466 c33e 6933 c6bd db6c c3be
00000090: 0a30 3bbe f621 a03c 1c4f 643d af30 c3be
000000a0: a33d 26be 4e93 563d 69c0 73bd 8fb9 0d3d
000000b0: 9105 b2bc 47af aa3c 0efe cd3e f3cb 75bd
000000c0: 991a e6bc 93ad 5abe 1db9 703b 383c 2d3d
000000d0: ba6a e8bc 87db 00be 15ff 2bbe 97fc 0339
000000e0: 544b 33be 5142 d2bd f9f3 023f f6ec e4b9
000000f0: 33e5 473e e61a 3a3f ec12 853d f6f2 1d3d
00000100: b4d5 183d 39b3 58bd f2af 253f b19e 84be
00000110: 4fea 553f 9342 953e 585b d3be 193a 0f3e
00000120: 6cf5 ed3c c05d 5c3f 9ab5 153c 1534 f4bd
00000130: cd26 e73d 297c 113f 9676 ab3d 5be1 50be
00000140: 979f c8be 57bb acbd 221b b43b 666c cb3d
00000150: d9ad cfba 369d 943d 0bcb 4f3e 1cde 4a3d
00000160: 2f1e 463d e992 aa3d 6212 8cbe 2eb4 5f3e
00000170: 536d 1b3d 943b 523c 1e25 9bbd ca19 0fbd
00000180: 4a25 4abe 9337 e5be d926 153e 6451 78be
00000190: bf03 4abd 5825 15be 0f92 9bbe ffe7 773b
000001a0: 93dd 3abc 689c 62bd 06c7 c0bc 78f7 b4be
000001b0: 1c26 abbe 5d22 283c 0597 4dbe 3080 b4bd
000001c0: 1ad9 46bc 46db 963c b352 163d e76a 993e
000001d0: 56fc af3d 4967 fe3d 685a f5be ff24 9d3d
000001e0: 12a0 f8bb 47a7 2a3e 0390 033f 0b83 c83e
000001f0: 9d6b e23d e21e babd 6063 023e 58db d1bc
00000200: 9118 d0be 95af 253f 0c7e a33d 75c5 963d
00000210: 887c 8cbd d630 eb3c f424 9cbb e4d2 0ebf
00000220: a022 0cbe 1cbf 743e dad9 163d 50af 13bf
00000230: 6061 e6be c8da cfbd fccc 57bb 6075 053e
00000240: bd76 1bbc e103 7f3d 7574 3fbe 665f d23c
00000250: fc24 d13c 713f 193e 71f1 883d b846 04bd
00000260: 1f45 413e 1902 acbe 886a a23e 6084 993e
00000270: 0673 1abd b7ee bf3c 8760 cd3c be4d 293e
00000280: fbbd d03d 6917 82be 0ad7 993d 011a cf3e
00000290: 64ff 3f3e e0d7 5fbd be96 febd 3d6b 903e
000002a0: 1b2b 483d e6a1 65bd dc07 30bd 1802 d3bc
000002b0: 4c2f 9dbc b81e 0bbd 5b7f d9be 7f85 2f3e
000002c0: f5d4 88bd 76eb be3e 2ea1 cdbc cb92 a8ba
000002d0: be27 3ebd 8a7e 933d b43f 633e e92b f338
000002e0: a45a 113e d1be 1b3e 4075 06bf bd79 a9bd
000002f0: 9138 8fbe 41cc 26bf 52c8 06bc 382b 24ba
00000300: 315c 9ebd 0a9f ccbd 91eb 2abf 496c 783e
00000310: 55d6 30bf 45b1 7abe 72e4 a13e 274a bcbd
00000320: c948 f23d 4c59 3fbf 734d 983b 7025 683e
00000330: 7d7c debc bf9a 06bf 6bd2 e3bd 3fb9 123e
00000340: 3ab4 d73e 6484 99bd e918 33bd bebe b3bd
00000350: 50fb e9bd 351a bcbd e763 43be 3270 f1bb
00000360: 6ffb 24be 8680 1e3d be57 b13e 6fef 90be
00000370: 719a 8bbb dc2d 2ebd 83bf 8ebc 8dc2 b0bd
00000380: 38d9 843e fbd4 e13e 43e9 a1bd b26a 5f3e
00000390: 8a69 403c 5f8e 813e 22c8 823e 64d2 7d3d
000003a0: 63c2 a3bd dd5b 593e a81e 5dbc 9485 663e
000003b0: 2bfc 783e 174d 14bd a36a 1d3e 244a 353a
000003c0: 3718 0cbd 2f47 b43d 37d0 473c 043f 85be
000003d0: c4b9 95bd f690 fbbc 39bd cf3e 18ad 793d
000003e0: 94fa a43c 9ef4 a7bd b863 0cbf 9060 d1be
000003f0: 64fd 68be 3c25 4f3e 92db 3cbe 9376 4abd

net.2.bias f4 [2]
0.17738585 -0.16154595
00000000: a3a4 353e 4d6c 25be
