Teaching Content/L4T4 - Pytorch/cartpole demo/checkpoints/policy_ep0350.pth (torch, 5824 bytes, 4 tensors)

net.0.weight f4 [128, 4]
00000000: c6e1 e93e 0e21 a2be 5245 93bf f8bf 82bf
00000010: 7899 fb3d f7d7 323e 9081 ae3f 346f 8b3f
00000020: 54d6 12be 7a3f 94be 8bcf 313d 9985 813e
00000030: cee5 57bd 506c ab3d b7ad a93f da13 2d3f
00000040: fcbc 72bd 1029 d93d 2374 c9be 14cc e13e
00000050: 8b6e 303e e28a b3be d4f7 ee3b 4057 603e
00000060: dfc6 693b 3709 a3be 5055 54bc ca4a 4e3d
00000070: 8827 563e bd2c 36be 724d aebf 350d 86bf
00000080: 87ce 5bbe 6312 dbbd 46e8 03be 56a9 9ebe
00000090: ee47 793e 32c6 20bc d755 913f 1c68 7b3f
000000a0: 8125 2dbe 465d bc3e 211f 26bf f8d4 87be
000000b0: 941a 283d 0590 83bd 2531 bcbf cd3d 86bf
000000c0: 0ea4 9b3e 7e57 8fbe 95e0 a2bf 7055 6abf
000000d0: 7271 b93e ba01 903e 5ba9 a6bf 65c8 24bf
000000e0: ec99 703e ca3b ae3d 1b2a 203e 30ea ba3e
000000f0: cd1c c13e 15bb 56be efab 683f 3b9a 233f
00000100: d98a 213d fba0 133e 7b00 8abe b490 1f3f
00000110: 3c35 18be 435e d83d b310 9b3d 5653 99be
00000120: b63e 3ebf fc7c 74be 9a25 c33d e261 68be
00000130: 062c d7bc 309d 30bd 74f6 a33e 3e99 843e
00000140: bfbd d93a aba7 1abd 22e9 89be 21cd acbc
00000150: 2413 cd3d 604e f4ba bcdb 903f b6e0 503f
00000160: 332c 6abd 15fb 1bbe 7603 04bf b83c 963e
00000170: bef2 793e 68c0 c1be 4499 46be 9adf d4be
00000180: f679 c0be 0c23 ce3e 35aa d03e d7e4 3d3f
00000190: 4ec1 2d3c 078f 83be 5be3 c63e 48de cfbc
000001a0: e22f d93d c79f 0c3e 7b85 953f ac1a 803f
000001b0: 6815 2b3e 29d6 bf3d 19b4 9a3f 7325 713f
000001c0: fefa 583c 54e3 1dbd 1e0b 88be cdb8 07bf
000001d0: 907a 573e a1cd 083b b918 523d 4d3f 53bb
000001e0: 6bd4 9c3d adb6 c63d 5baf 103f fe19 0d3f
000001f0: 3ac1 c43e 88bc b8be 07bc d33e 222e 8d3f
00000200: 1984 163f 978b e0be b04d af3e 79e5 f43d
00000210: ab80 8cbd 5090 983e 6d47 ccbf df67 9fbf
00000220: 13b9 b73e ab04 a4be 8614 bf3e 2d51 3f3e
00000230: 73e3 be3c b0a4 b63e 1400 a73f d1b8 a23f
00000240: 85a7 e4bd 5d83 a73e 3bda 043f 0b60 e03e
00000250: 26e1 543e 52ca 1a3e 4bbb bd3e c42e 4fbe
00000260: e485 203e c768 243d 1b92 4abf 8d62 5ebf
00000270: 6197 7c3e 9355 e93e c52a 793f d706 aa3f
00000280: 68be 6abd fe92 833e b943 2b3f dec8 c13e
00000290: 32da 44bd f048 c93e 434a 81bf 4243 e2be
000002a0: 52a5 e83b 6957 44be eb6a 0e3f 7e52 173e
000002b0: 8970 d0be d82f eb3d c24d 20be c699 233e
000002c0: c7fa 243e 7f88 f1be 0965 5a3d de2b 84bd
000002d0: 9441 fdbb ae1e 8ebe 0f15 c6be 0d35 b33e
000002e0: 9aff 8bbe f462 1fbe 2cf1 3cbe d0fb 1fbe
000002f0: c87b 89be 9418 4c3e 40bc 393f 775c e93e
00000300: 32ab a0be 63fe 6b3e fef5 95bd 9670 89bd
00000310: 0878 a63d a057 553e c3ae 0a3f 98a1 913f
00000320: 9cff 4abe 70d5 ee3d 1660 953e 6e3c c4be
00000330: b440 0d3d a92e 723d 7d39 be3e b03b b5bc
00000340: e13c 32bd b3e1 083e b809 61be 4772 a9bd
00000350: 146d 0dbf 345a 1f3e 8cd6 ba3e 47d7 c1bd
00000360: 14bc 9b3d e4b1 1a3e e4df 323f 82c7 813f
00000370: 722a 8ebd 5174 513b 5128 203e 26f3 993c
00000380: c456 433e 307b 5abd f88f 8f3f 0023 293f
00000390: c3f5 e13e c155 91be 6700 443e e04c 273f
000003a0: 23b0 1abd d8d9 e53b 6663 79bf efb3 6abf
000003b0: 3fdd 39be b058 d03d 3ffa f1bd d373 8abe
000003c0: 1ee0 e63e e535 c9bd b426 81bf b725 89bf
000003d0: 925a adbe 2782 22bf 5968 82be 9a68 38bf
000003e0: 5a65 abbe 3a46 0b3e 4697 1bbe 1b95 793d
000003f0: b4f2 523d 37dc a03c b79c 593d 46d1 e8be
0.45680064 -0.31665844 -1.150553 -1.0214834 0.12285131 0.17465197 1.3633289 1.0893312
-0.14339572 -0.2895468 0.04341082 0.2529724 -0.052709393 0.08370268 1.3256139 0.67608416
-0.05926226 0.10603535 -0.39346418 0.44101012 0.17229669 -0.35066897 0.007292727 0.21908283
0.0035671515 -0.31842968 -0.012959793 0.050364293 0.20913517 -0.17790504 -1.3617384 -1.047278
-0.21465503 -0.10696866 -0.12881574 -0.30988568 0.24343845 -0.009812878 1.1354321 0.98205733
-0.16908838 0.36789912 -0.6489125 -0.2652967 0.041040972 -0.06423954 -1.4702498 -1.048761
0.303986 -0.2799644 -1.2724787 -0.9153662 0.36219364 0.28126317 -1.3020433 -0.6436828
0.23496217 0.085074976 0.15641062 0.36506796 0.37717286 -0.20969804 0.9088735 0.6390721
0.039439056 0.14416878 -0.26953492 0.62330174 -0.14864057 0.10564854 0.075715445 -0.29946393
-0.7431444 -0.23875803 0.09528656 -0.2269359 -0.02626611 -0.043118656 0.32023966 0.25898165
0.0016612335 -0.037757557 -0.2693568 -0.021093907 0.100134164 -0.001863908 1.1317058 0.8159288
-0.057171058 -0.15232499 -0.5156778 0.293432 0.24409005 -0.37842107 -0.19394404 -0.41576844
-0.3759305 0.40261114 0.40754858 0.74177307 0.010605169 -0.2569506 0.38845333 -0.025374547
0.10604836 0.13732825 1.168136 1.000814 0.16707385 0.0936702 1.2086211 0.9419777
0.013243435 -0.038546875 -0.26570982 -0.5301636 0.21042848 0.0020874518 0.05129311 -0.0032233775
0.07657703 0.097028114 0.5651757 0.55117786 0.3842867 -0.36081338 0.4135439 1.1029704
0.58795315 -0.438565 0.34238958 0.11957831 -0.06860479 0.29797602 -1.5959297 -1.2453574
0.35883388 -0.3203481 0.37320346 0.1868331 0.023301816 0.35672522 1.3046899 1.2712651
-0.11164764 0.3271741 0.51895493 0.43823275 0.20789012 0.15116242 0.37056956 -0.20232683
0.15676075 0.040138986 -0.7912919 -0.86869127 0.24667121 0.455731 0.97330886 1.3283337
-0.05731049 0.25698084 0.6690021 0.37848562 -0.04805965 0.3931346 -1.0100788 -0.4419194
0.007099786 -0.1917397 0.55631894 0.14777562 -0.40710858 0.11483735 -0.15654662 0.15976629
0.16111289 -0.4717445 0.05331901 -0.064536795 -0.007728765 -0.27757782 -0.3868794 0.35001412
-0.27343446 -0.15565091 -0.18451375 -0.15623403 -0.2685225 0.19931251 0.7255287 0.45578358
-0.31380612 0.2304626 -0.0732231 -0.06710927 0.08128363 0.20834208 0.54172915 1.137744
-0.1982407 0.11661804 0.2917487 -0.38327354 0.034485534 0.05912653 0.37153235 -0.022123188
-0.04351509 0.13367347 -0.21976364 -0.0827375 -0.55244565 0.15561754 0.3649181 -0.09464889
0.076042324 0.15106922 0.6987288 1.013901 -0.069416896 0.00319602 0.1564038 0.0187927
0.19076067 -0.053340137 1.1215811 0.6606903 0.44132814 -0.28385738 0.19140778 0.65351677
-0.037765633 0.0070144944 -0.97417295 -0.91680807 -0.18150805 0.10173166 -0.11815309 -0.27041492
0.45092863 -0.09824733 -1.0089936 -1.0714635 -0.33858162 -0.63479847 -0.25470236 -0.7203461
-0.33475763 0.13601008 -0.15194425 0.060933214 0.05150099 0.019636257 0.05312797 -0.45472163

net.0.bias f4 [128]
00000000: a977 a23e 6a71 f43d ae28 b6be d791 d63e
00000010: 6430 03bf f627 bfbe ef94 19be f944 8b3e
00000020: cfd6 13bf b968 d73d ee9b 573e c1c0 9a3e
00000030: 9ae7 a53e 0be8 2abc ad3f fdbe a24c 4dbe
00000040: 4168 f4bd 3d8a a0be bf62 663c ee15 fabe
00000050: c1bd a0be be3f 893e 5c19 27bf e8a7 4bbf
00000060: 3fc4 673e 156a 30bd d834 833d f4a7 92b9
00000070: 965d 543d b4ba 15bf fd58 cdbc b05f f7bc
00000080: c00a f9be e3ac e03e 1514 e3be 5ef9 723e
00000090: cbdb 353d 5ab1 45bf 6c6e aabe 2f7f 693e
000000a0: 4b28 793e 35f6 843d 023b 47be 203b 813d
000000b0: f75e a0be 22ff 28bf 9d12 043e 4919 303e
000000c0: aa31 07bf 8685 903c 8fb0 86be 0870 c3be
000000d0: ffd9 10bf 989f f3be c0db 5ebd b138 bfbe
000000e0: 5d24 64bd 82c0 c4be 5992 943e 6598 ddbe
000000f0: ef71 513e a41f bc3e 83a5 08bf 50f7 01be
00000100: b5c6 11bf 93af 81bc b09b 323e c7ae 7c3e
00000110: 3ced 0a3f 5171 cc3e 6ae1 563e 81f8 28be
00000120: 5611 5abe f7be 883e 8506 74be 1327 9d3e
00000130: 7f9a d9be 7cac cb3e ae4c 67be d681 7a3e
00000140: c2a7 7b3e c186 05bf c19c 55bd 968d 01bf
00000150: abd4 fcbe 8b38 c43c ff3a 3cbe 0e83 85be
00000160: b0e0 a53b 666c f4be 544f e63c 750a d73d
00000170: fbe4 1fbe 2e69 c3be 295c 1dbe 75fd 05bf
00000180: e78d 593d 16eb 9b3e fcd4 c3bd ee24 36be
00000190: 5940 86be 1a50 9e3e 7c24 223e 6155 adbe
000001a0: 8bb4 debe 76be 893e 53ac 20bf 384e 87bc
000001b0: 0a70 fe3d 3020 83be bcc3 70be 880f b9bd
000001c0: 4777 f4be 4f6c a7be d449 51be 2b2a ed3d
000001d0: c785 95be 1461 26be 0b41 303d a994 9bbe
000001e0: d5ff 043e 740f 433d 18d9 853e 3cd6 dcbb
000001f0: f35d febd 7579 873e 0cee 1f3e abd5 11bf
0.31731918 0.119356945 -0.3557791 0.41908142 -0.51245713 -0.37335175 -0.1499822 0.2720106
-0.57749647 0.10518021 0.21055576 0.30225185 0.3240326 -0.0104313 -0.49462643 -0.20048764
-0.11933947 -0.31355467 0.014061629 -0.48844856 -0.3139477 0.26806444 -0.6527307 -0.7955308
0.22633456 -0.043069918 0.064065635 -0.00027972425 0.051847063 -0.5848801 -0.025066847 -0.030196995
-0.48641014 0.43881902 -0.4435126 0.23727939 0.044399064 -0.7722374 -0.3328737 0.22802423
0.24331777 0.06492273 -0.19456103 0.06310105 -0.31322452 -0.660143 0.12897725 0.17197146
-0.52810156 0.017641794 -0.2630658 -0.3817141 -0.56582636 -0.47582698 -0.05440879 -0.3734794
-0.05569874 -0.38428122 0.29017904 -0.4328033 0.20453618 0.3674289 -0.5337755 -0.12691998
-0.5694383 -0.01583079 0.17442203 0.24676047 0.5426824 0.39930204 0.20984426 -0.16501047
-0.21295676 0.26708195 -0.23830612 0.30693874 -0.42500684 0.39780033 -0.22587845 0.24463591
0.24575713 -0.52158743 -0.052151445 -0.5060667 -0.49381003 0.023952743 -0.1838188 -0.2607655
0.005062185 -0.4773895 0.028113998 0.105000414 -0.15614693 -0.38166183 -0.15367188 -0.5233987
0.053113844 0.30452794 -0.09562108 -0.17787525 -0.26220968 0.30920488 0.1583423 -0.338542
-0.43497118 0.26903123 -0.62762946 -0.01651679 0.124237135 -0.25610495 -0.23512167 -0.090361655
-0.4774725 -0.3269982 -0.2043832 0.115803085 -0.29203627 -0.1624797 0.04303078 -0.30386856
0.12988217 0.04762216 0.26142192 -0.006739406 -0.12420263 0.26459852 0.15618151 -0.56966656

net.2.weight f4 [2, 128]
00000000: 9b21 e83e ea56 12bf e567 043d 25aa 5fbe
00000010: 62e5 a03d 8ae9 a4bd 23b1 95bd 6bb5 ea3e
00000020: 5984 fd3d e542 d8be c37d 85bc 000d d43e
00000030: 8b22 ac3e f87a b73d 7ac9 bc3c af5c a9bd
00000040: 4b1f 08bd f639 a43d c39c 0f3e 8180 943d
00000050: 7b78 04bd d31c 1dbe 98f6 aebc 92f3 9fbd
00000060: c689 5abe 1fe2 ca3c 0f2d 9cbe 21fd c7be
00000070: 2756 9dbb eab7 03be 8844 ccbd f39b 93be
00000080: ec6b b03d 9554 c63e 5c04 dcbd 4f3c c8be
00000090: 691a 06be 0d20 a63c 9d22 913d 407b b3be
000000a0: c008 1ebe 3af1 da3d 9a94 a3bd f631 24bd
000000b0: 8227 fbbd 221e b83c f85f 0bbc e62d 01be
000000c0: 991a e6bc 7d7a 68be 84dd 113b 0e3c 2d3d
000000d0: ba6a e8bc b5ac 00be 4e03 49be 97fc 0339
000000e0: a22e 80be f27b a6bd 0235 df3e f6ec e4b9
000000f0: 3fdd 6a3e 9409 8c3e ec12 853d c8ea 743d
00000100: b4d5 183d 023d 323d 8d7d 753e 4579 4dbe
00000110: 97fc 033f 21fb 8a3e f73f c2be c361 193e
00000120: 4812 37bd 1ace b43e 6bb4 113d b444 4bbe
00000130: cd26 e73d 7013 0a3f 9502 de3d fa56 9bbe
00000140: 8c16 c8be 57bb acbd 0b93 06bd 666c cb3d
00000150: 576f df3b 9d50 363e 899e 523d 1cde 4a3d
00000160: 6bed d03d 8ba4 ab3d 1090 5cbe 3a3b 413e
00000170: 4b02 1b3d fc39 523c 1e25 9bbd 3b38 1dbd
00000180: e5bc 91be 0e60 f4be 3719 293e 18d2 50be
00000190: bf03 4abd 54d7 5ebe 888a 80be ffe7 773b
000001a0: 7735 36bc 6623 14be 06c7 c0bc 086e c7be
000001b0: aef3 99be b05c 06be 7515 46be fc01 23be
000001c0: b51e 123d 56b4 473d ee70 633d a656 903e
000001d0: 47d5 733e 861e 1e3e 7741 d0be ff24 9d3d
000001e0: 12f4 82bd 2b9a 703e 8b6a d13e 2d06 4d3e
000001f0: 2f4e c13d c9e7 35be 21e4 0b3e 58db d1bc
00000200: 21e7 aebe c8ce 233f 9fb8 c03d 4b9e 3d3e
00000210: 2b35 8ebd e52b df3d b951 bb3d 56ba f1be
00000220: a022 0cbe 6d0c 923e 6985 d63c c90d fbbe
00000230: fd3f b1be 1ac9 4fbe fed4 1cbc 512f 103e
00000240: 69a4 d13b f225 793d 2492 98bd 665f d23c
00000250: fc24 d13c 760c 823e 71f1 883d 180d 00bd
00000260: 9a21 4c3e 3d17 70bc 8abe 9e3e 0daf 903e
00000270: 3cd2 a2bc b7ee bf3c 0a8a ad3c c820 853e
00000280: fbc0 c73c fa05 85be f9a7 af3d 77e9 d33e
00000290: c4e9 0a3e e6d6 62bd e7c8 0ebe cdb5 803e
000002a0: 9c57 273d 8878 e2bd 163e b9bc 746a 483d
000002b0: 4c5a a73d 24d6 11bd e2c9 64bc 6540 733e
000002c0: f5d4 88bd eed1 c53e bec5 c1bc 2b8d a8ba
000002d0: be27 3ebd e920 933d f521 803e e92b f338
000002e0: 996c 5e3e 9cdb 053e 8c37 e6be bd79 a9bd
000002f0: 94b4 a0be 8fd8 4abe 52c8 06bc 0911 b3bc
00000300: 315c 9ebd 9a0b 49be 0636 85be 28a8 3c3e
00000310: 3dd1 bdbe 5522 66be 11c9 903e 8999 d0bd
00000320: aaa7 443e 708a 75be aa7a b2bc 0fa8 9c3e
00000330: 7d7c debc 0d64 febe 332f 0bbe d985 783e
00000340: 302b d73e 6484 99bd df13 b0bb bebe b3bd
00000350: fc30 fbbd 1d0f 4abe 0002 21bd 3270 f1bb
00000360: 9bea 5bbe 3e5d 1c3d 628d 933e f5b2 81be
00000370: 4b42 88bb 7a2d 2ebd 83bf 8ebc 54b3 a9bd
00000380: 7783 b13e 73fd f03e f1cd c9bd 6beb 373e
00000390: 8a69 403c 5c67 a63e 3181 4f3e 64d2 7d3d
000003a0: 6657 a4bd 156c 9a3e a81e 5dbc 5cb9 853e
000003b0: 4f97 563e 2097 d73d 14e9 153e 5bee 923d
000003c0: 96f6 a7bd ad47 6c3d 6051 d9bb 8a55 78be
000003d0: 00b4 66be 1074 79bd 49a4 aa3e 18ad 793d
000003e0: b1a8 9c3d 2fed 19be ef11 e3be 38c1 5ebe
000003f0: ae6e 58be cffe 933e 585c 46be 9376 4abd
0.4533814 -0.5716387 0.032325644 -0.21842249 0.07856251 -0.080523565 -0.07309177 0.45841536
0.12378759 -0.42238536 -0.01629532 0.41416168 0.33620104 0.08959001 0.02304529 -0.08269631
-0.03323297 0.08018868 0.14024644 0.07251073 -0.03234146 -0.15343027 -0.02135782 -0.07810129
-0.21341619 0.024766026 -0.30503127 -0.3906031 -0.00480153 -0.12863126 -0.09974009 -0.28829917
0.086143345 0.38736406 -0.10743019 -0.39108512 -0.13096012 0.020278955 0.0708668 -0.3505497
-0.15433025 0.106905416 -0.07987328 -0.04008671 -0.12263395 0.022475306 -0.008506767 -0.12615165
-0.028088855 -0.22702976 0.0022257278 0.0422936 -0.028371204 -0.12565883 -0.19630167 0.0001258723
-0.25035578 -0.081291094 0.4359513 -0.00043664098 0.22935961 0.27351058 0.0649775 0.059794217
0.03731318 0.043515213 0.23973675 -0.20065792 0.51557297 0.2714472 -0.37939426 0.149787
-0.04469517 0.35313493 0.03557245 -0.19850427 0.112866975 0.5393591 0.10840336 -0.30339795
-0.39079702 -0.0843417 -0.032855075 0.09932785 0.0068186927 0.17804189 0.051420722 0.049528226
0.10201534 0.083809935 -0.2153933 0.1887025 0.037843984 0.012831207 -0.07575439 -0.038383704
-0.28464428 -0.47729534 0.16513525 -0.20392644 -0.04931998 -0.21761829 -0.2510569 0.003782749
-0.011121145 -0.14466628 -0.023532402 -0.38951135 -0.30068725 -0.13121295 -0.19344123 -0.15918726
0.035673816 0.048755966 0.05552762 0.28191108 0.23811828 0.15441331 -0.40674946 0.07673072
-0.06394209 0.2349631 0.40901598 0.20021887 0.094387405 -0.177642 0.13661243 -0.025617287
-0.34160712 0.639874 0.09410214 0.18517415 -0.06943735 0.10897044 0.09146447 -0.47212476
-0.13685083 0.28525105 0.026186662 -0.49033955 -0.34619132 -0.20291558 -0.009572266 0.1408055
0.006397773 0.060827203 -0.07449749 0.025680255 0.02553033 0.25400132 0.06686676 -0.031262487
0.19934693 -0.014653978 0.31004745 0.28258553 -0.019875638 0.023429258 0.021183986 0.26001573
0.024384012 -0.25981122 0.0857696 0.41389057 0.13565737 -0.055380724 -0.13943826 0.25138703
0.040855035 -0.11058146 -0.022612613 0.048929647 0.0817152 -0.03560461 -0.013964148 0.23755033
-0.06681243 0.38636726 -0.023653861 -0.0012859454 -0.04642462 0.071840115 0.25025907 0.00011595322
0.21721114 0.13072056 -0.44964254 -0.08275173 -0.3138777 -0.19809173 -0.008226471 -0.021858709
-0.07732428 -0.19633332 -0.2601778 0.18423522 -0.370737 -0.22474034 0.28278401 -0.101855345
0.19204584 -0.23978591 -0.021787006 0.3059697 -0.02715897 -0.49685708 -0.13592224 0.24269809
0.42025137 -0.07495955 -0.0053734626 -0.087766156 -0.122652024 -0.19732328 -0.039308548 -0.007368111
-0.21476214 0.03817486 0.28818804 -0.25331846 -0.0041582934 -0.04252384 -0.017425304 -0.08286157
0.34670612 0.47068366 -0.09853733 0.17960899 0.0117439125 0.32500732 0.20264126 0.061968222
-0.080244824 0.30160585 -0.013496079 0.2611798 0.20956157 0.10526872 0.14639693 0.07174369
-0.082013294 0.057685543 -0.006632015 -0.2425138 -0.22529602 -0.0609017 0.33328465 0.06095609
0.07649363 -0.15031885 -0.4434962 -0.21753395 -0.21135971 0.2890534 -0.19371164 -0.049429487

net.2.bias f4 [2]
00000000: 5af6 243d fa29 c8bc
0.040274 -0.024434078
