Teaching Content/L4T4 - Pytorch/Digit Classification/digit_model.pth (torch, 831024 bytes, 8 tensors)

conv.0.weight f4 [16, 1, 3, 3]
0	0x3ee58672	0.44829136
1	0x3eff3c73	0.49850807
2	0x3e1a9840	0.15097141
3	0x3e9a6735	0.30156866
4	0x3ea350bd	0.31897536
5	0x3d84f2e4	0.0649164
6	0x3e1b84e2	0.1518741
7	0x3c850e90	0.016242296
8	0xbe4189df	-0.1890025
9	0x3eb6b025	0.35681263
10	0xbe8e85e7	-0.27836534
11	0xbf127568	-0.572104
12	0xbe610204	-0.21973425
13	0xbf355f55	-0.7084859
14	0x3e7e92b9	0.24860658
15	0xbf124284	-0.57132745
16	0x3d318ee0	0.043349147
17	0x3e6ad591	0.22933032
18	0xbefb690a	-0.49103576
19	0x3d9807bf	0.074233525
20	0x3ed58c4d	0.41708604
21	0xbeec19a0	-0.461133
22	0x3e3296b2	0.17440298
23	0x3eaa3a48	0.3324759
24	0x3c57bcb9	0.013167554
25	0xbd153657	-0.036428776
26	0x3e928a18	0.28620982
27	0x3e44786b	0.19186561
28	0x3e7f3502	0.24922565
29	0x3ed0fe2b	0.40818915
30	0xbe6dd6cb	-0.23226468
31	0x3e5427f7	0.2071837
32	0x3c2b3972	0.010450708
33	0x3d08ca9f	0.03339636
34	0xbbec49ed	-0.007210961
35	0x3ec3085b	0.38092312
36	0x3e886928	0.26642728
37	0xbdea22c7	-0.114324145
38	0x3ef32ab8	0.4749353
39	0x3c152421	0.009102852
40	0x3e618e95	0.22027047
41	0x3da6508c	0.08120832
42	0xbf015b7d	-0.50530225
43	0xbe89b81e	-0.26898283
44	0x3eca29cc	0.39485013
45	0x3e7915be	0.243247
46	0x3e45c041	0.1931162
47	0xbea7f4ac	-0.32803857
48	0x3e786f60	0.24261236
49	0x3df6db89	0.12053592
50	0x3ef14e05	0.47129837
51	0xbe9baef8	-0.30406928
52	0x3ef175b8	0.47160125
53	0x3ecbbc03	0.3979188
54	0x3cc2504d	0.023719931
55	0x3ef431a8	0.47694135
56	0xbe10e99d	-0.14151616
57	0xbe47ccb0	-0.19511676
58	0x3e4aa8f0	0.19791007
59	0x3ec37530	0.38175344
60	0xbe9128e3	-0.28351507
61	0xbf0cee73	-0.55051345
62	0xbe11ed9e	-0.142508
63	0xbe821498	-0.25406337
64	0xbe20b259	-0.15693034
65	0x3e563e3e	0.20922181
66	0x3b0ff312	0.002196495
67	0x3e8fce0f	0.28086898
68	0xba54fca8	-0.0008124807
69	0x3ea0a6ca	0.3137725
70	0x3eeeb57f	0.46622846
71	0xbed1a078	-0.4094274
72	0x3e5711e4	0.21002918
73	0xbd542ff2	-0.051803537
74	0x3d9ab1f3	0.07553472
75	0xbf16633f	-0.5874519
76	0xbf00ecbf	-0.50361246
77	0xbec7a6b8	-0.38994384
78	0x3e3e3127	0.18573438
79	0x3e5685c1	0.2094946
80	0xbe836e15	-0.25669923
81	0xbe5cbc55	-0.21556218
82	0x3eb61bb5	0.35568014
83	0x3e927b00	0.28609467
84	0x3ed91e9f	0.42406175
85	0xbe6621ef	-0.22473882
86	0x3da47b5b	0.08031341
87	0xbe31b520	-0.1735425
88	0xbe733291	-0.23749758
89	0xbe8b6aaa	-0.27229816
90	0x3e9c47a7	0.30523416
91	0x3ecb8b7b	0.39754853
92	0x3d89bd71	0.06725586
93	0x3db5e89e	0.08882259
94	0x3edb60a1	0.4284716
95	0x3df36255	0.1188399
96	0x3c55a062	0.0130387265
97	0x3d7d68f0	0.061867654
98	0x3e84446d	0.25833455
99	0x3d75b010	0.05998236
100	0x3e82b82c	0.25531137
101	0x3ef73280	0.48280716
102	0x3e43f397	0.19135891
103	0x3ed6d0ab	0.41956076
104	0x3df6f5de	0.12058614
105	0xbea46866	-0.321109
106	0xbf009d84	-0.5024035
107	0xbe80b965	-0.25141445
108	0x3ee4cc59	0.44687155
109	0x3ed0f141	0.40809062
110	0x3e953447	0.29141447
111	0xbe90747d	-0.28213874
112	0xbe7e71dc	-0.24848121
113	0xbe75a0cf	-0.23987125
114	0xbeb1bf5e	-0.34716314
115	0xbe73a4cd	-0.23793335
116	0xbe7b20c4	-0.24524218
117	0xbd257624	-0.04039587
118	0xbe02e2c4	-0.12781817
119	0x3ea8a06b	0.3293489
120	0x3e7f6202	0.24939731
121	0x3ec99915	0.39374605
122	0x3e8e26d7	0.27764007
123	0x3eb73349	0.35781315
124	0x3e9b7c5c	0.30368316
125	0x3e330554	0.17482501
126	0xbbc02e96	-0.0058649285
127	0x3f022534	0.5083802
128	0x3eeca486	0.4621927
129	0xbd9233c7	-0.07138782
130	0xbe962807	-0.29327413
131	0x3e69bef8	0.22826755
132	0xbf25116f	-0.64479727
133	0xbedfd269	-0.43715218
134	0x3e022565	0.12709577
135	0xbdc74dad	-0.09731612
136	0x3cf5592e	0.02994975
137	0x3eb9c657	0.36284134
138	0x3effd5cc	0.49967802
139	0x3d634590	0.05548626
140	0x3ec9535e	0.39321417
141	0x3e6f1167	0.23346482
142	0xbe4e1214	-0.20124084
143	0xbdeb2e83	-0.11483481

conv.0.bias f4 [16]
0	0xbdbf6b46	-0.09346633
1	0x3e9a964b	0.3019279
2	0xbdb1e9f3	-0.086872004
3	0xbd643780	-0.05571699
4	0xbd853c1d	-0.06505606
5	0xbe306778	-0.1722697
6	0x3e48efa2	0.19622663
7	0xbcaa9952	-0.020825062
8	0x3e9aac48	0.30209565
9	0xbb3e4b0a	-0.0029036426
10	0xbd050376	-0.032474004
11	0xbb327ff7	-0.0027236918
12	0x3e916750	0.28399134
13	0x3d036358	0.032077163
14	0x3df2f38d	0.1186286
15	0xbd559ff9	-0.052154515

conv.3.weight f4 [32, 16, 3, 3]
0	0x3d05886f	0.032600816
1	0x3d6dbb59	0.058039997
2	0x3dfb1788	0.122603476
3	0x3cb0513f	0.021523116
4	0x3cec1fed	0.028823817
5	0x3d42b8d7	0.04753956
6	0xbdbe55a7	-0.09293681
7	0xbd9e10b9	-0.07718033
8	0xbdb2fca6	-0.08739595
9	0xbd0d4e73	-0.034498643
10	0x3bfaebec	0.0076575186
11	0xbda2d69d	-0.079510905
12	0xbd437bab	-0.04772536
13	0xbdea3a81	-0.1143694
14	0x3d9f360f	0.07773983
15	0xbd290c97	-0.041271772
16	0x3cacf91c	0.021114878
17	0x3df4b730	0.11949003
18	0xbd1eb594	-0.038747385
19	0x3d96ced7	0.0736367
20	0x3da07a69	0.07835848
21	0xbe47568f	-0.19466613
22	0xbe2cc6f0	-0.16872764
23	0xbe90ffe0	-0.28320217
24	0xbe3dfd57	-0.18553673
25	0xbe789464	-0.24275357
26	0xbd9f9fa2	-0.077941194
27	0x3ddcf80c	0.10789499
28	0x3d210b7c	0.039317593
29	0x3dbabf2b	0.09118494
30	0x3dc692da	0.096959785
31	0x3b0e992c	0.0021758778
32	0xbc445f62	-0.011985632
33	0xbda67ece	-0.08129655
34	0x3be172bc	0.0068801325
35	0x3c7f54ae	0.015584154
36	0x3d3312af	0.04371899
37	0x3c6e4eaa	0.014545122
38	0x3d28c00a	0.041198768
39	0x3c7b6155	0.01534303
40	0x3df70eeb	0.12063392
41	0xbd064381	-0.03277922
42	0xbe0d399b	-0.13791506
43	0xbde6ccb0	-0.1126951
44	0xbd6e7c4c	-0.058224007
45	0x3d94eb51	0.072714455
46	0x3ce4ccfe	0.02792978
47	0x3de10094	0.109864384
48	0xbd4de1d9	-0.050264213
49	0xbd6db683	-0.058035385
50	0xbe36cf60	-0.17852545
51	0x3c1654c9	0.009175488
52	0xbd15b841	-0.03655267
53	0x3d14c18a	0.036317386
54	0xbddf6d1c	-0.10909483
55	0xbe125709	-0.14291014
56	0xbdd3e9b3	-0.10347309
57	0x3dea57ff	0.11442565
58	0x3d68ebeb	0.056865614
59	0xbdd89ce5	-0.105768
60	0xbba27b62	-0.004958556
61	0xbd146e4f	-0.03623801
62	0xbe15df50	-0.14635968
63	0x3df1744f	0.11789762
64	0x3e1bd299	0.15217055
65	0x3d4a8b81	0.049449448
66	0xbae59e1c	-0.0017518434
67	0xbe0832d9	-0.13300647
68	0xbdd3b296	-0.10336797
69	0xbe0fa92d	-0.14029379
70	0xbdcab76f	-0.098982684
71	0xbd23cade	-0.03998839
72	0xbd9423c4	-0.07233384
73	0xbd6f862a	-0.05847756
74	0xbe12f474	-0.14351064
75	0xbb0316a0	-0.00200025
76	0xbc0f6299	-0.008751535
77	0xbd0fa1a7	-0.035066273
78	0xbd056e12	-0.032575674
79	0x3d3588e0	0.044319987
80	0xbdc042e1	-0.09387756
81	0x3cadc90c	0.02121403
82	0x3d12a701	0.0358038
83	0x3d99952c	0.074991554
84	0x3d5e79e2	0.054315455
85	0x3e1c6efb	0.1527671
86	0x3d6bed54	0.05759938
87	0xbcc0b410	-0.02352336
88	0xbda307d4	-0.079604775
89	0xbeb36e9c	-0.35045326
90	0x3da67211	0.08127225
91	0x3db73cd5	0.0894715
92	0x3d97cfd2	0.074126855
93	0x3d8173dc	0.063209265
94	0x3e0c59a1	0.13706066
95	0xbd5de71c	-0.05417548
96	0xbe2b4ea2	-0.16729215
97	0xbdc99c5a	-0.09844275
98	0xbdc39f2b	-0.09551843
99	0xbcaeb44b	-0.021326205
100	0x3dca5499	0.09879417
101	0x3e07494a	0.13211551
102	0x3e205ed5	0.15661176
103	0x3d17586f	0.03694957
104	0x3d365417	0.044513788
105	0xbd0374e6	-0.032093905
106	0xbd5b2739	-0.053504203
107	0xbe44fb31	-0.19236447
108	0x3c8160e2	0.015793268
109	0xbd1cd2c1	-0.038286928
110	0xbc5f9ae8	-0.013647772
111	0x3e07dc7f	0.13267706
112	0x3d187ede	0.037230365
113	0x3d0a9032	0.03382892
114	0x3c96b94c	0.018398903
115	0x3c8111d9	0.01575558
116	0x3cb2b37e	0.021814104
117	0x3dfc72b8	0.12326568
118	0x3d988b76	0.07448475
119	0x3e09e606	0.13466653
120	0x3d8b3828	0.0679782
121	0xbde10a36	-0.10988276
122	0xbde7e8a4	-0.113236696
123	0xbe0799d5	-0.13242276
124	0xbddb86e6	-0.10719089
125	0xbd5c4048	-0.05377224
126	0x3b87b971	0.0041419794
127	0xbc85c2dc	-0.016328268
128	0xbd7dcb3e	-0.061961405
129	0xbbad281a	-0.0052843215
130	0x3daa17d6	0.083053276
131	0xbb83ad3e	-0.004018455
132	0xbd9b3003	-0.07577517
133	0xbda25262	-0.079258695
134	0xbe3f5d16	-0.18687853
135	0x3dd265b3	0.10273304
136	0x3e289bec	0.1646573
137	0x3e3ad2c6	0.18244466
138	0x3c86298e	0.016377237
139	0x3d952ee5	0.07284335
140	0xbc628a7c	-0.013826963
141	0xbe34e9f8	-0.17667377
142	0xbddd01f0	-0.10791385
143	0xbda99d9e	-0.08282016
144	0xbde07803	-0.109603904
145	0x3df3de72	0.119076625
146	0xbda6aa26	-0.08137922
147	0x3cb27084	0.021782167
148	0xbcaedb4b	-0.021344801
149	0xbb036aa1	-0.002005257
150	0x3b9a31ce	0.004705644
151	0x3dd9b7f7	0.10630792
152	0x3d87ecdf	0.066369765
153	0xbd2be4d9	-0.041966293
154	0xbdbca20e	-0.09210597
155	0x3ccc0f5d	0.02490967
156	0xbc8d3f13	-0.01724199
157	0xbdc5c01a	-0.09655781
158	0xbcf7a7f9	-0.030231463
159	0xbaf49e9a	-0.001866299
160	0xbd1c6378	-0.0381808
161	0xbdc89967	-0.09794884
162	0x3dc81db9	0.09771294
163	0x3d1e715e	0.038682334
164	0xbc7a9cd7	-0.015296183
165	0x3d7814a4	0.06056656
166	0xbd578d3c	-0.052624926
167	0xbd54e9d0	-0.051980793
168	0x3e20f2fa	0.15717688
169	0x3cccb6c3	0.024989491
170	0xbd7145ce	-0.05890446
171	0xbd89a792	-0.067214146
172	0x3da8ab3b	0.082357846
173	0xbd79bd7d	-0.060971726
174	0x3b68c83f	0.0035519747
175	0x3d07bb02	0.03313733
176	0xbd306921	-0.04306901
177	0xbd0ac0c1	-0.03387523
178	0xbd38d0cf	-0.04512101
179	0x3ce7b57a	0.028284777
180	0xbd5df047	-0.054184224
181	0xbde99b2e	-0.11406551
182	0xbd9c5424	-0.07633236
183	0x3d49b943	0.049248945
184	0xbe07f91f	-0.13278626
185	0x3bedb7df	0.007254585
186	0xbda1506e	-0.07876669
187	0xbd117ea5	-0.03552117
188	0x3e0322ff	0.12806319
189	0xbd884be7	-0.06655102
190	0xbcee1d41	-0.029066684
191	0x3d908ae9	0.07057745
192	0xbc87120d	-0.0164881
193	0x3d5836c4	0.052786604
194	0x3e03571b	0.12826197
195	0x3d865670	0.065594554
196	0xbd42e463	-0.047581088
197	0xbe349cd1	-0.17637946
198	0xbd3b5816	-0.045738302
199	0xbc0aad62	-0.008464189
200	0x3d815921	0.06315828
201	0x3c840c96	0.016119283
202	0xbdadc4a9	-0.084847756
203	0xbd981983	-0.07426741
204	0xbe2565d2	-0.16152123
205	0xbc1565a5	-0.009118472
206	0x3dab2c7b	0.08358093
207	0x3d985c76	0.074395105
208	0x3d4c9372	0.049945302
209	0xbd741e02	-0.05959893
210	0x3cef3603	0.02920056
211	0x3d0f9a10	0.035059035
212	0xbc31136e	-0.010807855
213	0x3db15a66	0.0865982
214	0x3d3d26c8	0.046179563
215	0xbca76b8f	-0.02043703
216	0x3c66e0e2	0.014091702
217	0xbd3b428c	-0.04571776
218	0x3ca6c878	0.020359263
219	0xbda625dd	-0.081126906
220	0xbddfb061	-0.109223135
221	0xbc4dfe2a	-0.0125728045
222	0xbe176eaf	-0.14788316
223	0x3c594ea3	0.013263377
224	0x3cc0d127	0.023537232
225	0xbe1fc9e2	-0.15604356
226	0xbd6d2e87	-0.0579057
227	0xbe537085	-0.20648392
228	0x3ca86cbd	0.020559663
229	0x3cbedafe	0.023297783
230	0x3d768327	0.06018367
231	0x3d4cbe80	0.049986362
232	0x3e3d1e74	0.18468648
233	0x3e6eb6a9	0.23311867
234	0x3c5461b4	0.012962747
235	0x3d7fe04f	0.062469777
236	0xbb821516	-0.003969799
237	0xbd81c3c9	-0.06336171
238	0x3d653eef	0.05596822
239	0xbd80833e	-0.062750325
240	0x3d5b20c8	0.05349806
241	0x3cdbfa41	0.026852729
242	0xbd500933	-0.050790023
243	0x3cd68661	0.026187124
244	0x3b202f8b	0.00244424
245	0xbe27d03a	-0.16388026
246	0xbd37e24c	-0.044893548
247	0x3bef9869	0.00731187
248	0x3d5a811d	0.05334579
249	0xbd9437b0	-0.07237184
250	0x3c81deba	0.015853275
251	0x3de5a755	0.11213557
252	0xbe5308ac	-0.20608777
253	0xbdba84b2	-0.09107341
254	0xbd93e063	-0.07220533
255	0x3bdee9ba	0.0068027647

conv.3.bias f4 [32]
0	0x3cd0efe9	0.025505023
1	0xbc4dcb9c	-0.012560751
2	0xbc95486e	-0.018223014
3	0xbdb00ebe	-0.08596562
4	0xbd4e35a2	-0.050344117
5	0xbd161703	-0.03664304
6	0x3d41b8c5	0.04729535
7	0x3ab306ae	0.0013658607
8	0x3c1e1e5b	0.009650792
9	0xbd4b8bb6	-0.049693786
10	0x3d51bb30	0.051203907
11	0xbd9121ac	-0.070865005
12	0x3ccecee0	0.02524513
13	0xbcd38d0c	-0.025824092
14	0xbd216108	-0.039399177
15	0xbcdf6fcf	-0.027274994
16	0xbdaf7b8e	-0.08568488
17	0xbdae47ff	-0.08509826
18	0xbdbc76db	-0.092023574
19	0x3d3a810a	0.045533217
20	0xbdfb654e	-0.12275182
21	0x3b412c1f	0.002947576
22	0xbc80cacf	-0.015721707
23	0x3d3c1b75	0.045924623
24	0xbc859b93	-0.016309535
25	0xbcdd4733	-0.02701149
26	0xbd8e208c	-0.069398016
27	0xbde4fbe3	-0.11180856
28	0x3d657fec	0.0560302
29	0xbdd006dd	-0.10157559
30	0x3ca96375	0.020677308
31	0xbc02d891	-0.007986204

fc.0.weight f4 [128, 1568]
0	0x3acd142d	0.0015646272
1	0x3d0e2f8a	0.034713306
2	0x3c191d42	0.0093453545
3	0x3cc81052	0.024421845
4	0x3d450251	0.048097912
5	0x3ca2edb0	0.019888729
6	0x3c2d0482	0.010560157
7	0xbc5d7388	-0.013516314
8	0xbd5b829b	-0.053591352
9	0xbc9c0de8	-0.0190496
10	0x3d67d4d2	0.056599446
11	0x3d745e63	0.059660327
12	0x3d28889e	0.041145913
13	0x3d3246ec	0.043524668
14	0xbc70f2d5	-0.014706333
15	0xbdc11683	-0.09428122
16	0xbd627754	-0.05528958
17	0x3d0e315d	0.034715045
18	0x3bbb95c1	0.005724639
19	0x3b90f14c	0.004423296
20	0xbc9db42e	-0.019250955
21	0xba94bd7f	-0.0011347978
22	0x3b956fc2	0.0045604417
23	0x3c8a89b4	0.016911365
24	0x3c65a812	0.014017122
25	0xbda3c1af	-0.079959266
26	0xbd48837f	-0.04895353
27	0xbcbad2ab	-0.022805532
28	0x3d6958d1	0.056969468
29	0x3d3c3839	0.045952056
30	0xbd02f322	-0.03197015
31	0xbd369352	-0.04457409
32	0x3c0ecd0b	0.008715878
33	0x3da6f144	0.081514865
34	0x3c8b8cd7	0.017034931
35	0x3c84206f	0.016128747
36	0xbb3f9a47	-0.0029236244
37	0x3caf0879	0.021366345
38	0xbc93bcc4	-0.018034346
39	0x3c071044	0.008243624
40	0x3ce05405	0.027383814
41	0x3c56360c	0.013074409
42	0x3d02d794	0.031943873
43	0xbd069b58	-0.03286299
44	0xbc6d21a9	-0.014473357
45	0xbcff2de6	-0.031149816
46	0x3b4a2421	0.0030844288
47	0x3c2a07e6	0.01037786
48	0x3c1f17e0	0.009710282
49	0x3cc5f0b6	0.024162631
50	0x3cdcc627	0.026949955
51	0x39dfb873	0.000426713
52	0x3d17c16e	0.037049703
53	0xbcc477cf	-0.02398291
54	0x3c17db70	0.009268627
55	0xbb3dc345	-0.00289555
56	0xbb9bebdb	-0.004758341
57	0xbcd198b0	-0.025585502
58	0xbcdb3a13	-0.02676109
59	0xbd2774dc	-0.04088293
60	0xbd251368	-0.04030171
61	0xbc34cdd0	-0.011035398
62	0xba0f1956	-0.00054587924
63	0xbcff6b81	-0.031179192
64	0xbb2457b4	-0.002507669
65	0x3c45a3e1	0.012062998
66	0xbcb0891c	-0.021549754
67	0xbc97c274	-0.01852534
68	0xbcb2f012	-0.02184299
69	0xbaf00207	-0.0018311151
70	0x3cb49b34	0.022046663
71	0x3db3c375	0.08777515
72	0x3dd1cf6f	0.10244643
73	0xbb5420d9	-0.0032368212
74	0x3d1b0ded	0.037855078
75	0x3aed3df2	0.0018100126
76	0x3c981184	0.01856304
77	0xbd1b3de9	-0.03790084
78	0xbbc65dfa	-0.0060536833
79	0xbb6f0795	-0.0036473025
80	0xb94809a0	-0.00019077072
81	0x3d2539ce	0.04033833
82	0x3c372b67	0.0111797815
83	0x3a834e03	0.0010017756
84	0x3d166d32	0.03672523
85	0xbccb00cc	-0.024780653
86	0x3caa9f92	0.020828042
87	0xb8a9e2de	-8.100805e-05
88	0x3cda8bd6	0.026678007
89	0x3a63863b	0.00086793647
90	0x3c534fbb	0.012897427
91	0xbc60bf4a	-0.013717482
92	0xbd615ecc	-0.055022046
93	0xbd1f9cef	-0.038968023
94	0x3bef0576	0.007294352
95	0xbcbd7e5b	-0.02313154
96	0xbc9a445c	-0.018831424
97	0x3ccd49a4	0.025059529
98	0xbc0cc78e	-0.008592499
99	0xb6d6a6b0	-6.397102e-06
100	0x3ba462c1	0.005016655
101	0x3cecf04e	0.02892318
102	0xbd12c109	-0.035828624
103	0x3d10eb72	0.03538079
104	0x3c92d0db	0.017921856
105	0xbd1b29d6	-0.037881695
106	0xbcda3ba3	-0.026639765
107	0xbc2134a8	-0.009839214
108	0x3d89c02e	0.067261085
109	0x3d90d15e	0.070711836
110	0x3daa50db	0.08316203
111	0x3d54f082	0.05198718
112	0xbba09231	-0.00490024
113	0xbd7c4b4f	-0.061595257
114	0xbd1e372e	-0.038626842
115	0x3d005c12	0.031337805
116	0x3d828da9	0.06374676
117	0x3d50d03f	0.05097985
118	0x3b500900	0.0031743646
119	0xbaea55bb	-0.0017878333
120	0xbc6d472f	-0.0144823035
121	0x3d513e11	0.05108458
122	0x3cee184c	0.02906432
123	0xbd43b276	-0.047777615
124	0x3c1a1cd2	0.009406285
125	0x3b87f6d5	0.0041492977
126	0x3d03d8f6	0.032189332
127	0x3c776897	0.01510062
128	0xbd9a0e16	-0.07522218
129	0xbd8794b9	-0.066201635
130	0x3c123b10	0.008925214
131	0x3daf6028	0.08563262
132	0x3c8a24f4	0.016863324
133	0xbc49f60a	-0.012326727
134	0xbd534d22	-0.05158723
135	0xba80aec7	-0.0009817713
136	0x3ac70755	0.001518468
137	0xbb98f260	-0.004667565
138	0x3ac46bba	0.0014985718
139	0xbb42874a	-0.002968269
140	0x3cc44a14	0.023961104
141	0x3be0a038	0.006855037
142	0xbd263f9e	-0.040588014
143	0xbc0588c0	-0.0081502795
144	0xbb2b39a7	-0.0026126893
145	0xbcb43618	-0.02199845
146	0xbcbc7f94	-0.023010053
147	0xbd11e96f	-0.03562301
148	0xbc2c32c3	-0.010510149
149	0x3d4e9b3c	0.05044101
150	0x3ccbbe07	0.024870886
151	0x3da45e72	0.080258265
152	0x3d3cbeae	0.046080284
153	0x3d157703	0.03649045
154	0xbcda5be1	-0.02665514
155	0xbca39fc9	-0.019973652
156	0xbbbeb520	-0.0058199316
157	0xbb817ae3	-0.003951417
158	0x3d28958d	0.041158248
159	0x38a1169e	7.681291e-05
160	0x3cd649ed	0.026158297
161	0xbca466c5	-0.020068536
162	0x3d8c4d20	0.06850648
163	0x3a5e1965	0.0008472412
164	0xbd4409e5	-0.047861
165	0x3d30d12f	0.043168243
166	0x3d33fd71	0.043942872
167	0x3cde5c3b	0.027143588
168	0xbc319379	-0.010838383
169	0x3d95ff83	0.073241256
170	0x3d716062	0.05892981
171	0xbbb0a5b4	-0.005390847
172	0x3d6b07dc	0.057380542
173	0xbc7c1efc	-0.015388247
174	0x3c5638ba	0.013075048
175	0xbcc5bd5d	-0.024138147
176	0xbd871840	-0.06596422
177	0x3d7775a5	0.06041493
178	0xbced4b7d	-0.02896666
179	0x3c4f8f0a	0.0126683805
180	0x3ca5143f	0.020151256
181	0xbc8bd1c5	-0.0170678
182	0xbcc42ff9	-0.023948656
183	0xbd29d316	-0.041461073
184	0x3d00f0f1	0.03147978
185	0x3c367346	0.011135882
186	0x3ccb4e75	0.024817685
187	0x3d34b2e7	0.044115927
188	0x3c939235	0.018014053
189	0x3cb8fc9d	0.022581393
190	0xbd23a5bf	-0.03995299
191	0xbcf51d11	-0.029921087
192	0xbd3e3850	-0.046440423
193	0x3b879659	0.004137796
194	0xbd186753	-0.037207913
195	0xbd0da305	-0.034579296
196	0x3c6ed208	0.014576443
197	0xbd406d32	-0.046979137
198	0x3d676606	0.05649378
199	0xbd70e3a7	-0.058810856
200	0xbb0fd141	-0.0021944793
201	0xbd3884b4	-0.04504843
202	0xbae6e186	-0.0017614819
203	0xbc9e0ef8	-0.019294247
204	0x3d721b8c	0.059108302
205	0xbc03fb57	-0.00805553
206	0xbc999988	-0.018749967
207	0x3d6f8024	0.058471814
208	0x3d618d76	0.05506655
209	0x3e050bc0	0.12992764
210	0xbc50bdd4	-0.012740571
211	0x3ce28de4	0.02765555
212	0x3cee178c	0.029063962
213	0xbd8691d7	-0.065707855
214	0xbd2d54db	-0.042317253
215	0x3d5bb91c	0.05364333
216	0xbd5b067a	-0.053472973
217	0x3d0d87b4	0.034553245
218	0x3d38b82c	0.045097515
219	0x3b6f526e	0.0036517638
220	0xbd2d30e4	-0.042282954
221	0x3d64d39e	0.055865876
222	0x3db198b2	0.086717024
223	0xbc5735c0	-0.013135374
224	0x3c023adf	0.007948606
225	0x3d7e2b2e	0.062052898
226	0x3d3712a4	0.04469551
227	0x3d2efa59	0.04271922
228	0x3cd97aba	0.026547778
229	0x3da9858d	0.08277426
230	0x3b747f20	0.0037307218
231	0xbc8f2c6e	-0.01747724
232	0xbbbf3ed2	-0.005836346
233	0xbc3566fe	-0.0110719185
234	0xbd21ca05	-0.0394993
235	0x3977358f	0.00023575708
236	0xbd433f96	-0.047668062
237	0x3c2f5067	0.010700322
238	0xbcf64390	-0.030061513
239	0xbcdc349b	-0.026880553
240	0xbd9b8381	-0.07593442
241	0xbcbe1eaf	-0.02320799
242	0xbd71976b	-0.058982294
243	0x3d36b23b	0.044603568
244	0x3c6fb66a	0.014630893
245	0xba5dfc89	-0.00084681116
246	0x3ceb1847	0.0286981
247	0x3d72aa63	0.059244525
248	0x3c86c6d7	0.016452236
249	0xbd2b1caf	-0.0417754
250	0xbd747793	-0.059684347
251	0xbcae2d53	-0.021261847
252	0x3c4bf37d	0.012448189
253	0xbc4c6bee	-0.012476904
254	0xbd78e521	-0.06076539
255	0xbc91adea	-0.017783124

fc.0.bias f4 [128]
0	0x3ce30179	0.027710663
1	0xbc80c6f9	-0.015719878
2	0x3b93edb4	0.0045144204
3	0x3c9b969b	0.018992713
4	0x3c8f90c4	0.017525084
5	0x3c289413	0.01028921
6	0xbb883960	-0.0041572303
7	0xbccc8182	-0.024964098
8	0x3ce6ccfb	0.028173914
9	0xbb77c0c4	-0.0037804106
10	0x3d107d61	0.03527582
11	0xbcd0ef23	-0.025504654
12	0x3c4c40dc	0.012466636
13	0x3d1dd0ce	0.03852921
14	0xbc7563ea	-0.014977435
15	0xbcbfa10b	-0.023392221
16	0xbcd9cbb5	-0.026586393
17	0x3d2a0c43	0.0415156
18	0x3c50c1b8	0.012741499
19	0x3caff489	0.021478908
20	0xbc940162	-0.018067066
21	0xbbd4e2d8	-0.0064967684
22	0x3d0e7921	0.034783486
23	0x3c05b42a	0.00816063
24	0xbb1e2755	-0.002413233
25	0x3c7ff3a6	0.015622055
26	0xbcb163dd	-0.021654064
27	0x3c810b84	0.015752561
28	0xbca62347	-0.020280493
29	0x3c5126a8	0.012765564
30	0xbb4b397b	-0.0031009603
31	0x3c312050	0.010810927
32	0xbc3c51b6	-0.011494091
33	0xbc5dca2f	-0.013536974
34	0x3b54113e	0.003235891
35	0x3d4f6c64	0.05064048
36	0xbc43736f	-0.011929377
37	0xbc1231fe	-0.008923052
38	0xbcf010b7	-0.029304845
39	0xbcd19b90	-0.025586873
40	0xbacb0591	-0.001548933
41	0x3ad7c648	0.0016462291
42	0xbcbb80c4	-0.022888549
43	0x3c8c182f	0.017101375
44	0xbc729d04	-0.014807943
45	0x3cbd6213	0.023118054
46	0x3cae5a07	0.021283163
47	0xbc076366	-0.0082634445
48	0xbcd22f6c	-0.025657378
49	0x3c27268e	0.010202063
50	0xbb5efcb6	-0.003402514
51	0x3c88678c	0.016650937
52	0x3cee93c5	0.029123196
53	0x3ced3b4d	0.02895894
54	0x3ca06ddc	0.019583635
55	0xbc0feeeb	-0.00878499
56	0x3c49c491	0.0123149315
57	0x3d016d7f	0.031598564
58	0x3c8282b1	0.01593146
59	0xbd39d604	-0.045370117
60	0x3cd0b55c	0.025477104
61	0x3becdf69	0.007228781
62	0xbcbb4cf9	-0.022863852
63	0x3c24f784	0.010068778
64	0x3cebddfc	0.028792374
65	0x3c74381e	0.0149059575
66	0x3a9a5a51	0.0011776184
67	0xbbc98e7d	-0.006151019
68	0x3cd2ae70	0.025717944
69	0xbc18d4bc	-0.009328064
70	0xbc882995	-0.01662139
71	0x3cf35657	0.029704256
72	0x3b0def08	0.0021657366
73	0xbc9bd92a	-0.01902445
74	0x3cf82e64	0.030295558
75	0x3d3555e6	0.044271372
76	0xbb2ef323	-0.0026695214
77	0xbc08749d	-0.008328584
78	0xbc8f4787	-0.017490162
79	0xbbea1cd5	-0.0071445503
80	0x3c3e2d07	0.011607415
81	0x3c87246a	0.016496856
82	0xbd058ce1	-0.032605056
83	0xbbe056e2	-0.0068462947
84	0xbcbfc9ad	-0.023411596
85	0xbb9fe994	-0.0048801396
86	0x3ceed9d8	0.02915661
87	0xbd39c87d	-0.045357216
88	0x3caa0a24	0.020756789
89	0x3d4a10ae	0.049332313
90	0xbcd272c0	-0.025689483
91	0xbc17fd76	-0.009276738
92	0xbc7cceb4	-0.015430141
93	0x3d061f08	0.032744437
94	0xbcdc47bf	-0.02688968
95	0x3d2bc3d3	0.0419348
96	0xbc02b518	-0.007977746
97	0x3c0eab9f	0.00870791
98	0x3b9f1932	0.0048552984
99	0x3ce5da94	0.028058328
100	0x3c802222	0.015641276
101	0x3c2b0aca	0.010439584
102	0xbcf45185	-0.029824028
103	0xbc7a06de	-0.015260426
104	0x3c0412c3	0.008061114
105	0xbc88c57c	-0.01669573
106	0xbae17ade	-0.0017202755
107	0xbc4a8373	-0.0123604415
108	0xbcddf3fe	-0.027093884
109	0xbcf717a2	-0.030162636
110	0x3a329e33	0.00068137347
111	0xbced681c	-0.028980307
112	0x3d1907ba	0.037360884
113	0xbd22bbe5	-0.03972997
114	0xbcd087f5	-0.025455454
115	0xbc1f3b81	-0.009718777
116	0x3bc62fbd	0.0060481713
117	0xbc07d780	-0.008291125
118	0xbbf8f804	-0.007597925
119	0x3d2e135f	0.042498942
120	0x3cfc7850	0.030819088
121	0xbcbc878b	-0.02301385
122	0x3abe633c	0.0014525424
123	0x3d00c73d	0.03144001
124	0x3c851701	0.01624632
125	0x3d391e30	0.045194805
126	0xbc867545	-0.01641334
127	0x3d1238bc	0.035698637

fc.2.weight f4 [10, 128]
0	0x3d217b0b	0.039423984
1	0x3c933563	0.017969793
2	0x3d2e9a0e	0.042627387
3	0x3d315120	0.043290257
4	0xbdfbc21b	-0.12292882
5	0xbdaccd31	-0.08437575
6	0x3b85df66	0.004085469
7	0x3d973810	0.0738374
8	0x3db543e3	0.08850839
9	0x3d9f269e	0.077710375
10	0xbcc9ecd2	-0.024649058
11	0x3cdfa445	0.02730001
12	0xbda4f0db	-0.08053752
13	0x3d28e6f4	0.04123588
14	0x3d783299	0.06059513
15	0x3c80f1a3	0.015740221
16	0x3d29c073	0.0414433
17	0x3de28fad	0.1106256
18	0x3cb2a46d	0.02180692
19	0xbdfb4b22	-0.1227019
20	0x3bd4893d	0.0064860866
21	0xbd25eddd	-0.040510047
22	0xbcd0d252	-0.025490914
23	0x3d992491	0.074776776
24	0x3d61ce9a	0.05512867
25	0xbd2ec801	-0.042671207
26	0xbd966acc	-0.07344589
27	0x3d686acb	0.05674247
28	0x3d01ef47	0.031722333
29	0xbd6258c4	-0.055260435
30	0xbd9f94c4	-0.07792047
31	0x3da9ccb8	0.08291
32	0xbe2c2c22	-0.1681371
33	0xbd480797	-0.048835363
34	0x3863fced	5.4356573e-05
35	0x3db1d69d	0.08683512
36	0xbdf19564	-0.11796072
37	0xbdae68b5	-0.08516065
38	0xbd82765c	-0.063702315
39	0x3d0e79df	0.034784194
40	0xbd2640d2	-0.04058916
41	0xbc59604a	-0.013267586
42	0xbe4599ca	-0.19296947
43	0x3df88021	0.12133814
44	0xbd9312bb	-0.07181307
45	0x3cbfbe6f	0.023406236
46	0x3da688c4	0.08131555
47	0x3d1afe70	0.037840307
48	0xbd8860e9	-0.06659109
49	0xbd70e5f1	-0.05881304
50	0x3de8225e	0.1133468
51	0x3d0a1cf3	0.033719014
52	0x3d9f30de	0.077729926
53	0x3d241ea9	0.040068302
54	0xbe08253d	-0.13295455
55	0xbd5b90a2	-0.05360473
56	0x3d5e097a	0.054208256
57	0x3d4eb407	0.050464656
58	0xbe195e67	-0.14977418
59	0xbe365dc3	-0.17809205
60	0xbd9d0fef	-0.07669055
61	0x3b51d4bc	0.0032017669
62	0x3d95581f	0.072921984
63	0x3ccc6680	0.02495122
64	0xbd855d83	-0.065119766
65	0xbcccb94a	-0.024990696
66	0x3d561b52	0.05227215
67	0x3c76518e	0.015034093
68	0xbddeb98a	-0.108752325
69	0xbca5c16d	-0.020233834
70	0x3d511e6c	0.051054403
71	0x3dc073ff	0.093971245
72	0xbe0e2ad7	-0.1388353
73	0xbd8d0803	-0.06886294
74	0x3dada345	0.08478407
75	0xbc14992f	-0.009069725
76	0x3d183ea2	0.037169106
77	0xbcbba5dd	-0.022906238
78	0x3d494217	0.049135294
79	0xbb124041	-0.002231613
80	0x3d705275	0.058672387
81	0x3de8e879	0.11372466
82	0x3c736f4b	0.014858077
83	0x3e105bdf	0.14097546
84	0x3d8ad139	0.06778187
85	0x3d1220d3	0.035675835
86	0x3d4631b3	0.04838724
87	0xbd101b4f	-0.035182294
88	0x3dbc155c	0.091837615
89	0xbce33457	-0.027734919
90	0xbdbe5d4e	-0.0929514
91	0x3e122d45	0.14275081
92	0xbd6b9142	-0.057511576
93	0xbe13daa6	-0.14438877
94	0x3c0c686f	0.008569821
95	0x3c217664	0.009854887
96	0xbd38d55f	-0.04512536
97	0xbca0bb3b	-0.019620528
98	0xbe1bfcc1	-0.15233137
99	0x3d8a78e3	0.067613386
100	0xbdb1523b	-0.08658262
101	0x3ce5e7c4	0.028064616
102	0x3d8e5943	0.06950619
103	0xbd983665	-0.0743225
104	0xbda82625	-0.082104005
105	0x3d861031	0.06546057
106	0xbd65d789	-0.056113753
107	0x3cf9e9ab	0.03050693
108	0xbd9e8053	-0.0773932
109	0xbd6c041a	-0.0576211
110	0xbd367a5b	-0.04455028
111	0xbc8c141f	-0.017099438
112	0x3c110104	0.00885034
113	0xbd609239	-0.05482695
114	0x3ce0dc3d	0.027448768
115	0x3c738037	0.014862112
116	0xbd1c04d3	-0.03809054
117	0xbdebbea3	-0.115109704
118	0x3b5de68b	0.0033859338
119	0xbdd6bc52	-0.10485138
120	0x3cc0cb2e	0.023534384
121	0xbe35ce56	-0.17754492
122	0x3dbe5048	0.09292656
123	0xbd8021fc	-0.06256482
124	0xbd694de5	-0.05695905
125	0x3d23b14f	0.039964017
126	0x3cde48bc	0.027134292
127	0x3d107747	0.03527
128	0xbdf349ec	-0.11879334
129	0xbcef42c5	-0.029206643
130	0x3d80f9ec	0.06297669
131	0x3d9074c6	0.07053523
132	0x3dc9ad79	0.098475404
133	0x3e2553fa	0.16145316
134	0xbda14ef9	-0.07876391
135	0x3d26da28	0.040735394
136	0xbe19e5dd	-0.15029092
137	0xbe20405b	-0.1564955
138	0x3d7b390e	0.06133371
139	0x3d2520ac	0.04031436
140	0xbc0ab518	-0.008466028
141	0x3cd8a329	0.026444988
142	0xbc518ef6	-0.012790432
143	0xbd714d98	-0.05891189
144	0x3db5d527	0.08878546
145	0x3d271e00	0.040800095
146	0xbbaa62a5	-0.0051997476
147	0x3df2ed5f	0.11861681
148	0x3bab40c6	0.0052262275
149	0xbd9656ca	-0.073407724
150	0xbd3971f8	-0.045274705
151	0xbcb1bd39	-0.021696674
152	0xbcfd0a9f	-0.030888854
153	0xbd0023d8	-0.031284183
154	0x3cfd08a6	0.030887913
155	0x3d771d6b	0.06033079
156	0xbcd3f9df	-0.025875984
157	0xbce94665	-0.02847595
158	0xbc04e812	-0.0081119705
159	0xbdcfca60	-0.10146022
160	0x3df9329b	0.12167855
161	0x3bf74f89	0.007547323
162	0xbc9b9a9b	-0.01899462
163	0xbbb4405f	-0.0055008377
164	0xbd30276f	-0.043006357
165	0xbdc3cddd	-0.0956075
166	0x3b07d1e4	0.002072447
167	0xbdf931e8	-0.12167722
168	0x3d632cfc	0.055462822
169	0xbd8ef440	-0.06980181
170	0x3d8ab83e	0.06773423
171	0x3dc98c00	0.09841156
172	0x3db3c532	0.087778464
173	0x3e00d417	0.12580906
174	0x3dbc149a	0.09183617
175	0xbe4ba110	-0.19885659
176	0xbdaf570d	-0.085615255
177	0xbd160f26	-0.03663554
178	0x386cc444	5.644957e-05
179	0xbddb6213	-0.107120655
180	0x3d46a44a	0.048496522
181	0x3dff9487	0.12479501
182	0xbe40b8d8	-0.18820512
183	0x3d2204d4	0.039555386
184	0xbce3bc91	-0.027799876
185	0x3dfdce73	0.12392893
186	0x3d4b1ec2	0.04958988
187	0x3c5743c1	0.013138712
188	0x3d8dd953	0.06926217
189	0x3d4b0b72	0.049571462
190	0xbdbd72e1	-0.09250427
191	0x3cbec92f	0.023289291
192	0xbd06fc41	-0.03295541
193	0x3cb9633f	0.022630332
194	0x3db5b179	0.08871741
195	0x3c371ee4	0.0111767985
196	0x3d7eb013	0.062179636
197	0x3d993e32	0.07482566
198	0xbce5cb6d	-0.028051103
199	0xbe231571	-0.15926148
200	0xbdd89658	-0.10575551
201	0x3c558c6a	0.013033966
202	0x3e1e01f8	0.15430439
203	0x3d2972a0	0.04136908
204	0xbda8dc2b	-0.08245119
205	0xbcf2384d	-0.029567862
206	0x392c7539	0.00016446867
207	0x3d936bf8	0.07198328
208	0xbc39295c	-0.011301365
209	0x3df68aa1	0.1203816
210	0xbd6bc345	-0.05755927
211	0x3d45cfa5	0.04829373
212	0xbda6c0ab	-0.08142217
213	0xbda85784	-0.08219817
214	0xbd1a44e8	-0.03766337
215	0xbd194516	-0.0374194
216	0xbe3189bb	-0.17337696
217	0x3dfebac2	0.12437965
218	0xbc4ee376	-0.012627473
219	0x3df8ed7d	0.12154672
220	0xbd928208	-0.07153708
221	0x3d15f989	0.03661493
222	0xbd606510	-0.05478388
223	0x3e03fb60	0.1288886
224	0xbe029198	-0.12750852
225	0x3dbede16	0.09319703
226	0x3dc9f4cb	0.09861144
227	0xbd3b9a97	-0.045801725
228	0xbd03740e	-0.0320931
229	0xbaef3b84	-0.001825199
230	0x3d55259d	0.052037824
231	0xbdb03917	-0.08604639
232	0xbb94679f	-0.004528954
233	0xbe016e65	-0.12639768
234	0xbd272dba	-0.040815093
235	0x3c056333	0.008141327
236	0x3d6620cf	0.056183632
237	0xbcea27a8	-0.028583363
238	0x3dc118e9	0.09428579
239	0x3ca31ca2	0.019911114
240	0xbe4ac1df	-0.19800518
241	0x3da1a691	0.07893098
242	0x3db2652d	0.08710704
243	0xbdd7e8c7	-0.10542446
244	0x3c290722	0.010316642
245	0x3da07da0	0.07836461
246	0xbe0fb555	-0.14034016
247	0x3df7b79a	0.12095566
248	0xbe736328	-0.23768294
249	0xbd463e7a	-0.048399426
250	0x3d8c6ad0	0.0685631
251	0xbdfbc5a4	-0.12293556
252	0x3c07d9bd	0.008291659
253	0x3c034d23	0.008013996
254	0x3c17fc99	0.009276533
255	0x3d12bbb2	0.03582353

fc.2.bias f4 [10]
0	0xbce215c4	-0.02759827
1	0xbd0cf3a0	-0.034412026
2	0x3caa935c	0.02082222
3	0xbba7e3ca	-0.00512359
4	0xbd6543de	-0.055972926
5	0xbd770501	-0.060307506
6	0xbdc5792c	-0.09642252
7	0x3d576a2b	0.052591484
8	0x3d4f163c	0.050558314
9	0xbc24c405	-0.0100565
