Teaching Content/L4T4 - Pytorch/Digit Classification/digit_model.pth (torch, 831024 bytes, 8 tensors)

conv.0.weight f4 [16, 1, 3, 3]
0	0xbb6c1740	-0.00360246
1	0x3e7742a7	0.2414652
2	0x3e6bf5d1	0.2304299
3	0x3eda2705	0.42607895
4	0xbccfcd79	-0.025366532
5	0x3bd60a68	0.0065320022
6	0xbefc5cf7	-0.49289677
7	0xbe86f85a	-0.26361352
8	0x3ab5cab8	0.0013869619
9	0xbe842068	-0.25805974
10	0x3db88da2	0.09011389
11	0x3ecf2713	0.404595
12	0x3e077522	0.13228276
13	0x3e1c5742	0.15267661
14	0x3eaeeabf	0.34163472
15	0x3e2293f9	0.1587676
16	0x3ea463ad	0.32107297
17	0xbe684e38	-0.22686088
18	0x3c5f97c8	0.013647027
19	0xbf017a0c	-0.50576854
20	0x3df5e22b	0.12006029
21	0xbf2e821a	-0.6816727
22	0xbe0e9246	-0.13922986
23	0x3f1ac462	0.60455906
24	0xbed95787	-0.4244959
25	0xbdcb320a	-0.099216536
26	0x3ea1857d	0.31547156
27	0x3d60face	0.054926686
28	0x3efc394e	0.4926247
29	0x3ec2446a	0.3794282
30	0xbe777179	-0.2416438
31	0x3d395495	0.04524668
32	0x3f066246	0.52493703
33	0xbeec1a00	-0.46113586
34	0xbf319428	-0.69366693
35	0xbe1981f7	-0.14990984
36	0x3e14f463	0.14546351
37	0x3e13a377	0.14417826
38	0xbe498890	-0.19681
39	0x3ee73e5e	0.4516477
40	0x3e87e985	0.2654535
41	0xbcbb264f	-0.022845415
42	0xbe316826	-0.17324886
43	0x3ecb6725	0.3972713
44	0xbe27d67e	-0.16390416
45	0xbd3b6796	-0.045753084
46	0xbe4c5236	-0.19953236
47	0xbe701450	-0.23445249
48	0xbbb085ab	-0.005387028
49	0x3c453800	0.012037277
50	0xbe5591bb	-0.20856373
51	0x3d9bca00	0.07606888
52	0xbe5e91ae	-0.2173526
53	0xbe225158	-0.15851343
54	0x3ec541f6	0.38526887
55	0x3cafc808	0.021457687
56	0x3e249768	0.16073382
57	0xbc756f92	-0.014980214
58	0x3ebc0401	0.36721805
59	0xbdafe0a7	-0.08587771
60	0x3e58e06c	0.2117936
61	0x3c909880	0.017650843
62	0x3e882e5b	0.26597866
63	0x3ebf6115	0.37378755
64	0x3d4b6ff5	0.049667317
65	0x3de51f9d	0.111876704
66	0x3ece2886	0.40265292
67	0x3ee9dd92	0.45676857
68	0x3eced498	0.4039657
69	0x3cf9a479	0.030473934
70	0x3e77ccd1	0.24199225
71	0xbe023282	-0.1271458
72	0x3e50c8d6	0.20389113
73	0x3dd82a44	0.105549365
74	0x3ea94791	0.33062413
75	0x3ea42d2a	0.32065707
76	0x3e95c493	0.29251537
77	0x3de7ae05	0.113124885
78	0xbea49dd0	-0.3215165
79	0xbe81c29c	-0.25343788
80	0x3df0a158	0.11749524
81	0x3d3f88a1	0.04676116
82	0x3e334ecf	0.17510532
83	0x3ef04141	0.46924785
84	0x3e3db397	0.1852554
85	0x3e7524fb	0.23939888
86	0x3e10219d	0.14075322
87	0xbed66c6d	-0.41879597
88	0xbc2d5fa1	-0.010581882
89	0xbe79c7bb	-0.24392597
90	0x3d6f2691	0.05838639
91	0x3ec7ac2c	0.38998544
92	0xbe1b24c0	-0.15150738
93	0x39ae17a5	0.00033205483
94	0x3e89f918	0.26947856
95	0xbdfd688a	-0.12373455
96	0xbec244a7	-0.37943003
97	0x3e740701	0.23830797
98	0x3ec2d50f	0.38053176
99	0xbf104cf2	-0.5636741
100	0xbe57b5dd	-0.21065469
101	0xbb550540	-0.003250435
102	0xbe8237aa	-0.25433093
103	0x3e985c6d	0.29758015
104	0x3e40f48b	0.18843286
105	0x3e3b7f0c	0.18310183
106	0x3eae1f89	0.34008434
107	0x3e97e91a	0.2967003
108	0x3edf8a84	0.43660367
109	0xbbf8225a	-0.0075724544
110	0x3c8a0570	0.016848296
111	0x3ef9642e	0.48709244
112	0x3e170ff9	0.14752187
113	0xbef0d450	-0.47036982
114	0x3e7a92e5	0.24470098
115	0xbe013eca	-0.12621608
116	0xbe0717c9	-0.13192667
117	0xbded83a4	-0.11597374
118	0xbd8081a5	-0.06274728
119	0x3ee0a994	0.43879378
120	0xbe8145a6	-0.2524845
121	0x3ef75b01	0.48311618
122	0x3e89658c	0.26835287
123	0x3eb59158	0.3546245
124	0x3e770904	0.24124533
125	0x3e64ff70	0.22363067
126	0x3d235092	0.03987176
127	0x3ecd3cae	0.40085357
128	0x3f02247c	0.5083692
129	0x3e71239f	0.23548745
130	0x3eb06e4c	0.3445915
131	0xbeb9b56c	-0.36271226
132	0x3e94dcf2	0.29074818
133	0xbf25f90d	-0.64833146
134	0xbf3c5e4d	-0.7358139
135	0xbe9b5ca6	-0.30344123
136	0xbd8d8da6	-0.06911783
137	0xbe9828c6	-0.29718608
138	0x3d443414	0.047901228
139	0xbecd7b18	-0.40132976
140	0xbe5ad6a3	-0.2137094
141	0xbea37b7a	-0.31930143
142	0x3dd7ddd1	0.10540355
143	0x3e4f7c59	0.20262279

conv.0.bias f4 [16]
0	0x3e5109e0	0.20413923
1	0xbdc92aab	-0.098225914
2	0x3d03364a	0.032034196
3	0x3c41a98e	0.01182021
4	0xbc5c708c	-0.013454568
5	0xbe8129f3	-0.25227317
6	0xbe2db86c	-0.16964883
7	0xbc8f3963	-0.017483419
8	0xbc835736	-0.016032796
9	0xbbd88f23	-0.00660886
10	0x3e380e92	0.17974308
11	0xbbc28063	-0.005935715
12	0xbd5a7427	-0.053333428
13	0xbe750a08	-0.23929608
14	0x3e0fbc0e	0.14036581
15	0x3ee69e61	0.4504271

conv.3.weight f4 [32, 16, 3, 3]
0	0xbd02264e	-0.03177481
1	0xbca086df	-0.019595562
2	0xbce295f9	-0.027659403
3	0xbc5cf7ae	-0.013486786
4	0xbe4ddf40	-0.20104694
5	0xbd4ffad9	-0.050776336
6	0x3d425018	0.047439665
7	0xbdf9bfc6	-0.12194781
8	0xbdbe74ea	-0.09299643
9	0x3d9c542f	0.07633244
10	0x3d0ed723	0.03487314
11	0xbd9cdfef	-0.076598994
12	0xbd4526d1	-0.04813272
13	0xbe2bcccb	-0.16777341
14	0x3d809f84	0.06280425
15	0xbd938063	-0.07202222
16	0x3b6aa605	0.0035804522
17	0x3df6a335	0.12042848
18	0x3e8ca4fa	0.27469617
19	0x3e82b243	0.25526628
20	0x3db2aa92	0.0872394
21	0x3e40f55c	0.18843597
22	0xbebcc8aa	-0.36871845
23	0x3d4ce61a	0.05002413
24	0xbd3f9264	-0.04677047
25	0xbea03e67	-0.3129761
26	0xbecdd1b1	-0.40199044
27	0xbe5a7f46	-0.21337613
28	0x3cd778b3	0.026302671
29	0x3e8c6c49	0.27426365
30	0x3e0c6155	0.13709004
31	0x3e140087	0.14453326
32	0x3e912140	0.2834568
33	0x3eedad71	0.46421388
34	0x3e85884b	0.26080546
35	0x3e05a561	0.13051368
36	0xbc89c848	-0.016819134
37	0xbe18c1cb	-0.14917676
38	0x3972b908	0.00023147848
39	0x3e15c23d	0.14624877
40	0xbd71dc1b	-0.0590478
41	0xbe55465c	-0.20827621
42	0x3d74bc6b	0.059750002
43	0x3df0d407	0.11759191
44	0x3df6b136	0.12045519
45	0xbc4a9ec0	-0.0123669505
46	0xbd9428f7	-0.07234376
47	0x3cc9623b	0.024582973
48	0x3da336e0	0.07969451
49	0xbd944f5f	-0.07241701
50	0x39ce7400	0.0003937781
51	0xbd10364b	-0.035208028
52	0x3c81908b	0.015815994
53	0xbd7de16e	-0.061982565
54	0xbd633433	-0.055469703
55	0xbd6dffb7	-0.058105197
56	0xbdae3300	-0.08505821
57	0x3e101159	0.14069118
58	0xbd1db4c8	-0.038502485
59	0xbdef5d4d	-0.116877176
60	0x3e0003dc	0.12501472
61	0x3e205e55	0.15660985
62	0xbd1497da	-0.03627763
63	0x3d500895	0.050789434
64	0xbde3bc3c	-0.11119887
65	0xbc86b4aa	-0.01644357
66	0x3d4a94b3	0.049458217
67	0xbd9b90bb	-0.075959645
68	0xbe043bc1	-0.1291342
69	0x3d430766	0.047614478
70	0x3dd8de42	0.10589267
71	0x3cba0a99	0.022710131
72	0xbd260c5c	-0.04053913
73	0x3cfdbfc2	0.030975226
74	0xbcae7de3	-0.021300262
75	0x3cde202b	0.027114948
76	0xbe2fb467	-0.17158662
77	0xbe3ee9a1	-0.1864381
78	0x3dffd4b8	0.12491745
79	0x3dd852d3	0.105626725
80	0x3ca8da05	0.020611772
81	0x385f4466	5.3231044e-05
82	0xbb942264	-0.0045207012
83	0x3d8a8fa1	0.06765676
84	0x3c058404	0.008149151
85	0xbe1a79f4	-0.15085584
86	0xbd1b801c	-0.03796397
87	0x3df31867	0.11869889
88	0x3cb9c33c	0.022676103
89	0x3c900dc6	0.017584693
90	0xbcc9cbc7	-0.024633301
91	0xbd218ec2	-0.039442785
92	0xbdacf74f	-0.08445608
93	0x3dc33743	0.09532025
94	0x3c823331	0.01589355
95	0xbdbb7608	-0.09153372
96	0x3e06d652	0.13167694
97	0x3ba22ea0	0.004949406
98	0x3c5ae796	0.013360878
99	0x3cce2583	0.025164371
100	0xbdbfe7fb	-0.09370419
101	0xbcf40da8	-0.029791668
102	0x3cb35b4b	0.021894118
103	0xbda04a96	-0.07826726
104	0x3dcd6c77	0.10030454
105	0xbdfb9280	-0.12283802
106	0x3d40984f	0.047020253
107	0x3dc4b266	0.09604339
108	0x3dfd9a37	0.1238293
109	0x3da5d12d	0.08096538
110	0x3d93b1a9	0.0721162
111	0x3e11c663	0.14235835
112	0x3cc5b16e	0.024132457
113	0xbdd455ac	-0.10367903
114	0xbe5805d0	-0.21095967
115	0xbbbcbca5	-0.005759793
116	0x3cfbb560	0.030726135
117	0x3d1e1e0c	0.038602874
118	0xbd8c0cf6	-0.068384096
119	0x3c1794ad	0.009251756
120	0xbca73fa9	-0.020416098
121	0xbdceef77	-0.10104268
122	0x3c2282c5	0.009918873
123	0x3a7e18e3	0.00096930395
124	0x3d92a976	0.07161228
125	0xbd2bc7d2	-0.04193861
126	0x3dc63a5e	0.096791014
127	0x3e4f9fd0	0.20275807
128	0x3d1de7d0	0.03855115
129	0xbe35d8b9	-0.17758454
130	0xbc8e1895	-0.017345706
131	0x3dcd91b0	0.10037553
132	0xbe8dd87a	-0.2770422
133	0xbe1ace72	-0.15117815
134	0x3da40bb2	0.08010043
135	0xbd9a3fdd	-0.07531712
136	0xbe2e7787	-0.17037784
137	0xbe12e307	-0.14344417
138	0xbea9e3b3	-0.33181533
139	0xbe90749c	-0.28213966
140	0xbd81d1f4	-0.063388735
141	0xbe4ec75d	-0.20193239
142	0xbe40503f	-0.18780611
143	0xbd687c1b	-0.05675898
144	0xbde146c0	-0.109998226
145	0xbdb97533	-0.09055557
146	0x3d5846e1	0.05280197
147	0x3dddca18	0.10829562
148	0x3ddcdb75	0.107840456
149	0xbd7baaa0	-0.061442018
150	0x3e0c06ef	0.1367452
151	0x3e28f28a	0.16498771
152	0x3dad1470	0.08451164
153	0xbe0f77ab	-0.14010493
154	0xbdc28ba3	-0.0949929
155	0xbe7d9b44	-0.2476626
156	0xbd068194	-0.03283842
157	0x3c1b4c00	0.009478569
158	0x3d8771f0	0.06613529
159	0x3cf6adc7	0.03011216
160	0xbd92ea63	-0.07173612
161	0x3db362bc	0.087590665
162	0xbe828bcc	-0.25497282
163	0xbeb811ec	-0.35951173
164	0xbea253bb	-0.31704506
165	0xbe93a27e	-0.2883491
166	0xbe8781f2	-0.26466328
167	0xbe126be2	-0.14298967
168	0xbdfc7522	-0.12327029
169	0xbd89a0bb	-0.0672011
170	0xbe45ccaa	-0.19316354
171	0xbec2fe17	-0.3808448
172	0xbd68e287	-0.05685666
173	0x3cc1ec47	0.023672236
174	0x3d1926cd	0.03739052
175	0x3e15ae17	0.14617191
176	0x3d2cfb68	0.042231947
177	0x3e9dd3d3	0.30825672
178	0x3e9da6d2	0.30791336
179	0x3e528abd	0.20560737
180	0xbdaed124	-0.08535984
181	0xbe3e6c6b	-0.18596046
182	0xbdd470ef	-0.10373103
183	0x3d1eee28	0.038801342
184	0x3d7ba472	0.061436124
185	0x3e14a30c	0.14515322
186	0x3e039bc2	0.12852386
187	0x3dec4d7a	0.11538215
188	0x3d77dbae	0.060512237
189	0xbc4da2ab	-0.01255099
190	0x3cb11ab0	0.02161917
191	0xbd622a43	-0.055216085
192	0xbd06f1f6	-0.032945596
193	0xbd901ed3	-0.07037129
194	0x3d8573b3	0.065162085
195	0xbd5380fb	-0.051636677
196	0x3d01281e	0.0315324
197	0xbd833e6f	-0.06408393
198	0xbdabb08e	-0.083832845
199	0xbe020fe1	-0.1270137
200	0xbdb84c73	-0.089989565
201	0x3dd1b65c	0.102398604
202	0x3c6af74f	0.0143411895
203	0x3baf408c	0.0053482708
204	0x3dbcdec9	0.092221804
205	0x3b917d0c	0.0044399556
206	0x3e18050c	0.14845675
207	0xbe2b6d7c	-0.16740984
208	0xbe75baab	-0.2399699
209	0xbe5a661b	-0.21328013
210	0x3df0bcea	0.117547825
211	0x3e35bd14	0.17747909
212	0x3da9a9d3	0.082843445
213	0x3e0c3d20	0.13695192
214	0x3ca77752	0.020442639
215	0x3cb10c1c	0.02161222
216	0xbe4f4d21	-0.20244266
217	0xbe60f459	-0.21968211
218	0xbe6b0d9e	-0.22954413
219	0x3dbd1426	0.09232359
220	0x3e05f5a0	0.1308198
221	0x3c2e4120	0.010635644
222	0x3e617947	0.2201892
223	0x3e4fb945	0.20285518
224	0x3dcb159f	0.09916233
225	0xbea12184	-0.31470883
226	0xbdbef87e	-0.0932474
227	0xbe432fa9	-0.1906115
228	0x3e0b2f65	0.13592298
229	0x3dc6209f	0.09674191
230	0x3d16064c	0.0366271
231	0x3d89bef2	0.06725873
232	0x3dad3a19	0.08458347
233	0x3e08d9ce	0.13364336
234	0xbd9016d2	-0.07035603
235	0xbd1c3f03	-0.03814603
236	0x3c5dc567	0.013535834
237	0x3c329a13	0.010900992
238	0x3dc72392	0.097235814
239	0xbc87e8b6	-0.016590457
240	0x3db544f5	0.08851043
241	0xbc21bcfe	-0.009871719
242	0x3d3e2a4a	0.04642705
243	0x3db590c8	0.088655055
244	0xbd75dcea	-0.060025133
245	0xbd62edc8	-0.055402547
246	0x3df75801	0.12077332
247	0x3d8a829e	0.067631945
248	0x3db22cdd	0.08699963
249	0xbe151e32	-0.145623
250	0xbc9ac426	-0.018892359
251	0xbd8faea0	-0.07015729
252	0xbe214228	-0.15747893
253	0xbe9eda85	-0.31026092
254	0xbdf78583	-0.12086012
255	0x3d0c0ae2	0.034190066

conv.3.bias f4 [32]
0	0xbd22ea10	-0.039774
1	0x3cf024e6	0.02931447
2	0xbd46e912	-0.048562117
3	0xbde3da9b	-0.1112568
4	0xbe155f56	-0.14587149
5	0xbdec8fee	-0.1155089
6	0xbd7f97c6	-0.0624006
7	0xbce633c0	-0.028100848
8	0xbdd2f36c	-0.10300335
9	0xbd20da32	-0.039270587
10	0xbe0db5c9	-0.13838877
11	0xbd601afc	-0.054713234
12	0xbd844e7b	-0.064602815
13	0xbd848cfc	-0.06472203
14	0xbd731886	-0.05934956
15	0xbe2b2fee	-0.16717502
16	0xbadbe1c8	-0.0016775662
17	0xbdad0f29	-0.08450157
18	0x3cc93fd4	0.024566568
19	0x3d4a6cd6	0.0494202
20	0xbcb27772	-0.021785472
21	0xbd60d10d	-0.054886866
22	0xbceeb235	-0.02913771
23	0xbd449bd5	-0.048000176
24	0xbdc75ea8	-0.09734851
25	0x3d396459	0.045261715
26	0xbdd6e57b	-0.10492989
27	0xbd99a35b	-0.07501861
28	0xbda663b2	-0.08124484
29	0xbdb1eb76	-0.08687489
30	0xbcf55ff8	-0.029952988
31	0xbd70c180	-0.058778286

fc.0.weight f4 [128, 1568]
0	0xbcacb870	-0.02108404
1	0x3cbce27b	0.023057213
2	0x3cb3ea02	0.02196217
3	0x3ccd5701	0.0250659
4	0xbc816283	-0.015794044
5	0x3ce9153c	0.028452508
6	0x3d1a0a1f	0.03760731
7	0xb9cd4f18	-0.00039159576
8	0x3b243dd9	0.0025061278
9	0xbd9d001f	-0.07666039
10	0xbe14c568	-0.1452843
11	0xbd9af0ae	-0.07565437
12	0x3d00c95a	0.031442024
13	0x3cf3e57a	0.029772509
14	0x3c303979	0.01075589
15	0xbd4c9c52	-0.049953766
16	0x3c81c4bc	0.01584088
17	0x3d118a4d	0.035532285
18	0x3c199f5a	0.009376371
19	0xbbf33e41	-0.0074231927
20	0x3d0d0ec3	0.034437906
21	0x3c612107	0.0137407845
22	0xbd37ab4c	-0.044841096
23	0xbb3be8d3	-0.002867271
24	0x3da1c561	0.07898975
25	0xbd618b7e	-0.05506467
26	0xbc94a2d2	-0.018144045
27	0x3c6140ce	0.013748361
28	0xbc2bdde2	-0.010489913
29	0x3cd02f7f	0.025413273
30	0x3d6b13ec	0.057392046
31	0x3d1d9a8f	0.038477477
32	0x3d8b6d48	0.06807953
33	0x3ce32cad	0.027731264
34	0xbb653fe8	-0.0034980718
35	0x3c69d012	0.014270799
36	0x3cdaed9b	0.026724627
37	0x3dbc1af0	0.091848254
38	0x3db4a7bb	0.088210545
39	0x3d8d4f4f	0.068998925
40	0x3a5b5ba1	0.0008367841
41	0xbccbd732	-0.024882887
42	0x3cd2000d	0.02563479
43	0x3c9a511f	0.01883751
44	0xbc89f2d1	-0.016839417
45	0xbc884059	-0.016632246
46	0x3b98d8c0	0.0046645105
47	0xbcd3a26e	-0.025834288
48	0x3ce9b713	0.02852968
49	0x3b33fe42	0.0027464782
50	0x3dce7f73	0.10082903
51	0x3d8f2dc6	0.069911525
52	0x3d1e0298	0.038576692
53	0xbbcdb21a	-0.006277335
54	0x3d0ffa20	0.035150647
55	0x3d05246c	0.032505438
56	0xbc5ee059	-0.013603293
57	0xbdaf966b	-0.08573612
58	0xbda453b3	-0.08023777
59	0xbd958fa9	-0.073027916
60	0xbc4231e6	-0.011852717
61	0x3a35e91e	0.0006939339
62	0x3bf24f9b	0.0073947436
63	0xbc694a83	-0.014238956
64	0x3c0769ee	0.008265002
65	0xbb0f2757	-0.0021843517
66	0xb9850d57	-0.00025377676
67	0xbd833bb3	-0.06407871
68	0xbd8805b0	-0.0664171
69	0xbd674a8c	-0.056467578
70	0x3be3abc7	0.0069479677
71	0xbc3d5933	-0.011556911
72	0xbce2aacb	-0.027669331
73	0x3d82c256	0.06384723
74	0x3d9b4ad2	0.0758263
75	0x3afe3ce2	0.0019396807
76	0xbd30630d	-0.043063212
77	0x3cae2879	0.021259533
78	0xbdff3911	-0.124620564
79	0xbdcdbf5e	-0.10046266
80	0x3a1f7b49	0.00060837396
81	0x3c23b9ae	0.009993
82	0x3d0b0fb7	0.033950534
83	0x3c9af7af	0.018916933
84	0xbcb558d4	-0.022137083
85	0xbe07e1af	-0.13269685
86	0xbe00a030	-0.12561107
87	0xbd4680d7	-0.048462715
88	0x3d511ef7	0.05105492
89	0x3e0443e8	0.12916529
90	0x3d288c95	0.041149694
91	0x3b9f951c	0.00487007
92	0xbd098c70	-0.033581197
93	0xbe004d45	-0.12529476
94	0xbdcb25ed	-0.09919343
95	0x3d9e3953	0.077257775
96	0xbb8091b6	-0.00392362
97	0x3d13bba2	0.036067612
98	0x3cb250e2	0.021767084
99	0x3b3e0dec	0.0028999997
100	0x3d2233cd	0.039600182
101	0x3c6cc647	0.01445157
102	0x3d3ecd90	0.04658276
103	0xbdb2c358	-0.08728665
104	0x3d522170	0.05130142
105	0xbcb62941	-0.022236468
106	0xbac91d89	-0.0015343885
107	0x3c9be062	0.019027893
108	0xbd4ef346	-0.050524972
109	0xbbcad733	-0.0061902045
110	0xba94ab6a	-0.0011342589
111	0x3d878c5c	0.06618568
112	0x3c0a54aa	0.008443037
113	0x3d7f4630	0.062322795
114	0x3ca2d0d7	0.019874973
115	0xba118153	-0.0005550582
116	0x3db833ca	0.08994253
117	0xbc6d18a4	-0.014471207
118	0x3d8736ae	0.06602226
119	0xbd96811f	-0.07348847
120	0xbc712b89	-0.014719852
121	0xbafd6b58	-0.0019334359
122	0x3d34a41f	0.04410183
123	0xbd024ed8	-0.031813473
124	0xbd2187f4	-0.039436296
125	0x3b16edea	0.0023029991
126	0xbd29e3da	-0.04147706
127	0xbd986aa8	-0.07442218
128	0x3ca560a0	0.020187676
129	0x3d803e9e	0.06261943
130	0x3d8a53e0	0.06754279
131	0xbcea2ddc	-0.02858632
132	0x3da68313	0.08130469
133	0x3c89cc31	0.016820999
134	0x3d1f0aa5	0.03882851
135	0x3da1d47c	0.07901856
136	0x3d60cfa6	0.05488553
137	0xbcebe7c1	-0.028797032
138	0xbd327aca	-0.043574132
139	0x3cbdcb92	0.023168359
140	0xbcea8785	-0.028629074
141	0x3d4df790	0.050284922
142	0xbc6b0710	-0.014344946
143	0xbcad1dad	-0.021132315
144	0xbc7ecfdc	-0.015552487
145	0xbc6b180e	-0.014348997
146	0x3cf1ed5b	0.029532125
147	0xbc2a1058	-0.010379873
148	0x3d50fc34	0.05102177
149	0x3d990db0	0.07473314
150	0x3c7593a6	0.014988815
151	0x3c657f72	0.014007436
152	0x3d949f31	0.07256926
153	0x3d4eaa39	0.050455306
154	0xbc0103c8	-0.007874437
155	0xbd5fa521	-0.05460084
156	0xbe36317e	-0.17792317
157	0xbe119ec9	-0.14220728
158	0xbc15d8c7	-0.009145922
159	0x3e08bdea	0.13353696
160	0x3d08b7ea	0.03337852
161	0xbd4cbf31	-0.04998702
162	0xbc5fc2c1	-0.013657273
163	0xbca189ea	-0.019719083
164	0xbdd63072	-0.10458459
165	0xbcfce825	-0.030872414
166	0x3e086934	0.13321382
167	0x3d0609a2	0.03272403
168	0xbe34a1da	-0.17639866
169	0xbddc5ba5	-0.10759667
170	0x3c780531	0.0151379565
171	0xbc880ddb	-0.01660817
172	0x3cd71b12	0.026258025
173	0xbb2a2ea1	-0.0025967734
174	0x3dc7c941	0.09755183
175	0xbd89c589	-0.0672713
176	0xbda164a3	-0.07880523
177	0x3d031f73	0.032012414
178	0xbb0d553d	-0.0021565699
179	0xbab08ac2	-0.0013469087
180	0x3d5018dc	0.050804958
181	0xbd2b9001	-0.04188538
182	0xbd48eb70	-0.049052656
183	0x3d65bc16	0.056087576
184	0x3db9db4d	0.090750314
185	0x3d82852b	0.06373056
186	0x3d66309b	0.056198698
187	0x3d72c229	0.059267197
188	0xbdd22761	-0.10261417
189	0x3bf3bc7c	0.0074382406
190	0x3cf05a62	0.029339973
191	0x3d4eeef0	0.050520837
192	0x39237e5c	0.00015591964
193	0xbcee558b	-0.029093524
194	0x3d871551	0.06595863
195	0xbd8eec82	-0.06978704
196	0x3c67c592	0.0141462255
197	0xbce3b345	-0.027795443
198	0xbc3c17e8	-0.011480309
199	0xbc98d529	-0.01865633
200	0x3ca04380	0.019563437
201	0x3c979bc6	0.018506896
202	0x3c973671	0.018458577
203	0xbbbb4193	-0.005714604
204	0xbbdc65aa	-0.0067259865
205	0xbd36c30b	-0.0446196
206	0xbc51a0fd	-0.01279473
207	0x3d30afc2	0.043136366
208	0x3d0e1438	0.03468725
209	0x3b6d5da1	0.0036219137
210	0xbc843e3f	-0.016142963
211	0xbc7d88e6	-0.015474534
212	0xbbf40aad	-0.0074475617
213	0x3c416cdd	0.01180574
214	0xbcb3bf51	-0.021941813
215	0x3c5afae4	0.013365481
216	0xbc4c5e08	-0.012473591
217	0xbd1fa342	-0.038974054
218	0x3d45e029	0.04830948
219	0x3d06ef17	0.032942858
220	0xbd0727d1	-0.032996956
221	0xbc14f7cd	-0.009092283
222	0x3d2281d2	0.039674588
223	0x3d5ab7ad	0.053397823
224	0xbd5db474	-0.05412717
225	0x3d7fd7c6	0.062461637
226	0x3d3bf24d	0.045885373
227	0x3d85defa	0.0653667
228	0xbb58454c	-0.0033000289
229	0x3c3f546e	0.011677844
230	0x3ccd18b1	0.025036188
231	0xbd5b8065	-0.053589243
232	0x3c8dfe04	0.017333038
233	0x3c7b481d	0.015337017
234	0x3bc76a8c	0.0060856994
235	0xbc7ee479	-0.015557402
236	0x3c4450bc	0.011982139
237	0xbd5481db	-0.051881652
238	0xbd0cede8	-0.034406573
239	0xbd777969	-0.06041852
240	0x39a78a54	0.00031955785
241	0xbc0c2ddf	-0.008555858
242	0xbcf9f88e	-0.030514028
243	0x3b87fa28	0.004149694
244	0xbd2bcb31	-0.041941825
245	0xbcb554f5	-0.022135237
246	0x3dce91d5	0.10086409
247	0x3d7fd6a8	0.06246057
248	0x3cce34f4	0.025171734
249	0x3d290702	0.04126645
250	0x3d998899	0.07496757
251	0xbcaf3f18	-0.02139239
252	0xbbc5c0f8	-0.0060349666
253	0xbc8ac9a2	-0.01694185
254	0xbd09bf83	-0.033629905
255	0x3ceab7e2	0.028652135

fc.0.bias f4 [128]
0	0x3c936287	0.017991317
1	0xbc629935	-0.013830473
2	0x3c61eab8	0.0137888715
3	0x3ca073f2	0.019586537
4	0xbb30633e	-0.0026914622
5	0x3cd4cbff	0.02597618
6	0xbb09f5c3	-0.0021051026
7	0xbc06b13d	-0.008220968
8	0x3cec6aeb	0.028859576
9	0xbc54822d	-0.012970489
10	0x3cc9f452	0.024652634
11	0x3ceb3160	0.028710067
12	0xbc93784c	-0.018001698
13	0xbcb5d104	-0.022194393
14	0xbc28170a	-0.010259399
15	0x3d56cd0f	0.052441653
16	0x3c77b617	0.015119097
17	0xbd334a32	-0.04377193
18	0xbca0815b	-0.019592931
19	0xbcd272dc	-0.025689535
20	0x3be5b87a	0.0070105167
21	0x3bb4ea0e	0.0055210656
22	0x3b97c036	0.0046310676
23	0xbc85a75a	-0.016315151
24	0x3c8674b6	0.016413074
25	0xbcc7f8fa	-0.024410713
26	0xbc7448d5	-0.014909943
27	0x3ca4569f	0.020060835
28	0x3be00845	0.0068369233
29	0xbc2126ab	-0.009835879
30	0xbd19c176	-0.037538014
31	0x3c0467c6	0.008081382
32	0xbc081e63	-0.008308026
33	0xbbbd094d	-0.005768931
34	0xbcae1b32	-0.021253202
35	0xbc39f3c1	-0.011349619
36	0x3cd266cc	0.025683783
37	0x3be1d6f4	0.0068920795
38	0xbc8352b1	-0.016030641
39	0x38fa2e92	0.00011929603
40	0xbce969e6	-0.02849288
41	0x3c5851f9	0.013203138
42	0x3c8317b2	0.01600251
43	0xbb898fb6	-0.00419804
44	0xbbf8c94c	-0.007592356
45	0x3b73e56f	0.003721561
46	0xbbb15ca1	-0.0054126536
47	0x3cb94ddb	0.022620132
48	0x3d85f5eb	0.06541046
49	0xba4d6d3e	-0.0007836408
50	0xbc983d5a	-0.018583942
51	0x3c4eaa1e	0.012613801
52	0xbb587c08	-0.0033032913
53	0xbc0e4818	-0.008684181
54	0xbc85e8ad	-0.0163463
55	0x3b500470	0.0031740926
56	0xbb9a63e9	-0.0047116172
57	0xbc1d4b73	-0.009600508
58	0x3c451820	0.012029678
59	0x3c73c55e	0.014878599
60	0x3b15c46e	0.0022852677
61	0x3c4433bb	0.011975224
62	0x3ba2e537	0.004971172
63	0x3c295891	0.010336057
64	0x3d3ffe5c	0.046873435
65	0x3ca9f296	0.020745557
66	0x3b20c45f	0.0024531109
67	0x3cbb2193	0.022843158
68	0x3cd71c8d	0.026258731
69	0xbd216431	-0.03940219
70	0x3b9d5173	0.0048009693
71	0x3aae4d8a	0.0013298255
72	0xbb851e07	-0.0040624174
73	0x3c801971	0.015637131
74	0x3b4c667c	0.0031189015
75	0x3c60e540	0.013726532
76	0x3b349c9e	0.0027559171
77	0xbcf53514	-0.029932536
78	0xbcef5b5f	-0.029218374
79	0xbc9421f2	-0.018082593
80	0x3d07956a	0.033101477
81	0x3c3ef6b4	0.011655498
82	0x3adbc0e9	0.0016765866
83	0xbcddc892	-0.027073178
84	0x3d134b20	0.035960317
85	0x3c835bbd	0.016034955
86	0x3cb4de88	0.022078767
87	0xbcd11e92	-0.025527272
88	0x3d07a72c	0.033118412
89	0x3cee71a0	0.029106915
90	0xbc60792d	-0.013700766
91	0x3d24c04e	0.04022246
92	0xbb9f3b10	-0.0048593357
93	0xbc249a2d	-0.010046524
94	0xbb45b7ac	-0.0030169291
95	0xbc9f5554	-0.019449867
96	0xbc62f9b6	-0.013853481
97	0x3c492328	0.012276448
98	0xbcd08dc7	-0.02545823
99	0xbc9a5611	-0.018839868
100	0x3c63bcce	0.013899995
101	0xbcba8c50	-0.022771984
102	0x3bcbc2a5	0.006218272
103	0x3cd05123	0.025429314
104	0xbd05b721	-0.03264535
105	0x3b4f448d	0.0031626553
106	0xbd00f262	-0.031481154
107	0xbc339050	-0.0109597
108	0x3ce226b5	0.027606348
109	0x3c87dca0	0.016584694
110	0x3b8415dc	0.004030926
111	0xbab2459b	-0.0013601066
112	0x3b9edc6d	0.004848054
113	0x3d24f9fa	0.04027746
114	0xbcc2dd83	-0.023787266
115	0x3b909275	0.0044119903
116	0xbce475bb	-0.02788817
117	0x3ad35203	0.0016122464
118	0x3c6c87ab	0.014436643
119	0x3ccb778a	0.024837274
120	0x3c3055f0	0.010762677
121	0xbc9437fa	-0.018093098
122	0xbc9fae15	-0.019492188
123	0x3bbcb354	0.0057586823
124	0xbab0d36b	-0.0013490742
125	0xbb99fd44	-0.004699381
126	0x3cdbeb22	0.026845518
127	0x3c744be3	0.014910671

fc.2.weight f4 [10, 128]
0	0x3d3828ff	0.044960972
1	0xbd83eeae	-0.06442009
2	0x3caeaed3	0.021323597
3	0xbc213b98	-0.009840868
4	0x3d0695cd	0.032857705
5	0x3be19c1b	0.0068850643
6	0xbda556f3	-0.08073225
7	0xbe1594c7	-0.14607535
8	0x3dfe2fa6	0.12411432
9	0xbded9fc4	-0.116027385
10	0x3d926484	0.07148078
11	0xbbd4f9e8	-0.0064995177
12	0x3cbc4fde	0.022987302
13	0x3d8b72f1	0.06809033
14	0x3d355785	0.04427292
15	0x3dc29060	0.095001936
16	0x3df4ef2e	0.119596824
17	0xbd386e9b	-0.045027357
18	0xbbe6e3b8	-0.007046189
19	0x3d11c59e	0.035588853
20	0xbde292ac	-0.11063132
21	0xbcc32a81	-0.023823978
22	0x3da6ae23	0.08138683
23	0xbd5aa6a8	-0.053381592
24	0xbdabf833	-0.083969496
25	0x3ddff2bd	0.109349705
26	0x3c9a03ea	0.018800694
27	0x3dba3fe5	0.09094218
28	0x3cf5ff18	0.030028865
29	0xbd87ef47	-0.066374354
30	0xbd2eceae	-0.042677574
31	0xbdfbc18a	-0.12292774
32	0xbe558fea	-0.2085568
33	0xbdc3ab3f	-0.09554147
34	0xbe1a56e8	-0.15072215
35	0xbcebf3f9	-0.028802859
36	0x3cdafe87	0.026732696
37	0xbd9f9c6b	-0.07793506
38	0xbd4c995c	-0.049950942
39	0xbdc79647	-0.0974546
40	0xbcfe84d5	-0.031069199
41	0x3d8c3531	0.06846083
42	0x3d1c5968	0.038171202
43	0xbd49f649	-0.04930714
44	0xbdd6fbaf	-0.104972236
45	0x3d6b4c4b	0.057445806
46	0x3db31bd9	0.08745546
47	0xbcce8304	-0.025208957
48	0xbd457c07	-0.048213985
49	0x3baaf745	0.005217465
50	0xbd931df9	-0.07183451
51	0xbcdad94e	-0.026714947
52	0xbd7820f1	-0.06057829
53	0x3ca54962	0.020176593
54	0xbdb93fda	-0.09045382
55	0x3d6fb58c	0.058522746
56	0x3e18d829	0.14926209
57	0x3d2c8f2c	0.042128727
58	0x3c889176	0.016670924
59	0xbe604342	-0.21900657
60	0x3d91e82c	0.071243614
61	0x3c52dcf6	0.012870064
62	0x3d8ad6f0	0.06779277
63	0xbdbbf345	-0.09177259
64	0x3dd326a0	0.103101015
65	0x3d3f3cbf	0.04668879
66	0x3d4fdb20	0.050746083
67	0xbe03c2f8	-0.12867343
68	0x3dc666ef	0.09687602
69	0x3d132049	0.03591946
70	0xbcee50ae	-0.029091205
71	0xbdb912fc	-0.09036824
72	0xbd840048	-0.06445366
73	0xbc697218	-0.0142483935
74	0x3d9069fc	0.07051465
75	0xbc5178e8	-0.012785174
76	0x3e0d3848	0.13791001
77	0xbda9764d	-0.08274517
78	0xbc340431	-0.010987327
79	0xbd2b7281	-0.041857246
80	0x3dcf1056	0.10110538
81	0x3c0092d9	0.007847511
82	0xbdb68957	-0.08912914
83	0xbd0ee3e4	-0.034885302
84	0x3db854a2	0.090005174
85	0xbda543b3	-0.08069553
86	0x3d8ccc30	0.06874883
87	0xbcf03883	-0.029323822
88	0xbdd6a697	-0.10480993
89	0x3d495588	0.049153835
90	0xbdc607be	-0.096694455
91	0xbdf70d82	-0.12063123
92	0xbdba227e	-0.0908861
93	0xbce8fb3f	-0.028440116
94	0xbe6838f2	-0.22677973
95	0xbdac7930	-0.08421552
96	0xbc8762d7	-0.016526623
97	0xbd91706a	-0.071015194
98	0xbb81353c	-0.0039431136
99	0xbd96b620	-0.07358956
100	0x3b9eb92f	0.004843853
101	0x3d8bfb11	0.068349965
102	0xbd909333	-0.07059326
103	0xbe5eef4b	-0.2177097
104	0xbd3af4eb	-0.04564373
105	0x39348c84	0.00017218484
106	0xbda8cc4a	-0.0824209
107	0x3d96c96a	0.073626354
108	0xbe1cf503	-0.1532784
109	0x3d8c5aea	0.06853278
110	0xbd504803	-0.050849926
111	0xbe286b5f	-0.16447209
112	0x3d373693	0.04472978
113	0xbcddba68	-0.027066424
114	0x3d806520	0.06269288
115	0x3ba77980	0.0051109195
116	0x3d01b811	0.03166968
117	0xbd979390	-0.07401192
118	0x3d513fb7	0.051086154
119	0xbd110472	-0.03540463
120	0x3d4fc4e2	0.05072487
121	0xbd368ddc	-0.04456888
122	0xbe34c172	-0.17651919
123	0x3dd68b28	0.10475761
124	0x3d1330c8	0.035935193
125	0xbd940546	-0.07227568
126	0x3dee60d9	0.11639566
127	0xbd9c336b	-0.07626995
128	0xbd59bab7	-0.05315658
129	0xbce65261	-0.028115453
130	0x3c99c2ca	0.01876964
131	0xbd81d7fb	-0.06340023
132	0xbd6d0cd7	-0.057873573
133	0x3e08454f	0.13307689
134	0x3bdf2da9	0.006810863
135	0x3c0f3b5d	0.008742181
136	0x3d96df49	0.07366807
137	0xbe653d38	-0.22386634
138	0x3df9519f	0.12173771
139	0xbe2080b4	-0.15674096
140	0x3d8c35dc	0.0684621
141	0xbc432441	-0.011910499
142	0xbacf697a	-0.0015824281
143	0xbdead25b	-0.11465903
144	0xbd805de0	-0.06267905
145	0x3d0b263a	0.033972003
146	0xbd29dd41	-0.04147077
147	0xbd33b83f	-0.043876883
148	0xbe1c806a	-0.15283361
149	0xbcb31ce3	-0.02186436
150	0xbd85ba7b	-0.06529709
151	0xbd2dc5b2	-0.042424865
152	0x3c859172	0.016304705
153	0xbd79b8da	-0.060967304
154	0xbd083c9f	-0.033260938
155	0xbe18371d	-0.14864774
156	0xbd1f95b8	-0.038961142
157	0x3d430154	0.04760869
158	0x3d9b510d	0.075838186
159	0x3d5310d4	0.05152972
160	0xbe351634	-0.17684251
161	0xbddbd006	-0.10733037
162	0x3cfac085	0.030609379
163	0xbc908450	-0.017641217
164	0xbdab8bca	-0.08376272
165	0x3cc9fb83	0.024656063
166	0xbc656b09	-0.01400257
167	0x3dccb4a3	0.09995391
168	0xbd0c5993	-0.034265112
169	0xbe4e17ca	-0.20126262
170	0x3d5e32e2	0.054247744
171	0xbd8b85f1	-0.06812657
172	0xbc848419	-0.01617627
173	0xbe14ec4c	-0.14543265
174	0x3e23f5c1	0.16011716
175	0xbded4c0d	-0.11586771
176	0x3e112d72	0.14177492
177	0x3c9dc3df	0.019258438
178	0xbd158348	-0.036502153
179	0xbcac755d	-0.021052057
180	0xbd983ddb	-0.07433673
181	0x3c822074	0.015884615
182	0xbd06b788	-0.032889873
183	0x3d062d14	0.032757834
184	0x3d82015d	0.06347916
185	0xbd0e1951	-0.034692112
186	0x3b9bede3	0.004758583
187	0x3d1f8efe	0.038954727
188	0x3cbf7e5f	0.023375688
189	0x3d5bf779	0.053702805
190	0xbd5595dd	-0.052144874
191	0x3e0f9f91	0.14025714
192	0x3d6f226e	0.058382444
193	0xbddcf70e	-0.107893094
194	0x3e0c211f	0.1368451
195	0x3d43e130	0.047822177
196	0xbd8bbb03	-0.06822779
197	0xbdacaee4	-0.08431795
198	0x3e081bb7	0.13291822
199	0x3da75dda	0.08172198
200	0x3b2d2eb3	0.002642554
201	0x3d277fb5	0.040893275
202	0xbde443c6	-0.11145739
203	0x3d6f17ec	0.058372423
204	0x3d742e4b	0.05961446
205	0x3cd5fcdf	0.026121555
206	0x3da55a3f	0.08073854
207	0xbd7fde08	-0.062467605
208	0xbd69fa54	-0.057123497
209	0xbc8639b1	-0.016384931
210	0x3d7a36fc	0.061087593
211	0x3d9498c8	0.07255703
212	0x3d952d26	0.07284002
213	0xbddd1a3d	-0.1079602
214	0x3d4f80d1	0.05065996
215	0xbdb0895b	-0.086199485
216	0x3de97419	0.11399097
217	0x3d5f6959	0.054543827
218	0xbc06f3ab	-0.008236806
219	0x3d9f4170	0.07776153
220	0xbc113317	-0.008862278
221	0xbde4db5c	-0.11174652
222	0x3e035028	0.12823546
223	0xbd7bacc9	-0.061444078
224	0x3c2a4d70	0.010394439
225	0xbd8a4d2e	-0.06753002
226	0x3c41b082	0.011821868
227	0x3d1b01f6	0.037843667
228	0x3d72cd21	0.059277657
229	0x3ca2c82f	0.019870846
230	0xbcbe9298	-0.02326326
231	0x3d248202	0.040163048
232	0xbd855bb5	-0.06511632
233	0x3ccbf746	0.024898183
234	0xbdbee5ab	-0.093211494
235	0xbd089ec5	-0.03335454
236	0x3d81b535	0.063333906
237	0x3d94dd49	0.07268769
238	0xbd15da89	-0.036585364
239	0x3dcf473e	0.1012101
240	0x3d996ce2	0.07491471
241	0x3e1a70ee	0.15082142
242	0x3bfb274a	0.0076645957
243	0xbdc39f19	-0.0955183
244	0x3cf0c84d	0.029392386
245	0xbcc6070f	-0.024173288
246	0xbdca2242	-0.098698154
247	0x3d3665c8	0.04453066
248	0xbe1e08c8	-0.15433037
249	0x3bf8e98a	0.0075961994
250	0xbe0ff41b	-0.14057963
251	0xbd007251	-0.03135902
252	0xbc1ce7cd	-0.00957675
253	0x3ca5a9ed	0.020222628
254	0xbde86581	-0.11347485
255	0x3da33bd1	0.079703934

fc.2.bias f4 [10]
0	0xbd71d139	-0.05903742
1	0xbd369b04	-0.04458143
2	0x3dab9f56	0.0838
3	0x3b26e2c4	0.0025464753
4	0x3d84f66a	0.06492312
5	0xbd60708c	-0.054794833
6	0xbd7c796c	-0.061639234
7	0xbd25338d	-0.040332366
8	0xbd0a3299	-0.03373966
9	0x3d8eed01	0.06978799
